models/baseline.pt (torch, 205614 bytes, 22 tensors)

in_emb.0.weight f4 [64, 24]
000000 76 34 0d 3e 30 09 35 3d b2 a0 01 3d 6b ff f1 3d
       0.13789544 0.044198215 0.03164739 0.11816295
000010 f2 6e 6b bd e9 d7 18 bc 2c ec a3 3d 91 1d 4a be
       -0.057478853 -0.009328821 0.080040306 -0.19737841
000020 0e 35 3a bd 39 c8 0e be e2 0a 0d 3d aa ee 0e 3e
       -0.045460753 -0.13943566 0.034434207 0.1395823
000030 ed 51 bc bc 23 31 f8 bd a3 90 fc bc db 6b b7 3d
       -0.022988284 -0.12118747 -0.030830687 0.08956119
000040 54 a1 f3 3d ef 53 c8 bd ce 51 3d 3e 6b 23 74 bd
       0.11896005 -0.09781634 0.18488237 -0.05960409
000050 ba ef 40 3e 2c 05 97 3d d9 36 03 3e dd 60 2a 3d
       0.18841448 0.07374033 0.12813891 0.041596282
000060 b5 e5 41 be 12 59 ef 3d 48 d0 17 3e f4 3e 26 3e
       -0.18935283 0.11686911 0.14825547 0.16234952
000070 0f 63 de 3d 67 f8 e2 3d 60 39 0c 3d dc 75 88 bc
       0.10858738 0.11082535 0.034234405 -0.016657762
000080 0a b6 03 be 25 2b 10 3c 41 2b c9 bd 2d fd 80 3d
       -0.12862411 0.008799349 -0.09822703 0.062982894
000090 08 ba 57 bd 9c d5 19 3e 5f e7 0b 3e 0b a2 21 3d
       -0.052667648 0.15022892 0.1366248 0.039461177
0000a0 37 d6 40 3d d7 f9 2a be ce d8 48 3e ac df 14 3e
       0.04707929 -0.16696869 0.19613954 0.14538449
0000b0 20 d0 3d be 2f 6d 19 be 1f 04 e1 bd cc 5f 1b 3e
       -0.18536425 -0.14983056 -0.10987114 0.15173262
0000c0 73 c1 c3 ba 45 e7 03 3e ce df 1e 3d d1 ff 23 be
       -0.0014934972 0.12881191 0.038787656 -0.16015555
0000d0 f3 d6 f3 3d 69 7c 45 3d 0f 1d d4 3c f9 2f 7f bd
       0.11906233 0.04821435 0.025892762 -0.06230161
0000e0 05 7c 0e 3e 36 13 28 3e 72 9c 39 3e c0 89 b8 bd
       0.13914497 0.16413578 0.18126085 -0.09010649
0000f0 f6 44 0f be cf 45 ee bd 3f b5 3e 3e e9 53 12 be
       -0.1399115 -0.11634409 0.18623827 -0.14289822
000100 f3 73 20 be c6 fe 0a 3d 57 63 23 3e 14 da b3 3d
       -0.15669231 0.033934377 0.15955864 0.087818295
000110 50 9e 24 3e 65 f5 82 3a 88 2b 8b bd 67 bf cf bd
       0.16076016 0.0009991346 -0.06795412 -0.10143929
000120 5f 80 9a 3d 81 56 d0 3d 72 a6 74 bd c7 15 04 be
       0.07544016 0.10172749 -0.059729047 -0.12898932
000130 c9 1e 84 bd 8b ce 02 be 78 26 b1 bd 01 ab 80 3c
       -0.06451184 -0.12774102 -0.086499155 0.015706541
000140 79 42 50 3e 00 56 b2 bb 73 87 e0 3d 29 45 16 3e
       0.20337857 -0.005442381 0.10963335 0.1467482
000150 b6 80 73 3d ca 41 38 3e e3 7e db 3c 2d a5 16 be
       0.05944892 0.17993847 0.026793903 -0.14711447
000160 3c 22 c2 bd a7 67 0f 3e bc 32 6a 3d f7 a4 8f bc
       -0.09479186 0.14004384 0.05717729 -0.017534716
000170 9e 6b d5 3d 1e d4 99 bd d6 63 b9 bd c7 92 17 bc
       0.10420917 -0.07511161 -0.09052245 -0.009251303
000180 7d 06 37 3e 82 22 11 3e 03 c4 ef bc 48 77 10 be
       0.17873569 0.1417332 -0.02926827 -0.14108002
000190 80 71 93 bd 58 14 40 be 2c aa 48 be e9 0d 1f be
       -0.07199383 -0.1875776 -0.19596165 -0.1553265
0001a0 f8 33 b1 3d 56 14 dd 3d f3 0c e2 3c c9 42 3a 3e
       0.086524904 0.107948944 0.027594065 0.18189539
0001b0 64 08 08 3e 1b ef da bd e8 9f 20 be 2b 79 d6 bd
       0.13284451 -0.10690137 -0.15686 -0.1047233
0001c0 6d 59 35 3e a2 71 e4 bd 32 77 c7 3d 22 22 05 3e
       0.17709894 -0.11154486 0.097395316 0.13001302
0001d0 b3 72 a3 bd 0c 37 0a 3e b6 f2 d3 3b 2d e5 33 bd
       -0.079808615 0.13497561 0.0064681424 -0.04391973
0001e0 22 c7 fb bd bd 5a f9 bd 73 6c 00 3e d7 07 da bd
       -0.12293841 -0.1217551 0.1254137 -0.106460266
0001f0 51 24 3f be 70 35 a5 3d 88 84 22 be 5c 25 d2 3d
       -0.18666197 0.08066833 -0.15870869 0.10261032
000200 6f e9 02 be 6a f6 b0 3d 91 28 85 bc 69 23 27 bc
       -0.1278436 0.0864075 -0.016254695 -0.0102013135
000210 ce 48 9e 3d 9e a5 bb bd 65 8e 16 3e 37 5f 49 bd
       0.0772873 -0.09162448 0.14702757 -0.04916307
000220 4f 3f 18 3e 32 95 fd bd 85 84 4d 3e d6 43 53 3e
       0.148679 -0.123819724 0.20070083 0.20631346
000230 1f 9f 4c 3d 59 92 37 be 88 49 d5 3d ba 67 22 3e
       0.049956437 -0.17926921 0.104144156 0.15859881
000240 7b 31 04 3d 9e b8 fc bb 7f a8 9b bd 26 08 e2 bc
       0.03227375 -0.007712438 -0.076004975 -0.027591776
000250 cf 3e 0d 3e bd 28 d9 3d ed 3c 37 3d 0f da 1c be
       0.13793491 0.10603473 0.044735838 -0.15317558
000260 87 68 39 3e d0 7a 6d bd 7d 38 11 be 1c 82 3c be
       0.1810628 -0.05797845 -0.14181705 -0.18409008
000270 07 19 2f 3e e8 78 32 3e 5b 14 c3 bd a8 94 bf bb
       0.17099391 0.17428935 -0.09525367 -0.0058465786
000280 32 b0 6f 3d cb 88 b7 3c 85 9a 89 bd a2 4f 1c 3e
       0.058517642 0.022404095 -0.067189254 0.15264753
000290 cb 1d cd 3d 22 a7 54 3e 72 ad 2a be b6 80 59 3e
       0.10015448 0.20766881 -0.16667727 0.21240506
0002a0 b2 33 e8 3d f2 8b 96 3b b1 f0 00 be 63 ce 1d bd
       0.11337985 0.0045943195 -0.12591816 -0.038526904
0002b0 a7 0b 2d 3e 48 19 dd 3b 5c de bf 3d cb a6 4d bd
       0.16898976 0.0067473985 0.093685836 -0.050207894
0002c0 ad d3 1c bd a0 be bc bc 59 23 e5 bd f7 76 26 3e
       -0.038287807 -0.023040116 -0.11188383 0.16256319
0002d0 44 89 80 3d 76 ee 16 3e d7 2c dc bd 84 48 04 3e
       0.06276181 0.14739403 -0.1075074 0.12918288
0002e0 32 d3 70 bd f7 25 32 be 3c f8 bd bd 67 56 3d be
       -0.05879516 -0.17397295 -0.092758626 -0.18489991
0002f0 d1 fd 02 be 8c 58 f3 bd a2 27 c3 3d 4c e7 2b be
       -0.12792136 -0.11882123 0.09529044 -0.16787452
000300 e8 1b 15 be 52 5b 80 bd 76 24 ad bd 09 8c 35 be
       -0.14561427 -0.06267418 -0.0845422 -0.177292
000310 69 c4 c3 bd 14 19 2a be 0e 31 96 3d a8 2d 85 3d
       -0.09558947 -0.16611129 0.07333575 0.06502849
000320 6d 28 e1 bd bc c2 32 be b2 84 36 3e 4d 89 a4 bd
       -0.10994039 -0.17457098 0.17824057 -0.080340005
000330 20 06 09 3e 31 72 86 bc 55 b6 65 3c bc bd 80 3d
       0.13381243 -0.016411873 0.014020522 0.06286189
000340 eb b1 49 3d 79 98 f0 3d 1d 12 38 3d 5a d5 8c bd
       0.04924194 0.11747832 0.04493915 -0.06876631
000350 94 fe 2e 3e 53 02 ec bd 1c 4c 4a 3e 85 ab fe bc
       0.17089301 -0.11523881 0.19755596 -0.031087646
000360 79 27 00 3e 35 12 9a 3d 4d ae 3e 3e 96 cd 9c 3d
       0.12515058 0.07523004 0.18621178 0.076564
000370 0a 75 a9 3d db fa 11 3e df 1d 1c bd b1 70 d2 bd
       0.082742766 0.1425585 -0.038114425 -0.102754004
000380 ae 5f dc 3c 04 27 b4 bc ab e4 1c 3e 5e 16 99 bb
       0.026901092 -0.02199126 0.15321605 -0.004671856
000390 86 a4 19 3b c2 4b 5b bd 46 e2 c6 bd b8 0d e6 3d
       0.002344401 -0.053539045 -0.09711127 0.112330854
0003a0 70 34 13 3e 62 e0 35 be 97 53 e9 bd 05 40 b8 bd
       0.14375472 -0.17761377 -0.113928966 -0.08996586
0003b0 0d 0c ed bd a9 59 5f 3c a2 eb 94 3c 13 a4 8a bd
       -0.11574564 0.0136322165 0.018178765 -0.06769576
0003c0 ce 4e df bc 40 36 07 3d cc b4 50 be 0c 3b ec bd
       -0.027259257 0.03301072 -0.20381469 -0.115347
0003d0 fc 29 57 bd 53 3b 89 3d bb df 20 3d fb 0d 00 3e
       -0.052530274 0.06700768 0.039275866 0.12505333
0003e0 ba b9 f7 bd 85 a8 4d 3c 8c 8d 3b 3e d4 5f d5 bc
       -0.120959714 0.012552385 0.18315715 -0.026046671
0003f0 5f 1a a0 bd 33 0c 2d be 21 e5 89 bd 5d 8d fd bd
       -0.0781753 -0.16899185 -0.06733156 -0.123804785

in_emb.0.bias f4 [64]
000000 8d e4 2c be 18 74 8c bd 29 69 96 3b c4 29 e5 bd
       -0.1688406 -0.068580806 0.004590173 -0.11189607
000010 36 41 08 3e 26 fd 36 3d 20 35 b1 bd 98 56 19 3d
       0.13306126 0.044675015 -0.08652711 0.037436098
000020 6a 09 6d bc ae 9a c3 b9 ad 92 85 3c 2d 05 8d 3d
       -0.0144675765 -0.00037308544 0.016305292 0.06885753
000030 3a ad a6 bb 93 66 9b bd 74 3b c3 bd 9f 35 ac 3d
       -0.005086568 -0.07587924 -0.09532824 0.08408665
000040 bf db d6 3d 90 c3 12 3e 0e 3f 8e 3d c5 1c 20 be
       0.10491132 0.14332414 0.069456205 -0.15635975
000050 a9 da ad 3d fe 54 4e 3d c3 75 8d bd 72 e2 4e 3d
       0.08488972 0.050374024 -0.06907227 0.050508924
000060 73 f8 30 be f7 cd ac bd 43 cc d7 bd 4d c9 bc bd
       -0.17282276 -0.08437722 -0.10537007 -0.092180826
000070 d7 f8 de 3d 85 7a 4d 3d e6 ee 4e be 9d 90 70 3d
       0.10887306 0.05016567 -0.2020832 0.058731664
000080 cb 14 1c 3d db 1c 78 bd 6b 23 0a 3d 72 15 85 3c
       0.038105767 -0.060574394 0.033725183 0.016245577
000090 6e af a4 3d d4 1e 68 bd 7a 47 54 3d f2 7e 10 be
       0.08041273 -0.056670025 0.051825978 -0.14110926
0000a0 28 e6 f7 bd 98 28 c2 bc a0 25 3a be b0 47 06 be
       -0.12104446 -0.023700997 -0.18178415 -0.13113284
0000b0 28 6b 3e be b6 fb 9c 3d 78 48 34 bd ce 38 8a 3d
       -0.18595564 0.076651976 -0.044014424 0.06749116
0000c0 3b 00 04 be e2 c3 ff bd 8c da cc bd 98 59 10 3e
       -0.12890713 -0.124885336 -0.10002622 0.14096677
0000d0 66 7a ae bd d8 26 d5 3d 2c d9 25 be 7c 9d 04 3e
       -0.085194394 0.104077995 -0.16196126 0.129507
0000e0 16 c7 5e be e0 b8 23 be a6 fc 45 bd f3 00 f9 3c
       -0.21755633 -0.15988493 -0.048336647 0.03039596
0000f0 73 35 db 3b ec 9a 0b 3e 17 7a 18 3d a6 c1 c7 bc
       0.0066897213 0.13633317 0.03722581 -0.024384331

in_emb.2.weight f4 [64, 64]
000000 06 cc fc 3c 7b ab 6a bd dc 85 e5 3c e0 dc 38 3d
       0.030859005 -0.057292443 0.02801793 0.045132518
000010 b9 43 b7 3c 29 ee 1b bd b6 2c 26 bc ba 58 7d bd
       0.02237116 -0.038068924 -0.010142496 -0.061852194
000020 3c 3e e3 bd 90 dc 4f bd 80 e6 b9 bd 2f f2 4d 3c
       -0.11095855 -0.050747454 -0.090771675 0.012569948
000030 bb fe c0 3d 1e 39 a0 3c a4 1f e1 3d ae 51 e4 bd
       0.09423586 0.019558486 0.10992363 -0.11148392
000040 84 cc e9 3d 97 e0 8d bd e6 bd 8f bd 40 4f 96 bc
       0.114159614 -0.06927603 -0.07018642 -0.018348336
000050 dc 8a b5 3d 70 60 f6 3d 45 ef a5 bd 89 48 95 bd
       0.08864376 0.12030113 -0.08102278 -0.072892256
000060 c4 c2 c9 3d 90 63 48 3d 72 46 8e bc e8 21 e5 3d
       0.09851602 0.048923075 -0.017367575 0.11188108
000070 80 28 82 3d c5 ff aa bd dc 19 fa 3d 80 28 c0 3d
       0.06355381 -0.083495654 0.122119635 0.09382725
000080 fa 27 de 3d 4b d0 2c 3d be a3 da 3d 60 7b 17 3d
       0.10847469 0.04219083 0.106757626 0.036982894
000090 4c 4d ec bd b9 20 9a 3d b6 ae cb bd a4 b9 ca 3d
       -0.11538181 0.075257726 -0.09945433 0.098986894
0000a0 fb 69 8b bd c1 6d ef 3c f4 12 a9 bd db 17 53 3c
       -0.068073235 0.02922714 -0.08255568 0.012884106
0000b0 d8 fa 79 3d df 53 29 3d 05 a6 7a bd 69 2f ee 3c
       0.06103024 0.04133975 -0.061193485 0.029075341
0000c0 00 5d 8d bb 08 99 96 bd af e3 16 bc 74 62 01 bd
       -0.004314065 -0.07353407 -0.009209557 -0.031588033
0000d0 21 ee af 3d 67 bd 8b bd 20 40 3e bd c7 13 d5 3d
       0.08590341 -0.06823235 -0.046447873 0.10404163
0000e0 39 e5 de 3d 7c 2f e6 3d 4f 8d d7 3c b5 fb 55 3d
       0.108835645 0.11239526 0.026312498 0.052242
0000f0 ac 51 e5 3b 8f 33 d8 bd 8c f9 95 3d 5e 8c d1 3d
       0.0069982614 -0.10556709 0.07322988 0.10231851
000100 37 50 cf 3d da 11 b5 3d bf 84 d0 3b 70 fa 92 3c
       0.10122722 0.088412955 0.006363481 0.017941684
000110 e8 14 04 bd ff 77 99 bd 36 e9 fb bc 2f 45 8a 3d
       -0.0322465 -0.074935906 -0.030750852 0.06751477
000120 ec 6a 96 3d 71 af f7 3d d0 e4 8d 3c 06 83 c2 3d
       0.073446125 0.1209401 0.01732102 0.09497647
000130 8e a8 a8 3c 11 0b 19 3c 22 18 3f 3c d2 2a cd bd
       0.020588186 0.009341017 0.011663469 -0.10017933
000140 3a 24 1b bc 40 33 d3 3d 1b 39 67 3d 20 f4 28 bd
       -0.009469086 0.103125095 0.056450944 -0.04124844
000150 00 7c f7 3d 88 da b4 3d ad b7 bd bd ae 7b 8b 3c
       0.12084198 0.08830744 -0.09263549 0.017026749
000160 a8 0a 50 3d 00 a6 e4 3a 4c 14 d2 3d 20 04 e7 bd
       0.050791413 0.0017444491 0.102577776 -0.11280084
000170 63 cf 6d bd 03 d0 d8 bd 14 9f d7 bd 54 6a d1 bd
       -0.058059108 -0.1058655 -0.105283886 -0.102253586
000180 38 5b 01 3e 31 a7 9c bc 42 09 ae 3d c0 4f d3 3d
       0.12632453 -0.019122692 0.084978595 0.103179455
000190 68 4d 80 bd d0 06 c7 3d 26 40 9b 3c 98 1d 3f 3d
       -0.06264764 0.09718096 0.018951487 0.046659082
0001a0 2f 86 c2 bc 7b 68 09 3d 78 e3 40 bd f7 a6 ac bd
       -0.023745624 0.033546906 -0.04709193 -0.084302835
0001b0 00 17 9f bd 04 bf 0c bd 0d 64 c8 3d 65 b8 ef bd
       -0.07768059 -0.034361854 0.09784708 -0.11705092
0001c0 8c 87 d0 3d d0 95 13 3d 00 7c 3d bd 36 b4 ae 3d
       0.101821035 0.036031544 -0.046260834 0.08530466
0001d0 31 ca 8b 3d 64 8d 64 3d d0 99 92 3c 85 de 04 3e
       0.06825674 0.055798903 0.01789561 0.1297551
0001e0 89 a2 22 3d 30 48 a6 3c e8 8e 96 3b 8a d5 bc bb
       0.039705787 0.020298094 0.0045946725 -0.0057627605
0001f0 a6 d8 04 bd 8c 8c 81 bd 0a dd fd bc c9 da e6 bd
       -0.032433175 -0.06325635 -0.030989189 -0.11272199
000200 43 72 92 bd 65 12 a1 bc 88 ca e1 3d f4 80 d4 bd
       -0.071507 -0.019662092 0.11024958 -0.10376158
000210 c8 49 a2 bd e5 d1 e0 bc af 9b a9 3c fe b8 7a 3d
       -0.07924229 -0.027443836 0.020704119 0.06121158
000220 20 32 96 3c 9a 32 ee bc 50 b9 c3 bd f6 1d ed 3d
       0.018334448 -0.029076863 -0.0955683 0.1157798
000230 17 fa bd bc 54 3d b0 bc 5e 6a 66 3c f0 16 db 3d
       -0.023190541 -0.021513619 0.014063446 0.10697734
000240 87 1c 78 bc 35 0e dd bc d8 05 b1 bc 34 a0 d3 3d
       -0.01514352 -0.026984314 -0.021609232 0.10333291
000250 54 15 f0 bb 44 23 be bd dc 8c 4b bd 92 38 b3 bc
       -0.0073267613 -0.0928407 -0.04969488 -0.02187756
000260 a8 23 70 bd 00 d2 3c 3d c8 6b b2 3d 14 24 9c bd
       -0.058627754 0.04609871 0.08711964 -0.07624069
000270 03 17 88 ba 7b 13 b8 bd c0 61 32 3d 38 ff 30 bd
       -0.0010382835 -0.089880906 0.043550253 -0.043212146
000280 2b 1c de 3d 93 7d e5 3d 66 da 35 bd fc c6 a6 3d
       0.10845216 0.11205592 -0.044397734 0.08143422
000290 a5 e8 de 3c 2d a4 b1 bd 9c 96 f0 bd b4 6b b2 3d
       0.027210543 -0.08673892 -0.117474765 0.08711949
0002a0 35 75 46 bd c2 37 f3 3c 0c 13 e2 3d a2 f8 0d bd
       -0.04845162 0.029689673 0.11038789 -0.034660943
0002b0 24 ba ac bd 32 28 68 bd 50 f8 9f 3d e7 14 b0 bd
       -0.08433941 -0.05667896 0.07811034 -0.08597737
0002c0 a8 1e 9d bd 08 0d 5f 3d 33 de 49 bd 45 7d 93 bd
       -0.07671863 0.054455787 -0.04928417 -0.07201628
0002d0 39 9a a1 bd 70 32 d7 3b c8 5c f8 3d ec 0e 19 3c
       -0.07890744 0.006567292 0.121270716 0.009341937
0002e0 ed ab d7 3d a4 68 cc 3d 2a 4e f3 bd 69 07 76 3d
       0.10530839 0.09980896 -0.11880143 0.06006566
0002f0 cd a1 81 bd b4 55 00 be 35 db 24 3d fd fe 79 3d
       -0.06329689 -0.12532693 0.040248115 0.06103419
000300 79 13 d4 bd b4 d2 54 bd 61 50 a8 bc c0 6b 74 3c
       -0.103552766 -0.051958755 -0.02054614 0.014918268
000310 fc f6 a4 bd ec b1 d8 bd 98 91 e8 bb 9a ed 8e bd
       -0.08054921 -0.10580811 -0.0070974343 -0.06978913
000320 78 f1 38 bd f5 2c da bc 08 d6 b9 3d fe a8 db bd
       -0.045152158 -0.026632765 0.09074026 -0.10725592
000330 f5 36 c7 bd 30 20 87 3d 2e 3d ef 3d 21 8c 97 3d
       -0.09727279 0.06597936 0.11681591 0.07399774
000340 86 7f ce bc 6d c0 31 bc 34 7d 7d 3d b0 9a e7 bd
       -0.025207292 -0.010849101 0.06188698 -0.11308801
000350 b8 4f 9b 3d df 40 93 bd 53 8f f0 bb 1a 2f bb bd
       0.075835645 -0.071901076 -0.0073413043 -0.09139843
000360 0c a7 aa bd 00 a1 cf 3c dc f2 e2 3d 18 7d f4 3d
       -0.08332643 0.025345325 0.11081478 0.11937922
000370 fd 2d 83 bc 22 32 d9 bc 20 0a 28 bc 50 aa 07 3d
       -0.01601314 -0.026513163 -0.01025632 0.033121407
000380 0d 8b ac 3d d6 b6 66 3d 93 c2 62 bd 20 c0 3e bd
       0.08424959 0.05632671 -0.05536134 -0.046569943
000390 43 87 de 3b d8 67 a7 3d f1 8c 88 bd 38 24 0e bd
       0.006791027 0.081741035 -0.066675074 -0.03470251
0003a0 d2 73 1c bd 9f 74 33 3d 88 b6 14 3d 60 e9 6a 3d
       -0.038196392 0.04381239 0.036306888 0.05735147
0003b0 00 40 3a bb 31 be 6a 3c fb 78 fd bd d7 ba fb bc
       -0.0028419495 0.014327572 -0.12376591 -0.03072874
0003c0 d8 a0 c0 3d 1c aa 9e 3d 80 ba 10 3c 4e 56 18 bc
       0.094056785 0.077472895 0.008833528 -0.00929792
0003d0 d8 a2 3d 3d 3f 42 05 bd 80 3e 3e bc 04 69 d0 bd
       0.046297878 -0.03253388 -0.011611581 -0.1017628
0003e0 c7 43 ed bd 58 48 18 3d 69 c4 c1 3d d0 25 a6 3c
       -0.11585193 0.037178367 0.094612904 0.020281702
0003f0 ab 68 7d 3c ee f7 78 3d 38 6e a7 bd b6 14 40 3d
       0.015466849 0.06078332 -0.081753194 0.04689475

in_emb.2.bias f4 [64]
000000 d6 2d 3b 3d 8a c9 a8 bb 95 f7 43 bd d4 ac 39 bb
       0.04569801 -0.0051509785 -0.047843534 -0.0028331773
000010 29 95 ae 3b e4 bd be bd 79 e5 bc bd 01 ac cd bd
       0.00532784 -0.093135625 -0.09223456 -0.10042573
000020 93 e8 b7 bd 19 28 a6 3d 26 e0 82 bd 25 f4 3f 3d
       -0.08979907 0.08113117 -0.06390409 0.046863694
000030 46 12 88 3d 43 df 97 bd d0 7a b7 bd 0d be a9 bd
       0.066441104 -0.07415631 -0.089589715 -0.082882024
000040 d4 7f 06 3e d9 2d 8a bc b2 24 0a 3d cb 48 21 3c
       0.131347 -0.016867565 0.0337264 0.009844015
000050 bf 7c 88 bd dd 2c 84 3d 71 7d 0c bd 3e cc 0f 3d
       -0.066644184 0.064538695 -0.034299318 0.03510689
000060 87 bf e3 bd 2d 28 da 3d 13 a6 89 3d af d0 99 bd
       -0.11120515 0.10652194 0.06721129 -0.07510506
000070 85 71 e7 3d c1 fe ba 3d 4e f3 d3 3d 48 1b 62 3b
       0.11300949 0.09130622 0.10349141 0.0034501124
000080 62 fb 26 bd b4 e7 94 3d ae 52 cf 3c 83 98 54 bd
       -0.04076708 0.07270756 0.02530798 -0.05190326
000090 dc a5 6d 3d e7 3d 2f 3b f7 cc 9c 3d 7d 70 55 3d
       0.058019504 0.0026739778 0.076562814 0.05210923
0000a0 fc db 04 3d f0 9d c6 bd 2b ca b5 bd 27 3a de bc
       0.032436356 -0.09698093 -0.08876451 -0.027127339
0000b0 c4 0b 65 bb 64 8e 18 3d 88 7d 06 be 36 63 a8 bd
       -0.003494964 0.03724517 -0.13133824 -0.08222048
0000c0 65 d6 bb 3d c5 f0 6f bd cd 13 bf 3d 8d fb a2 3d
       0.09171752 -0.058579225 0.093299486 0.07958136
0000d0 34 c9 18 bd ff 5b d4 3d 68 b8 b8 3d ea 6f c5 bd
       -0.037301257 0.10369109 0.09019548 -0.096404865
0000e0 be 6e 76 3d 42 32 f8 bd 2a 69 c4 3d a8 a9 ec 3d
       0.060164206 -0.12118961 0.09590371 0.11555797
0000f0 20 ab e4 3d a6 f8 a1 3d ed 8a 37 3d 11 67 08 be
       0.11165452 0.07908754 0.044810224 -0.13320567

layers.0.message_mlp.0.weight f4 [64, 70]
000000 1c 82 96 bc 7e 6f a7 ba 71 a9 be 3d 4a f9 a7 3d
       -0.018372588 -0.0012774316 0.09309662 0.08201845
000010 5d 1d e7 3d 5c f8 ec bc 9f 7c 57 3d 80 37 a0 3d
       0.112848975 -0.02892702 0.052609082 0.07823086
000020 14 4e 9b bd 3f 8d 96 3c 0d 93 b0 bc 98 9d 92 3d
       -0.075832516 0.018377898 -0.021554494 0.07158965
000030 a9 81 71 bd da ea 65 3c 4b 4e 9d 3d 2f 6a d5 bd
       -0.058961544 0.014033044 0.07680949 -0.104206435
000040 e8 32 d9 bd 0a 1c 61 bd a4 16 92 3d e4 82 99 3d
       -0.10605413 -0.05495838 0.071332246 0.074956685
000050 df 05 9c bd 9d 75 e0 3c dd 74 8c bd ce f5 4e bd
       -0.07618307 0.027399832 -0.068582274 -0.050527386
000060 ed 3b c9 3d 49 c1 56 3d 4c 78 1b bd c7 70 b9 3c
       0.09825883 0.052430425 -0.03795652 0.022636784
000070 c1 f7 91 3c f0 09 ba 3c e1 f9 3c bd df d0 9a bd
       0.017818334 0.022709817 -0.04613674 -0.0755937
000080 31 1f ad 3d 08 ad 30 3c 2b a5 5f 3d 36 65 4f bd
       0.08453215 0.010783441 0.054600876 -0.05063363
000090 1f ea 80 3d 39 3a a7 3d 28 e6 89 3d e2 77 de 3c
       0.06294655 0.08165402 0.06733352 0.027156774
0000a0 7f 2e fb 3d 1c 22 a3 3b 2a 23 fc 3c c0 7b dd 3d
       0.12264728 0.0049784314 0.030778486 0.10814619
0000b0 5c 54 f8 3d d0 f8 66 bd 2a 34 e7 3d 81 2b 4a 3d
       0.12125465 -0.05638963 0.112892464 0.049357895
0000c0 9b 57 05 bc cd 97 e0 3d 2f ac 89 bd 64 5c 94 3d
       -0.008138563 0.10966454 -0.067222945 0.072441846
0000d0 a4 12 e8 3d 39 bd b3 bd a5 01 9b bd f7 40 fd bd
       0.113316804 -0.08776326 -0.07568673 -0.12365907
0000e0 8f 6f 87 bc 77 86 d3 bd 75 e1 39 bd bb 36 fc 3c
       -0.016532687 -0.103283815 -0.04538103 0.030787816
0000f0 1d 54 a2 3d f7 66 94 3d 7d f6 78 3d fc 01 37 3d
       0.079261996 0.072462015 0.060781945 0.044679627
000100 2c 2d 8d bd d0 8c b7 bd 87 bf 16 bb df c1 dd 3d
       -0.068933815 -0.08962405 -0.0023002343 0.108279936
000110 41 83 0f 39 04 db 8b bc 21 40 ac bd 44 4f 6f bd
       0.00013686439 -0.017072208 -0.08410669 -0.058425203
000120 94 9e c1 bd f7 65 fe 3d a7 a1 6a bc e9 b0 db bd
       -0.094540745 0.12421792 -0.0143207675 -0.10727102
000130 18 43 07 3c b5 23 3a 3c 96 96 a1 bc a5 cb 40 3d
       0.0082557425 0.011361052 -0.019725125 0.04706921
000140 d2 4b 78 3d dc 32 dd bd a4 62 b3 bd fe d1 1b bc
       0.060619183 -0.10800716 -0.087590486 -0.009510515
000150 3b ec ec bd a7 b9 e8 bd bb 74 de 3d bb 6d 88 bc
       -0.11568495 -0.113635354 0.10862108 -0.016653886
000160 14 2b 5f bd 82 49 1f bd 80 e0 cd bd 68 09 bf 3d
       -0.054484442 -0.038888462 -0.100525856 0.09327966
000170 1c 7d b6 bc 8d 62 83 bd c1 30 b8 bd 32 10 97 3d
       -0.022276454 -0.064152814 -0.08993674 0.07376136
000180 e6 af 45 bc 56 d4 82 bc 98 dc da bc 27 51 5b bd
       -0.012065863 -0.01597039 -0.026716515 -0.05354419
000190 ae 74 c5 3c 5b e2 c4 3d b6 4d 98 bd f4 6c 27 3c
       0.024103489 0.096134864 -0.07436697 0.010218848
0001a0 7f 43 8e bd 12 75 4b bd 6e 7a cc 3d 92 89 a9 3b
       -0.069464676 -0.049672194 0.09984289 0.0051738704
0001b0 58 0d f4 3d 95 32 83 bc 86 fd 6f bd cb c0 97 bd
       0.119166076 -0.01601533 -0.05859139 -0.07409819
0001c0 18 6f cf 3d cb 72 b1 bd 7e 25 75 3d a6 49 07 3d
       0.10128611 -0.08664473 0.05985021 0.03302922
0001d0 82 09 04 3d e8 9f 82 3d 32 8c 14 bd 0e 11 91 3d
       0.03223563 0.06378156 -0.036266513 0.07083331
0001e0 58 c2 b9 bd 9c f7 18 bd d9 73 b9 3d d7 b0 20 3d
       -0.09070271 -0.037345514 0.09055299 0.039231148
0001f0 4f 5d 47 bc be cb c6 bc 10 9a 87 bd b2 ef 8d 3d
       -0.012168243 -0.024267074 -0.06621182 0.06930484
000200 9e 6d b2 3a 74 fc e7 3a 21 39 00 3d ff 67 b8 3d
       0.0013612991 0.0017699138 0.031304482 0.09004211
000210 07 e5 61 bd 80 ed f7 bc 14 eb af 3d df 83 93 3d
       -0.055150058 -0.030264616 0.085897595 0.07202887
000220 cc 41 81 bd a7 19 f8 bd a0 b2 d3 3c d6 f7 88 3d
       -0.06311378 -0.12114268 0.025842011 0.06687896
000230 16 a7 b1 3c 69 cd 9f 3d f0 85 b4 bd 14 db 60 3d
       0.021686118 0.07802851 -0.08814609 0.05489643
000240 ff af a5 bd 52 cb 97 3d 27 94 c3 3d f9 07 00 3d
       -0.08090209 0.07411827 0.09549742 0.031257603
000250 80 77 d3 3d bf df ae bd 00 52 cd bd 22 0e f9 bd
       0.10325527 -0.0853877 -0.10025406 -0.12160899
000260 37 26 8c 3d 53 1e 47 3d 6c d2 a5 bd a1 04 84 3d
       0.068432264 0.048612904 -0.080967754 0.064461954
000270 d4 bb d1 3d a0 e9 e3 bd 84 2c a4 3d 00 a6 3e 3c
       0.102409035 -0.11128545 0.08016303 0.011636257
000280 99 a6 8f 3c 21 1a ea 3d 07 2d d0 3d ce 96 6a 3d
       0.017535495 0.11430765 0.10164838 0.057272725
000290 70 91 b3 3d a7 90 30 3d cb 87 52 3c 76 81 c9 bd
       0.087679744 0.0431067 0.012849758 -0.09839146
0002a0 17 cf 80 3c 6a af bb bd ac 9b f6 3c e5 9d 6c 3c
       0.015723748 -0.09164317 0.030103527 0.014441942
0002b0 5c 7f 17 3c b1 e6 b4 bd f9 52 86 bd 6f 73 a7 3d
       0.009246673 -0.088330634 -0.065587945 0.08176314
0002c0 bb df 84 3d 5a 19 67 3d 06 d5 2c bd b2 e4 de bc
       0.06487986 0.05642066 -0.042195342 -0.02720866
0002d0 bf 7b 16 bd 2b fb b5 3d ee 55 38 bd 33 b0 8c 3d
       -0.036739107 0.08885797 -0.045003824 0.06869545
0002e0 2e 8c b6 3d 96 4e ed bd 0f f2 f1 3b 4b 4d 84 bc
       0.08913456 -0.11587255 0.007383592 -0.016150137
0002f0 4e a5 73 bd 1d ad 6e 3d 20 12 ad bc f2 b6 c8 3d
       -0.05948382 0.058270562 -0.021126807 0.09800519
000300 b8 0f a7 bd 64 55 48 3d 57 9d de bd 61 30 88 bd
       -0.08157295 0.04890956 -0.10869854 -0.066498525
000310 48 2c 80 3b ec 07 cf 3d 8e d6 66 3d 5c dc d5 bd
       0.0039115287 0.10108933 0.05635696 -0.10442421
000320 e2 36 d8 3b 4f 46 86 bd 53 8a a3 ba 55 e5 d9 bd
       0.0065983394 -0.06556379 -0.0012477137 -0.10639445
000330 5e 40 e6 bc 71 4e 9a 3d 49 ff d2 bd 07 4f db bd
       -0.028106865 0.07534493 -0.10302598 -0.10708433
000340 bc ec 5c 3c 5d a7 25 3c 8b d3 e3 bc 4b de d1 3d
       0.013484176 0.010110703 -0.027810832 0.10247477
000350 d6 f5 90 bd 46 80 67 bd e4 2e b1 bd c1 3c bc bc
       -0.070781395 -0.056518815 -0.08651522 -0.022978188
000360 eb db 03 bd a7 02 a8 3d e0 39 1f bc b9 bd 22 3d
       -0.032192152 0.08203631 -0.009718388 0.039731715
000370 14 c6 4e bd 0c f7 c8 3d 3b ca cf 3d fc 47 dd bd
       -0.05048187 0.098127455 0.10145994 -0.108047456
000380 60 ea 05 bd 72 73 d4 bd 0c f7 4e 3d 41 df dc bd
       -0.03269422 -0.10373582 0.05052857 -0.1078477
000390 db 76 61 bd a7 55 f0 3d d0 7b f1 bd d3 6d c0 3d
       -0.05504499 0.11735087 -0.117911935 0.09395947
0003a0 b6 1b 3d 3c 0e 41 c7 3d c0 9b 78 bd 88 b6 a2 3d
       0.011542251 0.09729205 -0.06069541 0.07944971
0003b0 f7 e9 81 3c 5b 93 18 3c b7 41 ab 3d 37 af e6 bd
       0.015858633 0.009312476 0.083621435 -0.11263888
0003c0 8f 21 c7 bd af b1 ef 3d d1 2d 99 bd f2 6b ac bd
       -0.09723198 0.11703812 -0.07479442 -0.084190264
0003d0 0d a1 bb 3b 50 4d 0b bd 2f 0c 95 bc 03 bc 9f bd
       0.005725986 -0.034009278 -0.018194286 -0.07799532
0003e0 81 af 39 3d 28 97 cd bd 22 5e 16 3c 40 81 8e 3d
       0.04533339 -0.100385964 0.009177716 0.06958246
0003f0 05 1e ae 3c e2 b3 98 3c e8 3a 8b 3c fb 91 12 bd
       0.021254549 0.018640462 0.016995862 -0.03578375

layers.0.message_mlp.0.bias f4 [64]
000000 07 ed f7 bd 0e ee 54 bd e7 36 6a bd 3c 96 a9 bd
       -0.12105756 -0.05198484 -0.057181265 -0.08280608
000010 9c 1b de 3d 0c 4d cf bd b5 57 8d bd 90 0b b5 bd
       0.1084511 -0.101221174 -0.069014944 -0.08840096
000020 5e 11 c5 3a 57 b2 cd bd 5c 13 b4 bd d3 b6 ff 3d
       0.0015035083 -0.10043781 -0.08792755 0.12486043
000030 3f cb 36 3d cc f0 65 3d 85 74 9d 3d 0f 01 75 3c
       0.044627424 0.056137845 0.0768824 0.014953866
000040 6e 97 09 3c 59 b4 c6 bd 40 ff fe 3c 19 4c ae bd
       0.00839792 -0.09702367 0.031127572 -0.08510608
000050 0d d3 62 3b 15 25 5b bd a8 72 95 bd 0b e0 9d bd
       0.003461066 -0.05350216 -0.072972596 -0.077087484
000060 8d ae 47 bd 8d 34 8a bd 57 d0 80 bd 7f 87 47 bd
       -0.04875045 -0.067483045 -0.06289738 -0.048713204
000070 9e 07 d3 bd 1b 14 ba 3d f8 62 06 3d 49 b2 e6 bd
       -0.10304187 0.09085866 0.032809228 -0.11264474
000080 42 c7 e5 bd 9c f9 8d bd 74 51 1a 3d 04 af d2 3d
       -0.11219646 -0.06932375 0.037675336 0.10287288
000090 d0 fd 0f bc 2f dd 9e 3d 04 cb b2 bc 65 e5 f1 bc
       -0.008788541 0.07757031 -0.021825321 -0.02952833
0000a0 8a bf e3 bc 6b bc fb bd 49 1d f6 3b d6 e9 a1 3c
       -0.027801294 -0.12291797 0.0075108153 0.019764822
0000b0 e1 db a9 3d 7a c1 b7 bd 82 56 0f bd bc e1 a4 3b
       0.08293892 -0.089724496 -0.03499461 0.0050317924
0000c0 d0 65 48 3c 83 2b 21 3c 23 d5 b5 bd 63 5d d0 3d
       0.012231305 0.009837034 -0.08878543 0.10174062
0000d0 2a 57 d6 bd 7a 4c 3f bd 5e bf 81 3d c6 50 d3 bc
       -0.10465844 -0.046703793 0.063353285 -0.025795352
0000e0 4a 53 78 bd e5 26 ee bd b5 95 9a 3d 84 a7 86 3a
       -0.060626306 -0.11628512 0.075480856 0.0010273312
0000f0 17 94 51 3d e3 52 a6 3c 28 a0 aa bd 15 7e 45 bd
       0.05116662 0.020303195 -0.08331329 -0.048215944

layers.0.message_mlp.3.weight f4 [64, 64]
000000 35 59 c1 3d 7b 46 5a bd 26 92 5c bd a8 53 a7 3d
       0.09440843 -0.05328987 -0.053850316 0.08170253
000010 1d 60 41 bd d2 ba 07 3d 71 d4 58 bd e5 44 02 3d
       -0.0472108 0.03313715 -0.052936975 0.031803984
000020 9f 4d d4 3c bf d2 bd bd 80 d2 be bd d0 c0 75 3d
       0.025915919 -0.09268712 -0.093174934 0.059998333
000030 e3 02 11 bd 7f 52 a2 3d bb dd 71 3c 8d ae 3f bd
       -0.035403144 0.07925891 0.014762337 -0.046797324
000040 9b 74 73 bc 6b b8 7f bd 4d 18 8a 3d 3a 8e e9 3d
       -0.014859344 -0.062431734 0.06742916 0.11404081
000050 10 63 5f 3b 80 18 91 bd 06 86 c2 3d d8 69 c4 3d
       0.0034086145 -0.07084751 0.09498219 0.095905006
000060 21 f5 cb 3d 13 6a b2 3b 62 9a be 3c be c7 80 3c
       0.09958864 0.005444774 0.023266975 0.015720244
000070 d7 6b 06 bd 35 d0 ec bd 9a 4e af bb 86 cf 5e 3d
       -0.032817688 -0.1156315 -0.005349946 0.05439713
000080 1d b2 ad 3d fd fd b2 3c 77 b3 85 3d 5d 5d af 3d
       0.08481238 0.021849627 0.06528371 0.085627295
000090 32 9f 1a bc a1 5d be 3d 88 1e 11 3e d1 9e 25 bd
       -0.009437369 0.09295202 0.14171803 -0.040434662
0000a0 93 75 67 bd 7a 5b 89 bd e4 4f aa bd 20 a4 0b 3d
       -0.056508612 -0.06706901 -0.08316019 0.03409207
0000b0 05 45 01 3e b5 8c 87 3c c7 42 c5 3c 56 24 0e bd
       0.12623985 0.016546587 0.024079693 -0.03470262
0000c0 16 12 2c bd 2b 42 fd bc e4 38 31 3d 87 ec 07 3d
       -0.042009436 -0.03091534 0.043267146 0.033184554
0000d0 db 87 31 bd 1b de 86 3c 40 a9 40 bc 5b 97 22 bc
       -0.043342452 0.01646333 -0.011759102 -0.009923781
0000e0 5a af c1 3d 87 cd 8a bd 7a f7 fd 3d bb a7 75 bd
       0.09457274 -0.067774825 0.12400718 -0.059974413
0000f0 90 29 03 3e c9 a3 3e 3d 99 17 6b 3d 94 26 b9 bc
       0.12808824 0.046542916 0.05739555 -0.022601403
000100 4e 98 e2 bc 83 32 ae bd 8d 86 e8 bd a0 fc c4 3d
       -0.027660515 -0.08505728 -0.113537885 0.09618497
000110 41 7c 03 3e cf ab 32 3d 9f 49 2d bd 3b 43 1e 3d
       0.12840368 0.04362088 -0.04230654 0.038638335
000120 9b e8 d7 3b f9 fd ca bd f2 0a be bd 8d a9 63 3d
       0.006589008 -0.09911723 -0.092794314 0.055581618
000130 e4 7f f7 bc 37 07 a8 bc 54 6e 8a bd 89 aa 7f 3d
       -0.03021235 -0.020511253 -0.06759325 0.062418494
000140 1a cd 64 bd fe e2 05 bd 80 64 97 3d 61 34 0b 3e
       -0.055859663 -0.03268718 0.07392216 0.135942
000150 68 d9 f4 3d cc 70 6c 3d 3f fb 1c 3c 45 7f d1 3d
       0.119555295 0.05772476 0.009581386 0.10229353
000160 96 73 f3 3d 45 12 83 3d 06 55 25 3d 76 f9 1a 3d
       0.11887281 0.06399969 0.040364288 0.03783556
000170 fc a8 c0 3c 73 f2 b8 3d 0c 9a 31 3d 24 9f c6 bd
       0.023518078 0.090306185 0.0433598 -0.096983224
000180 d1 b7 7d bd 63 1b d9 bd 0a cc f1 bc ac 34 68 3c
       -0.06194288 -0.10600927 -0.029516239 0.014172714
000190 09 e0 20 bd e8 63 d8 bd 03 00 e5 3c 80 e5 6a 3d
       -0.039276157 -0.105659306 0.027954107 0.057347775
0001a0 48 af e1 ba a2 27 7a bc 3a a5 ff 3c 9e 77 ac bc
       -0.0017218376 -0.015268238 0.031206716 -0.021053132
0001b0 19 0c 70 bd 79 16 41 bd e8 6c 28 bd 72 f3 dd bd
       -0.058605287 -0.047140572 -0.041119486 -0.10837449
0001c0 33 32 dc bd b4 23 22 bd 2c 22 40 3d 22 07 08 3e
       -0.10751762 -0.03958483 0.04690759 0.13283971
0001d0 3b 62 10 3c 1f 53 bd 3d 41 2f 4f 3d 95 8c b6 bd
       0.0088124825 0.0924437 0.050582174 -0.08913533
0001e0 df 86 5f bd 86 26 c3 bc 4b fc c2 bd 19 78 d2 3c
       -0.054571982 -0.02382208 -0.09520777 0.025692033
0001f0 3b 50 20 3d ae c1 b1 bd dc ea 89 bc ab 68 d5 bd
       0.039139014 -0.086795196 -0.016835622 -0.104203545
000200 e9 55 ee 3d c0 96 84 3d d2 ff 59 bd 55 68 d4 3d
       0.1163748 0.06474066 -0.053222485 0.10371462
000210 45 ac a6 bd 8f 1a d6 3d 79 71 69 bd e3 2c dc 3c
       -0.081383266 0.104542844 -0.05699298 0.026876872
000220 bc 3d a2 3d 3a 57 65 3d 88 ba e6 3c 3b 4b b3 bc
       0.07921931 0.05599139 0.028165117 -0.021886459
000230 0e 12 5c ba 01 d2 ce 3d 8d 91 2f bd 3e 1b 2d bd
       -0.00083950243 0.10098649 -0.042863417 -0.04226231
000240 a0 47 71 3c 76 f5 79 bd 59 ef 44 bd 7c c8 3e 39
       0.014726549 -0.061025105 -0.048079822 0.00018194498
000250 86 8b b4 3d dd 3e 14 3d 61 be a8 bd 4c 1b 94 3d
       0.088156745 0.036192764 -0.08239437 0.07231769
000260 d6 3c 78 bd 9b 69 a4 3c 67 7d e6 bc 3d 50 b4 3d
       -0.060604893 0.020069888 -0.028135968 0.08804367
000270 82 c9 1f bd 6b c9 5b bd 17 49 d6 bc 91 91 ee bb
       -0.039010532 -0.053658884 -0.026157899 -0.0072805365
000280 4c f8 8a bd c0 eb b7 3d f5 f9 8f bd 44 f9 8d 3c
       -0.0678564 0.089805126 -0.070300974 0.017330773
000290 d8 e8 d8 bd 33 bd a9 bc f7 e0 8d bd 1b 9e 4a bd
       -0.105912864 -0.0207201 -0.06927674 -0.049467187
0002a0 60 3c 86 3d 7d 02 eb bd 19 4a 98 3b 05 45 48 bc
       0.06554484 -0.11475084 0.004647505 -0.012223487
0002b0 26 e4 8f bd 14 1a ae 3d 3a 7f 93 3d cb 91 13 3d
       -0.07025938 0.08501068 0.07202001 0.03602771
0002c0 32 05 e5 ba 4e 31 89 3d 44 e6 60 bd d4 fa dd bd
       -0.0017472862 0.06698857 -0.0549071 -0.10838857
0002d0 0d 86 e8 3d 05 03 4f bd 27 a0 a2 3c 88 13 bf bb
       0.11353693 -0.05053999 0.019851757 -0.0058311857
0002e0 fa de ca 3d 18 53 ec 3d d4 33 b3 bd c3 d9 cc bb
       0.09905811 0.115392864 -0.0875012 -0.006251545
0002f0 66 85 d9 bd 96 63 90 3d 36 41 f1 3d e1 38 2b bd
       -0.10621147 0.070502445 0.11780016 -0.04180229
000300 43 7e f1 3c 52 99 8f bc e4 71 bd bc 18 0b d5 3d
       0.029479152 -0.017529164 -0.023125596 0.104025066
000310 d2 d3 dd bd 42 53 32 bc 3a ae bc 3b bc 6e d0 bd
       -0.10831417 -0.010884108 0.005758074 -0.10177371
000320 9a 5c 66 3d 9c 96 ad 3d 68 da bf bd 4c d4 59 3d
       0.056240655 0.08475992 -0.093678296 0.053180978
000330 ca e0 56 ba c1 7e f9 3d 45 b9 e2 bd 5c da e8 3d
       -0.00081969483 0.121823795 -0.110704936 0.11369774
000340 e6 3a 22 bd ac 8f cb 3d 87 a3 65 bd b7 49 ba 3c
       -0.03960695 0.099395126 -0.056064155 0.022740228
000350 92 4d 1c 3d 90 d8 aa 3d 89 09 5b 3d 40 8b 82 3d
       0.038159914 0.08342087 0.05347589 0.06374216
000360 5e 02 e4 bc 54 d9 bc bd 0e 21 98 bc 98 49 f4 3d
       -0.02783316 -0.092211396 -0.01857045 0.119280994
000370 87 4d e5 3d d6 51 89 bd 5f 78 ba 3d 6e 36 96 3d
       0.11196428 -0.06705062 0.0910499 0.073346004
000380 c1 47 7f bc 1c 24 a0 3d 80 dd 86 3a 32 fc b0 3c
       -0.015581072 0.07819387 0.0010289401 0.021604631
000390 e1 f8 96 bd d4 76 16 bc 66 64 af 3d 91 a0 aa 3d
       -0.07371689 -0.009183604 0.08564071 0.08331407
0003a0 17 bb bf bd c8 04 35 3a 84 5f ab 3d 7b ce 3e bd
       -0.093618564 0.00069053145 0.083678275 -0.046583634
0003b0 3e c3 10 bc b3 fe 62 3d 09 20 eb 3d c4 31 f1 3d
       -0.008835612 0.05541868 0.114807196 0.1177707
0003c0 62 c6 aa bd 7f 2a e2 bd c2 ea b4 3d 6c eb a7 bb
       -0.0833862 -0.11043262 0.08833839 -0.0051245
0003d0 20 ce cf 3d b1 fa a6 3d 79 97 2f bd 80 b4 32 3d
       0.10146737 0.08153284 -0.042869065 0.04362917
0003e0 a3 69 4a 3d 69 65 48 bd a7 c1 f3 3d e4 05 99 3c
       0.04941715 -0.048924837 0.11902171 0.018679567
0003f0 33 b1 17 bd 16 69 d9 bd 87 ea db 3d dc 1e f2 bd
       -0.037034225 -0.10615747 0.10738092 -0.11822292

layers.0.message_mlp.3.bias f4 [64]
000000 21 cc 5d bd 8b 90 ab bd 22 81 9f 3d 25 cb d1 bd
       -0.05414975 -0.08377179 0.07788302 -0.10243825
000010 8a b3 55 bd cd cb c7 3c e3 97 b9 3c a3 75 83 bd
       -0.052173175 0.024389172 0.022655433 -0.06418922
000020 e7 b6 cf bc 88 54 90 3d 2e eb 96 bd 3c 3c 86 3d
       -0.02535577 0.07047373 -0.07369076 0.065544575
000030 04 da 9e bb 31 b3 43 bd a6 23 00 be 17 cc cc bc
       -0.004847767 -0.047778312 -0.12513599 -0.024999661
000040 ee 8f c1 3d 33 21 68 bd 0b d9 d8 bd b9 8c 94 bc
       0.094512805 -0.056672286 -0.10588273 -0.018133508
000050 b0 e9 a4 3d 95 f4 02 bd 33 b8 f3 3d 8d 32 e2 3d
       0.08052385 -0.031971533 0.119003676 0.11044798
000060 d1 42 df 3d 60 45 83 bd 1e 39 a7 bd f3 4c d6 bd
       0.10901416 -0.064097166 -0.08165191 -0.10463896
000070 23 6b f4 bc a5 f2 97 bd 1d 3c 87 3d 78 55 89 3c
       -0.029836243 -0.07419328 0.066032626 0.016764387
000080 18 1c c0 3d 96 a0 f5 bd 7a 17 c7 bd 16 23 0d bd
       0.093803585 -0.1199352 -0.09721275 -0.03445729
000090 e6 bb cc 3c c1 60 bc 3d 04 f9 6e bc 40 84 e1 3d
       0.02499194 0.09198142 -0.014585737 0.11011553
0000a0 7a 78 f6 bc ff 63 8d bc 2b bb 54 bd f9 98 36 bd
       -0.030086745 -0.017259596 -0.05193631 -0.04457948
0000b0 30 6b 20 bd a6 37 d8 bd 12 a6 81 bc d8 e8 1c bd
       -0.039164722 -0.10557489 -0.015826259 -0.038307995
0000c0 ff 33 95 bd 9a a9 a8 bd 3b 2f e3 bd 15 ad 09 bd
       -0.07285308 -0.08235474 -0.11092993 -0.03361233
0000d0 40 67 bb bd 95 85 f2 3d c4 3c 34 bd f1 15 fd 3c
       -0.09150553 0.11841885 -0.044003263 0.030894252
0000e0 ba 40 ab bd 22 e0 6c 3b 4b a7 d8 bd 5c db 48 3d
       -0.08361955 0.0036144336 -0.105787836 0.049037322
0000f0 20 cb 49 3d 12 bd eb bd e5 d6 35 3d d5 77 48 3c
       0.04926598 -0.11510672 0.044394393 0.012235601

layers.0.update_mlp.0.weight f4 [64, 128]
000000 84 1d 62 bd 17 c1 25 bd 8b ed b1 3d 65 50 3c bd
       -0.05520393 -0.040467348 0.08687886 -0.045975108
000010 8c 61 9e 3d 9f b6 91 3c c0 df 25 3d 79 3a 36 bd
       0.07733449 0.017787276 0.040496588 -0.044489358
000020 e9 5e eb 3c b0 e8 9b 3c 0a 5f 90 3d d5 01 b3 bd
       0.02873178 0.019031852 0.07049377 -0.08740584
000030 8e a0 03 bd 2d 3e 10 3b 0f ed 81 bd 58 cc 76 3c
       -0.03213554 0.0022009716 -0.063440435 0.015063368
000040 72 6e 69 3d fc 2c 5a 3d ea ae 3a bd 5f 58 12 3d
       0.056990094 0.053265557 -0.045576967 0.03572881
000050 1b b7 83 bd 22 0e 61 3d e7 f3 93 bd 51 1c a4 bd
       -0.06431409 0.05494512 -0.07224255 -0.080132134
000060 58 4a fb 3c 25 b5 08 bc 28 7c b2 3c c9 6f a8 3d
       0.030675098 -0.0083439695 0.021787718 0.08224446
000070 cc 68 ad 3d c5 22 4c 3d f6 34 a4 bd ad f6 5e bc
       0.08467254 0.049837846 -0.08017914 -0.013608617
000080 b4 4d 1e 3c cf 43 b0 bd 38 62 97 3d 3d 93 6d 3d
       0.009662081 -0.086066835 0.073917806 0.058001745
000090 b9 3d 27 bd c6 1c 97 bc fb ff 51 bd a9 3f 0b 3d
       -0.040830348 -0.018446337 -0.051269513 0.033996258
0000a0 9c c1 79 3c f1 07 fb bc 4c 8e 41 3d 6c 85 9c bc
       0.015243914 -0.030643435 0.047254845 -0.01910659
0000b0 74 84 1b 3c 5c aa 7a 3d 7b 19 2a bd 19 f4 a6 bd
       0.0094920285 0.061197624 -0.041528206 -0.08152027
0000c0 d2 66 43 3d 5b 9a 6c bd 62 dd 08 3d 09 b0 d9 bc
       0.04770548 -0.057764392 0.033414252 -0.026573198
0000d0 88 07 73 3d aa 51 5c bb 7e d7 24 bd 8a 66 7f bd
       0.059333354 -0.0033618012 -0.040244572 -0.06235365
0000e0 e0 47 73 3d e2 87 62 bd 97 41 cd 3c 7d 6f 8a 3d
       0.059394717 -0.05530537 0.02505569 0.06759546
0000f0 aa 68 91 bd ed ed 97 bd 9f bc 13 3c 2b 1e 0e bd
       -0.07100041 -0.074184276 0.009017139 -0.03469674
000100 37 e2 84 bd fb 65 6f 3d 92 65 a8 bd c9 11 25 bd
       -0.064884596 0.058446866 -0.08222498 -0.040300164
000110 df 5c 96 bd 0c 60 bf 3c 3c cd f9 3b 7e 03 17 3d
       -0.073419325 0.023361228 0.007623343 0.036868565
000120 a8 93 17 3d d9 4f b7 b9 14 71 d9 bc 9c 10 a0 3d
       0.03700605 -0.0003496397 -0.026543178 0.07815668
000130 32 e4 70 3b d6 63 ac 3c 86 0e 95 bd 72 6a b1 bd
       0.0036757109 0.0210437 -0.07278161 -0.08662881
000140 c5 d5 30 bd b5 b5 3d bd 06 c9 d1 3c 79 ea 20 bd
       -0.043172617 -0.046315867 0.02560855 -0.03928611
000150 a9 3c 17 3c ac bf a7 3d 3c 98 d5 bc bf fd b8 3c
       0.009230771 0.081908554 -0.026073568 0.022581933
000160 83 14 8e 3a f8 3f 6e 3d ec 57 1e 3d 26 8f 86 bb
       0.0010839853 0.058166474 0.038658068 -0.00410642
000170 37 05 46 3d b4 5b 93 bb b8 2f 76 bc 8f 1e 0d bd
       0.048344817 -0.004497016 -0.0150260255 -0.03445297
000180 22 ac 93 bd cf 35 97 3d 74 6c 65 bd 42 91 ac bd
       -0.07210566 0.0738331 -0.056011632 -0.08426143
000190 dd 62 22 bd c7 43 92 3c a7 6b 03 bc 3e d0 24 3d
       -0.039645065 0.017854584 -0.008021272 0.040237658
0001a0 67 6c 4f 3d 3a eb 54 3d 4f e1 97 bd ff 99 13 3d
       0.05064049 0.051982142 -0.07416021 0.036035534
0001b0 90 35 33 3d 3b d8 48 bd bd 77 e0 39 6c 0d 59 3c
       0.043752253 -0.04903434 0.0004281382 0.013247829
0001c0 8b 97 35 3c 39 46 42 3d e1 af 99 3d 44 dd ad 3d
       0.011083494 0.04743025 0.07504249 0.08489469
0001d0 ff 1d a2 3c 08 b8 53 3d 6e ca 1a 3d 8b dc 43 bd
       0.019789694 0.051689178 0.03779071 -0.047817748
0001e0 9d 22 72 3d 0c c9 cd bb 51 bf 13 3d cc 48 70 bd
       0.05911504 -0.00628007 0.036071125 -0.058663175
0001f0 39 d3 90 3d 41 9a a1 3c 5e 15 a4 3c df 08 a1 bd
       0.070715375 0.019726874 0.02002972 -0.0786302
000200 32 c7 55 bc 6f 94 14 bd ca e4 b5 3d be bc 9a bd
       -0.01304798 -0.03627437 0.08881529 -0.07555531
000210 c4 a3 de bc ec 74 49 bd e7 77 70 bd dc 89 ea 3c
       -0.027177699 -0.04918377 -0.058708098 0.02863019
000220 5b f8 87 bd 88 27 15 3d c7 df 82 3c 4e a6 55 bd
       -0.06639167 0.036414653 0.015975846 -0.052160554
000230 71 b9 7c bc d3 72 55 3c a2 5e 0b bd 35 a2 52 bd
       -0.015425072 0.0130278645 -0.034025796 -0.051424224
000240 05 01 62 bd 36 be 82 3c 65 7e aa bd 93 fc 4d 3d
       -0.055176754 0.01595984 -0.08324889 0.0502897
000250 d8 de 81 3d 24 71 b1 3d 01 2a 8e 3d de 7c 35 bd
       0.06341332 0.08664158 0.06941605 -0.044308536
000260 db 13 33 bd 5d 01 73 3d 2b a2 89 bc 5c 94 74 bd
       -0.043720108 0.059327472 -0.01680096 -0.0597118
000270 82 67 43 bd ee 26 68 3d ea db 63 bd 12 b7 d2 3c
       -0.047706135 0.05667775 -0.05562965 0.02572206
000280 91 2a 8c bd aa 15 59 3d 0c 1c f3 3c 2f c5 63 3d
       -0.068440564 0.052999176 0.02967646 0.05560797
000290 13 50 09 3c 90 cb 21 3d 22 5a 89 3d 26 4d 87 bc
       0.008380908 0.039500773 0.067066446 -0.01651628
0002a0 a4 c9 93 bd 18 79 69 bd b9 3f 6a 3d b6 d8 7c bd
       -0.07216194 -0.05700025 0.057189677 -0.06173011
0002b0 b0 77 93 bd da 42 a4 bd 57 5a 0a bd 63 4a b2 3c
       -0.07200563 -0.080205634 -0.03377756 0.021763986
0002c0 f6 fd ae bd 00 c7 11 bd 7a 51 a2 3d 9e 64 1e bc
       -0.08544533 -0.03559017 0.07925697 -0.009667544
0002d0 2f 27 10 bd bd 3f 15 3d 93 f3 9f bd f7 55 98 bd
       -0.03519362 0.03643774 -0.0781013 -0.074382715
0002e0 09 7d 93 3c ea 6d 08 3d 08 60 bd bd c8 08 aa 3d
       0.018003957 0.033307947 -0.09246832 0.08302456
0002f0 45 f4 22 bd 18 71 9a 3c 8a aa 8b 3d 59 33 e9 3c
       -0.039783735 0.018852755 0.06819637 0.028466867
000300 42 65 06 3d a2 2a 9a bd 12 e1 b3 bd a2 9f 1c 3d
       0.03281141 -0.07527663 -0.08783163 0.038238175
000310 38 be 0d 3c fd 52 48 3d a2 31 1f 3d cc 36 9c bd
       0.008651309 0.04890727 0.038865693 -0.07627639
000320 01 3c b1 3c 34 00 99 bd 8d 25 32 bd 6c 05 9b 3c
       0.021635057 -0.07470742 -0.043492842 0.018923484
000330 0d e0 28 bc 0b 3b 51 bd ab be 10 3d 9f 41 65 3d
       -0.010307324 -0.0510817 0.035338085 0.055970784
000340 a2 e4 bc bd 8f c8 b4 3d 65 d6 5d 3d 01 fb 51 bc
       -0.09223296 0.08827316 0.05415954 -0.012816192
000350 e1 8b a4 bd ed 3d 2f bd 7d 03 b1 3c 5c 38 30 bd
       -0.08034492 -0.042783666 0.021608109 -0.0430225
000360 98 fc 0c bd 11 7e 2b bd e0 a0 a6 3d 0e 30 a4 3d
       -0.03442058 -0.041868273 0.08136153 0.08016978
000370 2d 33 82 bd 03 6c b3 bc 4f f8 98 3d f8 56 2b bc
       -0.06357417 -0.02190209 0.07469236 -0.010457747
000380 13 40 46 bd df 85 83 3c 1c 38 9a 3d ea b7 c0 bb
       -0.04840095 0.016055046 0.07530233 -0.0058812993
000390 8f cd b5 bd d0 ff 0e bd 02 2a 4a 3d 41 f3 96 bc
       -0.08877098 -0.03491193 0.049356468 -0.01842654
0003a0 a4 e3 8a 3d e0 7d 12 3d 96 41 c9 3b ab 9e e8 3c
       0.067817 0.035764575 0.0061418517 0.028395971
0003b0 ce 17 d7 bb 45 30 90 bd bf 24 90 bd 8f 65 83 bd
       -0.006564117 -0.07040457 -0.07038259 -0.06415855
0003c0 0f ba 0e bc ca ca 6f bd de 13 96 3c a7 f9 7d 3c
       -0.008711352 -0.058543004 0.01832002 0.015501416
0003d0 b2 b9 94 3d d6 03 d0 b9 df 5f a7 3c 4c 82 d5 3c
       0.07261981 -0.0003967571 0.020431457 0.026063107
0003e0 c4 be a0 bc 95 6a 1e bd 4c 4a 9f bd 1e 50 a5 bd
       -0.019622214 -0.038675863 -0.07777843 -0.08071922
0003f0 11 78 e9 39 b7 38 15 bd af 7c 9c 3c bc fd 87 3c
       0.0004453068 -0.03643104 0.019102423 0.016600482

layers.0.update_mlp.0.bias f4 [64]
000000 85 d2 4e bd d4 1f 04 3d 41 f5 69 bd b9 61 f2 bc
       -0.050493736 0.032256916 -0.057118658 -0.029587613
000010 fa c5 03 bd 3c f9 0f ba 89 aa a3 3d d8 e3 58 3b
       -0.032171227 -0.0005492156 0.079915114 0.003309479
000020 3b 26 b3 3d 45 85 32 3c 91 ae b5 bc 7d ea 1e bd
       0.08747526 0.010896032 -0.022177966 -0.038797844
000030 1b dd fb bb aa 90 6d bd 55 99 1b 3d 9f 92 90 3d
       -0.00768627 -0.05799929 0.037988026 0.07059216
000040 63 4f 30 3d a8 9e 3b 3d 70 30 a0 3d b8 d7 8a 3c
       0.04304446 0.045805603 0.07821739 0.016948566
000050 3c 76 5a bc 5e 52 22 bd 7e 1a a8 bd 3d ad 87 bd
       -0.013333853 -0.039629333 -0.08208178 -0.066248395
000060 4d 7e 52 bc 51 4d 7f bd 3b 14 88 bd 1e 1f 6f 3c
       -0.012847495 -0.062329594 -0.06644484 0.014594821
000070 5a 0e 50 bd 24 84 9e bd 22 aa 76 bd c4 08 fd 3c
       -0.050794937 -0.077400476 -0.060220845 0.030887969
000080 de 95 f5 3a 0e 16 ae bd 6d 5b 93 bd d7 71 f6 3c
       0.001873668 -0.085003 -0.071951725 0.03008358
000090 4d 7a 97 3d 64 5e c5 3c 59 55 1c 3d 3b 45 45 bc
       0.07396374 0.02409286 0.03816733 -0.012040432
0000a0 59 59 ef 3c 4c ac 20 3d b8 c0 50 bd 31 06 44 3d
       0.029217409 0.039226815 -0.05096504 0.047857467
0000b0 64 39 6a bc 07 5f be 3c dd de be bd 4d 3b 29 bd
       -0.01429591 0.023238672 -0.093198515 -0.04131632
0000c0 32 45 5f bd 74 1a 2b bd 20 71 aa 3d 18 ea 31 bd
       -0.05450935 -0.041773275 0.08322358 -0.04343614
0000d0 11 62 70 3c ae 98 7a bc 0b 24 02 3c 73 c0 21 bd
       0.014671818 -0.015295191 0.007943164 -0.039490175
0000e0 a6 80 5d bd 6f a7 8d bd 99 75 97 bc 97 13 b6 bd
       -0.054077767 -0.06916701 -0.018488692 -0.08890455
0000f0 b6 20 a2 bd 33 be 90 3d 71 c1 17 3d 5e 27 ac bc
       -0.07916395 0.070675276 0.037049714 -0.021014865
