models/h64_dropout02_layer2_emb2_model2.pt (torch, 171270 bytes, 68 tensors)

in_emb.0.weight f4 [32, 2]
000000 32 f9 fb 3e 44 c0 13 3f cd d3 b6 3e ea 64 eb 3e
       0.49213558 0.5771525 0.35708466 0.4597543
000010 4c 6b 23 3f f2 e5 69 3e a7 32 4f 3f 73 8c ff be
       0.638356 0.22841623 0.80936664 -0.49911842
000020 e5 6c 2d 3f 02 d4 39 3e 28 60 2c 3f a0 e1 9b be
       0.67744285 0.18147281 0.6733422 -0.30445576
000030 4c a8 07 bf 5d b1 54 3f a9 8a 91 be b4 6a db 3e
       -0.52991176 0.83083135 -0.28426102 0.42854846
000040 1f 8e 01 3e 3f 67 5b bd b0 e2 ee be 3e d1 46 3e
       0.12651871 -0.05356526 -0.46657324 0.19415757
000050 41 5b 44 3f 38 13 1e 3f 47 11 19 bf ae 6d 07 3f
       0.7670174 0.61748075 -0.5979199 0.5290173
000060 cd 8b 19 be 28 d2 e9 3e b8 c3 4b 3e 4f 27 23 3f
       -0.14994736 0.4566815 0.1989888 0.63731855
000070 3b 17 4b be 3a 46 7f bd 1f 75 80 3d 91 c7 c7 be
       -0.1983308 -0.062322833 0.06272339 -0.39019445
000080 fc 69 07 bf 62 71 44 3e 83 e6 10 bf 83 2c cd be
       -0.52896094 0.19183877 -0.5660173 -0.40073022
000090 36 e1 05 3f 3f db 20 3d 5f 68 0f 3f 05 fc 03 3e
       0.5229677 0.03927159 0.5601863 0.12889107
0000a0 58 94 a5 be e4 83 a4 3e 2e b2 d8 3d 7f 33 f2 3e
       -0.3233974 0.32131875 0.1058086 0.47304913
0000b0 a1 47 70 3e 22 56 09 3f 6a 6d 8d bd 9f bb ed be
       0.23464824 0.53647053 -0.06905635 -0.46432206
0000c0 c9 68 c0 3d 09 dc 25 bf 49 c6 19 bf 14 2c f2 3d
       0.09394986 -0.6478887 -0.60068184 0.118248135
0000d0 0d d0 39 be e1 14 b2 be b2 d6 99 be 4d 1c 78 3e
       -0.18145771 -0.34781554 -0.30046612 0.24229546
0000e0 52 93 04 bf 2d 07 2a 3f f8 d2 0b 3f 79 9e 33 3e
       -0.5178729 0.664172 0.5461879 0.17540921
0000f0 b3 df 13 bf 8a 32 cf 3c 64 9a 32 3e 3f b8 bc be
       -0.5776321 0.025292654 0.17441708 -0.3685932

in_emb.0.bias f4 [32]
000000 eb ab c6 bc 1f 88 3c be b4 f1 75 be 2d ab 69 3e
       -0.024251899 -0.18411301 -0.24017984 0.22819205
000010 f6 9b f8 bd 56 50 05 3f cc 44 e9 be d1 c4 61 be
       -0.12139122 0.5207571 -0.455603 -0.22047736
000020 81 f4 ea bc bb 76 05 3f 3c cc b9 3d d9 29 43 3e
       -0.028681042 0.52134293 0.09072158 0.19058932
000030 78 a8 76 be 3f 2b a3 3e 18 a9 bc 3d d7 0e 11 3f
       -0.24087703 0.31868932 0.092119396 0.5666327
000040 8a 02 7c 3e 65 66 13 bf 8f 6c 0b bf 45 d0 ac 3e
       0.24610344 -0.57578117 -0.5446252 0.33752647
000050 12 3d 1f 3e c9 84 80 bd f2 1f 01 be a5 33 1a 3f
       0.1555064 -0.06275327 -0.12609842 0.60235053
000060 31 9c 1f 3f 5d 4b df bd a7 4a 10 3e c1 99 d8 be
       0.62347704 -0.10903046 0.14090978 -0.42304805
000070 7b 45 93 be 2c 5a ad bd bb ab 0b 3f 41 f4 e2 3e
       -0.28763947 -0.084644645 0.54558915 0.44326976

in_emb.2.weight f4 [32, 32]
000000 c2 86 aa 3c b7 79 93 3d 1e 3c 98 bd 99 93 a7 bd
       0.02081621 0.0720095 -0.074333414 -0.08182449
000010 43 63 8e bc 71 58 98 bd 45 13 6d bd 06 ec 54 3e
       -0.017381316 -0.07438744 -0.057879705 0.20793161
000020 f2 45 d8 bd 3b d7 4e 3e 98 b1 59 3d 49 50 b7 3d
       -0.10560216 0.20199291 0.053147882 0.0895086
000030 e5 bb 5d 3d 3f 3e 39 3e 90 18 3d 3e 11 09 87 3c
       0.05413427 0.18090151 0.18466401 0.016483815
000040 76 f1 16 3e c3 3b 62 be 7b f5 c1 bc 6c 22 40 bd
       0.14740548 -0.2209311 -0.023676625 -0.046907827
000050 30 08 7c 3d 74 bc 40 bd 5c 04 85 bd 8e 62 6e bd
       0.061531246 -0.047054723 -0.06494972 -0.058199458
000060 47 bc 89 3d 50 ce fc 3c 6c fe c0 bd 1a 4a d7 3c
       0.06725364 0.030860096 -0.09423527 0.026280452
000070 19 9e 25 3c e6 fc 68 bd cd fa 0d bc 51 41 1c 3e
       0.010108494 -0.056881808 -0.008665753 0.15259291
000080 08 a8 fe 3c 0e ee e5 3d 89 6a 1a bd 20 2f ef bd
       0.031085983 0.11227046 -0.037699256 -0.1167891
000090 12 0e 18 be 18 31 4d bb 7b b4 e9 bd cf 52 e5 bd
       -0.14849117 -0.003130978 -0.11411377 -0.11197435
0000a0 da 23 d6 bc 7a 62 3f be b1 bb 40 bd b4 9f c7 bb
       -0.026140142 -0.1868991 -0.047053996 -0.006092036
0000b0 f7 9b 20 be 4f e8 cb bd a8 3b 9e bd 3b 81 e4 3c
       -0.15684496 -0.09956419 -0.07726222 0.027893653
0000c0 82 b2 f1 bd 6d a3 29 be c4 ba 5c bd 95 c9 2c bc
       -0.11801626 -0.16566248 -0.05388905 -0.010546108
0000d0 f6 64 fb 3d df 0d f5 3c 24 2d c1 bc c9 fb 9a bc
       0.12275116 0.02991384 -0.023581095 -0.018918889
0000e0 2f 4c 85 be 81 0b f4 bc ea da 93 bd 9b a6 1b be
       -0.26034686 -0.029790642 -0.07219489 -0.15200274
0000f0 26 61 6e be a2 59 60 3d 22 b9 91 3c 95 88 35 3d
       -0.23279247 0.05477298 0.017788474 0.044319708
000100 9e f9 fb 3d 93 51 39 3d 88 87 80 bd 8b dd d0 3b
       0.1230347 0.04524381 -0.062758505 0.006374066
000110 ab 6f e5 3c e4 d2 0a be b2 27 d6 3b 9b 23 36 3d
       0.028007349 -0.13557011 0.006535494 0.04446755
000120 97 ab f4 bc 7c 00 b0 3c 61 f4 04 be 22 eb e0 bd
       -0.029866977 0.021484606 -0.12983848 -0.10982348
000130 56 94 1c be 2d 17 13 3e 5b aa 4b 3b 2e e3 c4 3b
       -0.1529096 0.1436431 0.0031076882 0.0060085272
000140 70 9b 03 be eb a0 06 be a1 c3 48 bd 14 f6 c7 3d
       -0.12852263 -0.13147323 -0.04901469 0.097637326
000150 11 a3 6e bd b8 30 ca bc be 45 b7 bd 64 fa 25 3e
       -0.05826098 -0.024681434 -0.08948849 0.16208798
000160 1a e8 0a 3e 7f 88 2d be 2d 10 8b 3d a6 73 24 be
       0.13565102 -0.169466 0.06790195 -0.16059741
000170 62 4c cc 3d 5e 73 26 bd e4 8a 20 be d8 bb bf bc
       0.09975506 -0.040637366 -0.15677983 -0.023405
000180 90 1f 4b b9 35 51 c7 bd 63 f9 9b bd 9d 11 02 be
       -0.00019371347 -0.09732286 -0.07615926 -0.12702031
000190 44 e7 4b be 05 29 89 bc cf 2d 12 3b 87 49 33 3e
       -0.1991244 -0.016743192 0.0022305136 0.17508517
0001a0 95 c1 07 bd 75 59 09 3d cb 4b 0d bd 58 0a 0a be
       -0.0331436 0.03353258 -0.03449611 -0.13480508
0001b0 5c 57 f5 3d cd df af 3d 68 b6 7d bd 04 68 97 3d
       0.11979553 0.085876085 -0.061941534 0.07392886
0001c0 aa 54 82 bd 5c 70 f8 3d 4b 40 12 3e 6e f6 fa 3d
       -0.06363805 0.12130806 0.14282338 0.12254034
0001d0 ec 17 03 3e e1 70 bd bd 7b 1f 0c be 54 25 a8 3d
       0.12802094 -0.092500456 -0.13683884 0.08210245
0001e0 b8 40 a7 bd f6 9f 98 bd fa ec a7 3c 26 a0 0e 3e
       -0.08166641 -0.07452385 0.020498741 0.1392828
0001f0 b1 af e5 3b c7 e5 a1 3d 4f d7 24 be 3c 04 2f bd
       0.0070094694 0.07905155 -0.16097759 -0.042728648
000200 84 9e cc bd 7a 8d 49 3c eb 5b 3d be af 8a d9 bd
       -0.09991172 0.012301797 -0.18492095 -0.10622155
000210 02 49 1d bd 54 73 4d bc 06 0c 2f be 05 fe a8 3d
       -0.038399704 -0.012539703 -0.1709443 0.082515754
000220 e8 0d 07 3e 5d 8e c0 3d 0a 9b 92 bd 58 7e 52 be
       0.13188899 0.09402154 -0.071584776 -0.20556009
000230 e7 b1 2b be 56 fc 07 bd 5f 77 a5 3d 2b 36 5e bd
       -0.16767083 -0.03319963 0.08079409 -0.054250877
000240 1d 01 04 3d 26 03 63 bd 11 87 e5 3c 0a 2f 96 3c
       0.032227624 -0.055422924 0.028018506 0.018332977
000250 3a 85 7c bd 87 d7 2d be b3 44 59 be 73 37 3c 3d
       -0.061650492 -0.16976748 -0.21217613 0.045951318
000260 67 51 b9 3d b9 d3 44 3c 92 e0 54 3e 8b 76 1c bd
       0.090487294 0.012013369 0.20788792 -0.03819899
000270 af c6 8a bd 47 d9 f2 bd 79 54 02 be 5d c0 40 bd
       -0.06776177 -0.118578486 -0.12727536 -0.047058452
000280 5d f1 00 3d 69 ee ab 3c 3e cd 38 3d 81 41 4f 3c
       0.031480182 0.020987706 0.04511761 0.012649895
000290 40 72 94 bd 74 af 97 bd 6e 71 c6 3e 10 30 a7 bd
       -0.07248354 -0.07406512 0.38758415 -0.08163464
0002a0 97 d8 88 3d e3 ee 0f bd 5d ff 48 3e 2d 66 19 3e
       0.06681936 -0.03513993 0.19628663 0.14980383
0002b0 66 34 35 3e 0c 58 cf bd 6d 98 96 bd b3 e9 45 be
       0.1769577 -0.101242155 -0.07353292 -0.1932743
0002c0 8b 83 1b 3e f2 d5 a6 bd 70 f4 28 3d 77 0d 16 be
       0.15186898 -0.081462756 0.04124874 -0.14653574
0002d0 7b fc d2 bd 43 4f d9 3d de 5c a0 3d 3c e9 f4 bc
       -0.10302063 0.10610821 0.07830213 -0.029896371
0002e0 ed e0 21 be 18 99 0f 3e 98 e9 9e 3d f5 e9 39 3d
       -0.15808459 0.14023244 0.07759398 0.045389134
0002f0 aa fe a0 3e 01 cb 49 3e 26 ca 3c 3e 0f a5 8d 3d
       0.31444293 0.19706346 0.18436489 0.06916248
000300 b4 a0 21 3d 3e 92 64 be ba e9 47 bd fb db a1 3d
       0.0394599 -0.22321412 -0.048806883 0.07903286
000310 f7 82 cf 3d 63 4d 54 bc 7e 9c 38 be 5e f2 2c be
       0.101324014 -0.012957904 -0.18028447 -0.1688933
000320 cc da 0a be 88 a6 99 bd 64 5e 89 3a 4d b7 da bd
       -0.13560027 -0.075024664 0.0010480401 -0.10679493
000330 da 20 28 be 7d 2a 19 be 58 9a 24 3d af 78 d2 bd
       -0.16418782 -0.14957614 0.040186256 -0.10276925
000340 ac 9b 3a bd 69 47 ab 3d d5 d0 e3 3c 67 b4 14 3e
       -0.045558617 0.0836323 0.02780954 0.14521943
000350 6e 53 1f be 36 ab d7 bd ef 9f d0 3d ce 15 67 3d
       -0.1555917 -0.10530703 0.10186755 0.05641728
000360 7d 76 a9 3e fb 43 01 be 3b 2a 3f 3e 99 e5 02 bd
       0.33098212 -0.12623589 0.18668453 -0.031957243
000370 45 76 7e 3d 98 07 a1 3d 00 0a 4d bc f3 8b be bd
       0.06212451 0.078627765 -0.012514591 -0.09304037
000380 0f 80 34 3d 57 c0 a2 bd 4a 98 aa bd fc 70 65 3e
       0.04406744 -0.07946842 -0.08329828 0.22406381
000390 42 06 bb bd ec 70 86 3d 16 96 a9 be 32 1c ad 3b
       -0.09132053 0.06564507 -0.3312232 0.005282902
0003a0 4b 36 e3 bd bb 05 fa 3d ac 94 6a 3d 87 45 ea bc
       -0.1109434 0.12208124 0.05727069 -0.028597606
0003b0 b0 2a 5e be 1d 86 2a bd ff d7 11 bd 72 32 ce 3d
       -0.21695971 -0.041631807 -0.03560638 0.100682154
0003c0 2f f7 e1 3d 4d 4c 28 3c 6b 0d bb bd 8b 48 4f 3d
       0.11033475 0.010272098 -0.09133419 0.05060629
0003d0 f3 66 e0 bd 47 a8 5a bd c0 ea 4c be 07 60 24 3e
       -0.10957136 -0.053383138 -0.20011425 0.16052257
0003e0 63 c8 d7 3e bf 02 ed bc 66 e9 f5 bb 36 45 79 be
       0.4214507 -0.028931974 -0.00750463 -0.24342808
0003f0 14 73 a9 bd 55 88 fc 3d 08 ae a6 3d 34 1f 23 3e
       -0.082739025 0.12330691 0.081386626 0.15929872

in_emb.2.bias f4 [32]
000000 5a 50 b8 bc 06 0d e5 3c b5 98 d6 bd 07 95 53 3d
       -0.022499252 0.027960312 -0.10478345 0.051655795
000010 77 09 fe 3d c0 67 60 3c 85 7b 5b bd d4 f7 0c bd
       0.12404149 0.013696611 -0.053584594 -0.034416035
000020 6e 7b c3 3d 4e 55 b9 bd 03 c6 4d 3c 9c a7 f5 bc
       0.09545027 -0.09049474 0.012559417 -0.029987149
000030 7f 9f 15 3e 98 60 95 3d e5 8f 36 be cc 76 ee bd
       0.14611624 0.072938144 -0.17828329 -0.116437525
000040 6a 78 c5 3c d5 a6 fc 3d 06 7d 49 3d 30 c6 cd bc
       0.02410527 0.12336508 0.049191497 -0.025118917
000050 83 19 c5 bd 3e df 17 be 82 ea 93 bb bd fc 17 bd
       -0.096240066 -0.14831254 -0.0045140395 -0.037106264
000060 10 be 4b 3d b7 50 08 be b3 0f 1e 3e 51 1e 06 3e
       0.049741805 -0.1331204 0.15435676 0.13097502
000070 52 ce 14 be 0d 28 6b 3c 6b 1a 33 be 71 6b 29 3d
       -0.1453183 0.014352811 -0.17490546 0.04136223

gcl_0.edge_mlp.0.weight f4 [32, 71]
000000 5c bc 29 3e 37 ad 6d bd fc 4b 07 be 82 82 60 3d
       0.1657576 -0.05802652 -0.1321258 0.054811962
000010 57 d2 1a be 06 2b da 3d fc 6a a1 3b fa c0 06 be
       -0.15119301 0.10652737 0.0049260836 -0.13159552
000020 64 40 07 be 94 5f b0 3d 11 cb fb bd 59 9c f0 bd
       -0.13208157 0.0861198 -0.12294591 -0.11748571
000030 80 6a 43 bd ff ed 03 be 17 56 07 3d e5 99 87 bd
       -0.04770899 -0.12883757 0.033041086 -0.0662115
000040 93 16 c8 bd b2 df 79 3e 12 e4 f2 3c 79 64 c9 3c
       -0.09769931 0.24401739 0.029649768 0.024584042
000050 09 29 77 3d 12 32 92 bd a3 61 10 bc 29 c0 f2 3c
       0.06034187 -0.071384564 -0.008812341 0.029632645
000060 63 74 69 bc 37 c6 7d 3c 8e f3 10 3d 11 98 b4 bd
       -0.01424894 0.015489153 0.03538852 -0.08818067
000070 f6 f9 2d 3e 58 10 6f 3d 9d 46 7e bc 7d e9 2c 3e
       0.16989884 0.058365196 -0.015519765 0.16885944
000080 a6 6a c8 3c b4 f5 c9 bd 5c b2 bc bd 11 58 1f bd
       0.024464916 -0.09861317 -0.09213707 -0.038902346
000090 31 cd af bd c1 94 8f bd 0e a0 3c 3d 61 d8 0a bb
       -0.08584059 -0.070107944 0.046051078 -0.00211861
0000a0 86 39 0e be cc dc c7 3c 2e e9 11 3c f4 b0 eb 3d
       -0.13889131 0.024397276 0.008905692 0.115083605
0000b0 94 2e 8f 3d 44 ea 02 be 33 05 30 bd a4 7c 70 3d
       0.06991306 -0.12784678 -0.04297371 0.058712617
0000c0 9d d4 13 3e bb 9c 8c 3d 87 b6 92 bd d2 9b a1 bd
       0.14436574 0.068658315 -0.071637206 -0.078910485
0000d0 55 85 8a bc b3 14 82 3d 45 6f a8 3d b9 61 63 bd
       -0.01690928 0.06351604 0.08224348 -0.055513117
0000e0 9d d7 0c 3e 13 67 81 bd cc 8a b1 3d 0d 52 31 3d
       0.13754125 -0.06318488 0.086690515 0.04329114
0000f0 f1 fd db bc 3a 85 d0 3d 41 91 75 bd e9 94 7e 3d
       -0.026854487 0.10181661 -0.059952978 0.06215373
000100 54 08 61 bd 92 26 c2 3b 99 a6 8f be 38 d5 57 be
       -0.054939583 0.005925008 -0.2805679 -0.2107743
000110 68 bc 3b bd 71 15 24 3b 08 4e 33 be 2e 52 60 3d
       -0.045833975 0.0025037194 -0.17510235 0.054765873
000120 62 b2 b6 bc 5b 88 65 3b c6 e6 c1 3d 24 bd c5 bc
       -0.022301856 0.00350239 0.09467845 -0.02413804
000130 9c f5 d0 3d 39 60 ac 3c 71 d9 28 bb fd 3e 2b 3d
       0.10203096 0.021041976 -0.002576437 0.041808117
000140 0e 49 77 bc cb 77 6a 3d 7b 9e 08 be 47 3b a3 bd
       -0.015093101 0.05724315 -0.13341706 -0.07970291
000150 c5 07 b0 3d 70 01 8e bd 12 b8 9b bc df ad a2 bd
       0.08595232 -0.06933868 -0.01900867 -0.079433195
000160 74 d3 95 3d fa 88 7e bd 44 dd 70 3d ad 81 fe 3d
       0.07315722 -0.06214235 0.058804765 0.124270774
000170 16 55 fd 3d 11 e1 4e bd 23 64 97 bd 26 11 d3 3c
       0.123697445 -0.05050761 -0.073921464 0.025765013
000180 b8 e9 c9 bd ef a6 9e bd cf 13 81 bd c3 f3 5c 3e
       -0.098590314 -0.07746684 -0.06302606 0.21577363
000190 e2 ac 9b 3d bf c8 e2 bd d7 9b 6b bd 9f 7b 40 bd
       0.07601334 -0.110734455 -0.057521667 -0.046992894
0001a0 31 9e 3f bc e9 20 1c bd 96 40 b6 3c 67 78 95 3d
       -0.011695431 -0.038117323 0.022247594 0.072983555
0001b0 25 ba 03 bd 2d c7 f0 3d 49 16 ae 3d fe a7 26 3d
       -0.032159943 0.1175674 0.08500344 0.040687554
0001c0 13 32 09 3e b6 8e de bc 6f 4d f4 bc 73 49 c1 3d
       0.13398008 -0.02716766 -0.02982208 0.094378375
0001d0 47 7d 74 3d ed 92 d8 bd ef 3d 75 3b ec 7c 3a bd
       0.059689786 -0.10574899 0.0037420949 -0.04552929
0001e0 2f 2e ee 3d 21 fe 97 bd 0b ee e2 bd 0a 7d 1c 3d
       0.116299026 -0.07421518 -0.11080559 0.038205184
0001f0 0f 2a 83 bc fb ac 7f bd b5 f3 f5 3d cc 89 89 bd
       -0.016011266 -0.062420826 0.12009374 -0.06715736
000200 df 8c be bc 32 c3 95 bd 2b c0 03 bd 15 f5 4f bd
       -0.023260532 -0.07312621 -0.032165688 -0.050770838
000210 10 51 c8 3d a8 c7 52 3c 00 0c f6 3d 66 d9 61 bd
       0.097810864 0.012864985 0.120140076 -0.055138968
000220 f8 c6 0b be 53 8b 31 be cb 1b bb bc ef a7 f4 bd
       -0.1365012 -0.17338304 -0.022840401 -0.11946093
000230 8c 6f 4c be d2 16 ca be 10 af 69 3c 3c 43 52 bc
       -0.19964427 -0.39470536 0.01426293 -0.012833413
000240 61 64 21 be c4 64 f5 3c 52 de 9d bc de fb 89 bc
       -0.15760948 0.029955275 -0.01927105 -0.016843732
000250 47 96 09 be e7 3d d1 bd 66 4e e0 bd 3f 70 1d 3d
       -0.13436233 -0.10216885 -0.10952453 0.038437124
000260 22 61 d2 bb 14 bf 92 bc b8 40 bb 3d 18 34 a6 bd
       -0.0064202705 -0.017913379 0.091432035 -0.08115405
000270 5b d1 98 3d 64 ce 78 3d 40 d1 82 bd b6 e1 42 bc
       0.074618064 0.060743704 -0.063875675 -0.011894634
000280 e5 62 87 bd 1c f8 fb 3d 2c 09 27 3e c0 73 c0 bd
       -0.066106595 0.123031825 0.16312093 -0.093970776
000290 e0 61 1c be a8 88 d7 bd 11 de ca bd a2 a3 8c 3d
       -0.15271711 -0.10524112 -0.09905637 0.06867148
0002a0 68 c4 ee 3d 2f 08 02 3d 5f 25 02 3e e7 cc 87 3d
       0.11658555 0.031746086 0.12709568 0.06630879
0002b0 93 c7 92 3c 27 13 18 3d c7 68 37 3e a7 86 d8 bd
       0.01791743 0.03712764 0.17911063 -0.10572558
0002c0 30 a5 32 3c db 50 20 3d aa 78 1b be ee 6c 44 bb
       0.010903642 0.03913961 -0.15182748 -0.0029972154
0002d0 89 98 d5 bd 8d 1e 1b 3e 2f 7d 02 be 93 d5 00 3e
       -0.104294844 0.15148373 -0.12743066 0.12581472
0002e0 3a f3 a4 bd 70 7c 85 bd f3 15 0f 3e 9a a4 03 be
       -0.08054204 -0.06517875 0.13973217 -0.1285576
0002f0 ae 09 18 be ad b7 aa 3d ba 12 7d 3d 95 d5 24 3d
       -0.14847443 0.083358146 0.061785437 0.04024275
000300 5d 5a dc bd 84 21 ea bd 89 3b 2c 3c b8 65 0a be
       -0.10759423 -0.11432174 0.010512241 -0.13515365
000310 8b ce c3 bd d4 09 d6 3c 03 c0 61 3d 88 61 be bd
       -0.09560879 0.026127733 0.055114757 -0.09295946
000320 c2 4a 9f 3e fe 1b 95 bd fe cb 0a be 58 2f 8f 3d
       0.31111723 -0.0728073 -0.1355438 0.06991452
000330 ca 51 09 be 1d 9e 06 3e a5 68 52 3d fa 36 9e be
       -0.13410106 0.13146253 0.051369328 -0.3090132
000340 e8 97 95 be ce 85 ef bc b9 e3 65 be 26 d3 8b be
       -0.29217458 -0.029238608 -0.2245015 -0.2730953
000350 25 10 ef be ba cd 25 3e 0c 12 41 3d be ee 32 3d
       -0.46692005 0.1619176 0.04713635 0.043684714
000360 3a a4 a3 bc 69 45 30 be ae a0 b3 3e 2e 47 55 bd
       -0.01997577 -0.17213978 0.35083526 -0.052069835
000370 26 bc 63 bd 85 71 07 bc 0b 21 d9 3d fb 06 94 bd
       -0.055599354 -0.008266811 0.106020056 -0.07227894
000380 2a 8b a6 bd e3 3f 29 3a fb 28 85 bc 2e 3e 6c 3e
       -0.08132012 0.0006456358 -0.016254893 0.23070595
000390 45 0e 83 3d 00 12 84 3d 44 54 16 3e 09 80 21 bb
       0.06399206 0.06448746 0.14680582 -0.0024642965
0003a0 45 55 0d bd 84 eb 14 3e 2a a6 78 3d 32 f0 5a 3d
       -0.034505147 0.14542967 0.06070534 0.053451724
0003b0 a8 64 b3 bd fc f6 4c 3d e9 ae 14 3c 91 47 a5 3c
       -0.08759433 0.05004023 0.009074905 0.020175727
0003c0 cd 4d c1 bd 72 7a 47 3e f5 87 11 3e 22 59 4b 3d
       -0.094386674 0.19480303 0.1421202 0.04964555
0003d0 d6 04 a2 3d 0c 7a dd bb 2f 8b d3 bd 8a c5 b8 3c
       0.07911079 -0.006758934 -0.103292815 0.022555131
0003e0 9f e5 b4 3d 7a 68 47 bd df 9d 66 3e f9 af 35 3d
       0.08832859 -0.04868362 0.2252116 0.044357274
0003f0 47 df 8e bd bf 12 25 be 7d a6 c0 bd 74 39 15 be
       -0.069761805 -0.16120432 -0.09406755 -0.14572698

gcl_0.edge_mlp.0.bias f4 [32]
000000 90 fd 88 bc 95 b6 51 bd ee 24 da 3d 17 45 15 3d
       -0.01672247 -0.051199514 0.10651575 0.036442842
000010 14 1e 61 bc cf 7a 90 3d 47 72 0d 3e 1e 66 72 bc
       -0.013740081 0.07054674 0.13813125 -0.014794854
000020 78 17 95 bd 7c 68 85 3d 60 e2 7d bd e4 c9 82 be
       -0.07279867 0.065140694 -0.061983466 -0.25544655
000030 65 7c 17 3e 2a 01 05 bd b5 2d ad 3c a0 41 a9 3d
       0.14793546 -0.032471813 0.021139959 0.0826447
000040 76 d2 8c bd 56 c1 f6 bd d4 fd 65 bd e1 6d cd bd
       -0.0687608 -0.12048595 -0.056150272 -0.10030723
000050 bd 2d 90 3d 2b 01 ac bb 6a 1b 48 3b 83 fe 9f bc
       0.07039974 -0.0052491627 0.0030533918 -0.01953054
000060 b9 90 2c bc 80 34 28 3d 7a ac ac 3a 62 4c b2 3d
       -0.010532551 0.041065693 0.0013173961 0.08705975
000070 c0 2f 63 bd 5e 82 01 3c 34 59 e0 bc 5c c8 d4 3c
       -0.05546546 0.007904617 -0.027386285 0.025974445

gcl_0.edge_mlp.3.weight f4 [32, 32]
000000 46 e5 2e be bd 25 82 be d5 dc c5 be bf ec f6 3a
       -0.17079648 -0.25419417 -0.38645044 0.0018838866
000010 aa 66 fa 3d a5 23 10 be 61 34 5e be 83 8a 61 3d
       0.12226613 -0.14076097 -0.21699668 0.055063736
000020 85 65 6c bc 84 a1 69 bd 98 8c 49 be 37 8d f0 3c
       -0.014428501 -0.0570388 -0.19682539 0.029364211
000030 6a 58 66 be 42 7a d3 3d 19 f3 95 3d 1a c6 0f be
       -0.22494665 0.10326053 0.07321758 -0.14040413
000040 b5 b1 03 be 65 ba 98 3d 01 07 f2 3c e6 54 34 3b
       -0.12860759 0.07457427 0.029544355 0.0027516424
000050 26 0a bd bd 8e 33 1c 3e 1d dc 44 3e 52 b9 d4 bd
       -0.09230451 0.15254042 0.19224592 -0.103869095
000060 08 dc 3b 3e 5c 4d fc bd 6c e0 aa bd b1 50 1f bd
       0.18345654 -0.12319443 -0.08343586 -0.038895313
000070 f6 c0 51 bd e6 c9 89 bd d6 1f dc 3d b5 03 81 3d
       -0.051209413 -0.06727962 0.1074826 0.06299535
000080 fd 95 ce 3c ec fd 95 bd 52 e1 56 3e 59 f4 a8 bd
       0.025218004 -0.073238224 0.2098439 -0.082497306
000090 02 e8 f2 3d 23 91 a4 bd 39 a5 be 3b 1f 80 22 3d
       0.11860658 -0.08035495 0.005818036 0.039672967
0000a0 fc 6a ca 3d d2 66 27 be 28 89 56 be 4e 25 61 bd
       0.09883687 -0.16347817 -0.20950758 -0.054967217
0000b0 dc 4f 35 be 9c cf 90 bd 34 82 c4 3d f4 a8 33 bc
       -0.17706245 -0.07070848 0.09595147 -0.0109655745
0000c0 7e f9 3b bd 72 cf 7e bd e7 2f 83 3c 8a 50 54 bd
       -0.04589223 -0.062209554 0.016014053 -0.05183462
0000d0 a4 e5 c0 3c 43 4a 5e 3d 47 6b 94 bd 1f a0 fd bd
       0.023547001 0.05427004 -0.07247024 -0.12384056
0000e0 43 8e e4 3c c1 e3 b2 3d 89 a9 04 3e f1 87 23 bb
       0.027899867 0.08734847 0.12955298 -0.0024952854
0000f0 5e e1 07 3e bd 69 bf bc b8 a1 31 3e 38 e1 11 3e
       0.13269565 -0.02336585 0.17346847 0.1424607
000100 b5 92 c8 bd 7f 0a 10 bb d9 68 16 3d 4f 2d ca 3d
       -0.09793607 -0.0021978912 0.036721084 0.09871923
000110 40 aa 76 bd 6c 44 37 bd 56 e3 30 be 72 50 8a 3c
       -0.060220957 -0.044742987 -0.17274222 0.016884062
000120 50 3a 63 3d 45 d3 53 3d 4d 8c a9 bd 4a 2b 77 3e
       0.055475533 0.051715154 -0.082787134 0.24137607
000130 21 c4 fa 3c c7 f0 97 bd 21 a5 b2 bd 48 23 a8 bd
       0.0306111 -0.074189715 -0.08722902 -0.08209854
000140 81 29 d7 bd d8 02 04 3d 84 64 8d bd 46 04 f7 bc
       -0.10505963 0.032229275 -0.069039375 -0.030153405
000150 d5 8c ba 3d d7 e6 f8 bd 7c 74 9b 3d 38 08 1b 3e
       0.09108893 -0.12153404 0.07590577 0.15139854
000160 d8 ec c7 3d a3 4e d5 bd b9 b0 6f 3e 4d d9 0e be
       0.09761971 -0.104153894 0.23407258 -0.13950081
000170 69 5b 29 bd d0 7a 6c 3c 38 cb 77 3d db 77 83 bd
       -0.04134694 0.014433578 0.06049654 -0.06419345
000180 5d 85 89 bd cd 69 28 3d 0b 26 01 3e c9 ea 09 3e
       -0.0671489 0.041116524 0.12612168 0.1346847
000190 f2 ec 11 be 7c 4e 06 bd 2f 9f d2 3d 36 21 b3 3d
       -0.14250544 -0.032789692 0.10284268 0.08746569
0001a0 56 52 03 3e 78 5a 44 bc 80 9a 38 bd 9f c5 e8 3a
       0.12824377 -0.01198446 -0.045069218 0.0017759091
0001b0 58 be 5e 3e 20 7d d5 bd a5 85 7f 3b eb d6 d3 bd
       0.21752298 -0.10424256 0.003898957 -0.10343727
0001c0 74 72 9b 3d ce 31 48 bd 99 43 f3 bd a3 a4 04 3e
       0.075901896 -0.048875622 -0.118781276 0.12953429
0001d0 d8 ec b0 3c 45 dc 22 3e 3d f9 8a be 9b eb f3 3c
       0.02159731 0.15904339 -0.2714328 0.029775431
0001e0 92 ba 09 3d 96 84 2a bd d7 9e 41 bc bf 4b 00 3e
       0.033625193 -0.04163035 -0.0118176555 0.12528895
0001f0 22 cb 98 3d 2f 16 05 3d 79 31 7d be 60 b1 c1 bd
       0.074606195 0.03249186 -0.24725904 -0.0945766
000200 9a e5 76 3d dc 82 00 bd a1 31 f3 bc 6c d3 28 3e
       0.06027756 -0.031374797 -0.02968675 0.16486901
000210 66 0c c0 3d 9f 80 2d 3e c8 30 70 3e b4 94 1c be
       0.09377365 0.16943596 0.23456109 -0.152911
000220 94 09 6b 3a fe e7 0e 3e f0 01 01 be 55 11 1b 3e
       0.0008965966 0.13955685 -0.12598395 0.1514333
000230 7e 3e f0 3d 9d b7 6f be 2c 28 74 be 38 8a 82 be
       0.117306694 -0.23409887 -0.2384345 -0.25496078
000240 b5 e2 bb bd 61 ce b9 bd b4 55 5c bd 46 1b 57 3c
       -0.091741 -0.09072567 -0.05379267 0.013129061
000250 66 8d 93 3d 70 e4 0a be 9f 30 72 be 19 82 a0 3d
       0.07204704 -0.13563704 -0.2365136 0.07837314
000260 17 a1 84 bd 91 81 48 bd 4e 3f ab 3d 5d 15 7a bd
       -0.06476038 -0.04895169 0.08361684 -0.06105553
000270 28 1c 97 3d 98 de 0a 3e d5 71 1c be 77 c2 df bd
       0.07378417 0.13561475 -0.15277798 -0.10925763
000280 64 d4 97 3d 80 23 57 3d 6c d9 eb bd 4f 79 34 3e
       0.07413557 0.05252409 -0.11516079 0.176244
000290 09 6f 95 3c 98 09 c6 bd 2d b3 33 be e7 b3 c6 3d
       0.018241422 -0.096697986 -0.17548819 0.097022824
0002a0 76 95 c7 bb 57 e1 ad 3d 64 c5 98 3d 00 5a 47 bd
       -0.006090815 0.08490246 0.07459524 -0.048669815
0002b0 55 bf 51 bd 1a 41 4f bd 3e d8 1b be bb 44 95 3c
       -0.05120786 -0.050599195 -0.15219209 0.01822125
0002c0 1a 25 05 3e d6 9d f5 3d 85 b7 9c bb e2 1b f3 3d
       0.13002434 0.119929954 -0.0047826194 0.118705526
0002d0 0d 49 44 be df 5c 90 bd c1 05 f3 3d 77 ac a6 3d
       -0.19168492 -0.07048964 0.11866332 0.08138364
0002e0 09 0f b2 3d d2 b7 c9 3d 77 25 5a 3d 8a 72 8d bd
       0.08694274 0.09849514 0.053258386 -0.06906612
0002f0 4d 53 c0 3d 4e 46 dc 3b 3b 3b 53 3e 91 f1 18 be
       0.09390888 0.006722248 0.20628063 -0.149359
000300 f1 d6 a3 bd bb b7 9e bc 37 07 5f bc 33 f7 a0 bc
       -0.07999981 -0.019374719 -0.01361256 -0.019649124
000310 97 46 69 bd 14 80 ac bd 3d 83 3c bd 19 56 d1 3d
       -0.056952085 -0.084228665 -0.046023596 0.102215
000320 7e 7f ff 3d d7 e4 b3 3c da 79 96 3d f9 07 e2 3c
       0.12475489 0.021959705 0.0734746 0.027591692
000330 3b 8b 26 3e cc 89 82 bd a4 fc 16 bc de 6c 89 bd
       0.1626405 -0.06373939 -0.009215508 -0.06710218
000340 ef d6 07 bc 45 0e ac 3d 39 e4 d4 3b f5 a4 d3 3c
       -0.00829099 0.08401159 0.006496933 0.025835494
000350 40 ee 0a be 8c 3b 2c 3e a2 82 a8 bb 5d 48 35 3c
       -0.13567448 0.1681959 -0.005142526 0.011064616
000360 9e e8 4a 39 96 31 8f 3d ac d7 fe bd 46 dc 89 bd
       0.00019350878 0.0699188 -0.1244348 -0.06731467
000370 23 93 15 3e 5e 43 26 3d 34 77 28 be 6d 3c b6 3d
       0.1460691 0.04059159 -0.16451722 0.08898244
000380 a5 12 77 be 79 9e 01 3d aa 23 15 be ed 91 1b be
       -0.24128206 0.031645272 -0.14564386 -0.15192385
000390 9e 79 48 3e 7c c5 c3 bd eb 45 d6 be a0 a6 8f bc
       0.19577643 -0.095591515 -0.41850218 -0.017535508
0003a0 38 12 a5 bd 9a ea d9 3d 93 f6 62 be 53 cb 08 3e
       -0.080601156 0.1064045 -0.22164373 0.13358812
0003b0 d9 3c 6c be 7d 38 1c 3d 5d eb 6e bd ff ce d9 bd
       -0.23070087 0.03813981 -0.05832993 -0.106351845
0003c0 8b 20 7d 3d 92 84 c3 3d 86 6b 4b be 04 c3 50 3e
       0.061798614 0.0954677 -0.19865236 0.20386893
0003d0 06 d1 17 be e6 c6 34 3e af 60 d1 3e 91 79 a0 bd
       -0.1482583 0.17653999 0.40894076 -0.07835687
0003e0 68 90 87 3e a6 46 46 bc 2f 2a dc bd dc be 48 3e
       0.2647736 -0.012101805 -0.107502334 0.19604057
0003f0 ba 40 41 be 83 1b 95 3d eb 80 a8 3e e9 73 ee 3d
       -0.18872347 0.07280638 0.32910857 0.11643202

gcl_0.edge_mlp.3.bias f4 [32]
000000 c0 17 c5 3d 34 f2 8a bc 3c ec a9 3d c4 01 da bd
       0.096236706 -0.016961195 0.08297011 -0.10644868
000010 bc ac aa bc 3e 8d f8 3d 5c 37 e1 3d ca 2d 91 bc
       -0.02083432 0.12136315 0.10996887 -0.01772203
000020 7e 56 17 3d 5c cc 8c bd ff 7a 07 bd 60 b7 a0 3d
       0.03694772 -0.06874916 -0.033076283 0.07847476
000030 b6 a8 88 bc f4 0c 1e be 76 a8 df 3c 70 e9 e5 3d
       -0.01668201 -0.15434629 0.027302008 0.11226165
000040 5d ed 56 bd 44 f4 10 bd 36 8d 53 bd 57 8c 81 bd
       -0.05247246 -0.0353892 -0.05164834 -0.06325596
000050 d4 44 c6 3c b0 c7 2d 3d 85 85 9f 3d 53 10 46 bc
       0.024202742 0.042426765 0.07789139 -0.012088853
000060 59 fe bf 3b 8c 37 99 bc 18 65 1b be fc aa dd 3d
       0.005859178 -0.018703245 -0.15175283 0.10823628
000070 bc 24 1e be b3 5a a5 bc 07 79 14 3d a8 4f bc bd
       -0.154437 -0.02018485 0.036248233 -0.09194881

gcl_0.edge_mlp.5.weight f4 [32, 32]
000000 94 56 33 bd 95 c8 53 bd 19 2d 03 be 0f 7a 1c 3e
       -0.04378374 -0.05170496 -0.12810172 0.15280937
000010 69 69 2b be d0 49 40 bd fb 50 10 3e 49 e6 77 bd
       -0.1673943 -0.046945393 0.14093392 -0.06052235
000020 36 49 92 bd 8a 01 c9 bd c7 c7 58 be 07 f9 74 3d
       -0.0714287 -0.09814747 -0.21169959 0.059807803
000030 35 ce f5 3d 43 2a 7a bc 80 a0 15 3c b5 33 6b 3d
       0.120022215 -0.015268865 0.009132504 0.05742236
000040 1d 67 18 be 1c b4 4f bd 6d c8 36 be e0 e4 58 be
       -0.14883085 -0.050708875 -0.17849894 -0.21181059
000050 5d 78 89 bc a6 b6 38 3e fe e4 ca bc 07 3f 6e bd
       -0.016781026 0.18038425 -0.024767395 -0.058165576
000060 14 91 ce bd 5e 68 d9 bd d2 0d 00 be d8 35 d8 3d
       -0.10086265 -0.106156096 -0.12505272 0.10557145
000070 82 60 f2 3d 01 57 55 be 23 a5 40 3e be 8e 79 3d
       0.11834814 -0.2083397 0.18812995 0.060927145
000080 0a 87 ad bc 0c f8 60 3e 2a 8c c0 3d 74 40 17 be
       -0.021182556 0.21969622 0.09401734 -0.1477068
000090 ee 9f 05 be 08 29 51 3d e7 41 7e 3d 4e 72 12 3c
       -0.1304929 0.05106452 0.062074568 0.008938385
0000a0 93 e0 95 3d 41 c2 4b 3e 16 71 bb 3d 3a b5 0f 3e
       0.07318225 0.1989832 0.09152429 0.14033976
0000b0 6d a6 15 3e 70 52 75 3e 8f cc dd bc 5d e3 eb 3d
       0.14614268 0.23957229 -0.02707508 0.115179755
0000c0 6e 96 cb 3d e2 e1 60 3e 18 2e 07 3d e6 7c 6a bd
       0.099408016 0.21961167 0.033002943 -0.05724802
0000d0 02 51 a6 3c ef 75 3b 3e 44 59 44 3e 1f 0f 38 bd
       0.0203023 0.18306707 0.19174677 -0.044936296
0000e0 6f b4 d9 3d 0b 3f 27 3e e9 f5 44 3e c8 86 d4 bd
       0.10630118 0.16332643 0.19234432 -0.1037727
0000f0 0e 63 b5 3d 3d 3a 2c 3e 3f 4b 51 3c a5 e6 42 3b
       0.08856784 0.16819091 0.012774288 0.0029739526
000100 24 74 01 be 16 b2 7e bd f2 54 a8 bc 32 bf a3 3c
       -0.1264196 -0.062181555 -0.020548318 0.01998863
000110 d3 b5 8e 3d 91 c3 1b be ba 89 ec bd 18 8e 66 be
       0.06968274 -0.15211321 -0.11549707 -0.22515142
000120 07 52 73 bd ed ff 68 3c d3 f6 3d be c0 bd da bb
       -0.0594044 0.014221174 -0.18551187 -0.006675452
000130 35 22 55 3e 04 09 d9 bc 8f 7f 2d 3e 89 ad dd bd
       0.2081383 -0.026493557 0.16943191 -0.10824115
000140 ca ed b6 bd 71 d7 5a be e5 cf 77 be d9 37 8b be
       -0.089320734 -0.21371247 -0.24200399 -0.27191046
000150 ec 01 0b be c1 01 01 be ea 13 49 be d2 42 66 3d
       -0.13574952 -0.12598325 -0.19636503 0.05621607
000160 79 b2 f9 bd 93 f5 a5 bc fc 95 77 bc 30 5e d0 3c
       -0.12192244 -0.0202587 -0.015111443 0.025435537
000170 f0 64 cd bc 01 73 89 bd dc df a5 bd d5 95 fb bd
       -0.025072545 -0.067113884 -0.080993384 -0.122844376
000180 21 9c 5d 3b 33 78 c8 bd b4 df e5 3d e8 f9 2b be
       0.0033814984 -0.09788551 0.112243086 -0.1679455
000190 99 28 31 3c a9 9e 8a 3d d3 82 07 3d 5f 04 38 3e
       0.010812902 0.06768543 0.033083748 0.17970417
0001a0 f3 93 d6 bd ae 3e c0 bd 08 00 df bd 52 2e 96 3c
       -0.10477438 -0.09386955 -0.10888678 0.018332634
0001b0 bf e5 ae bd e5 50 a2 3d 1f 04 4e 3d 2e 94 d2 bd
       -0.08539914 0.07925586 0.0502969 -0.10282169
0001c0 95 0c 59 be 50 d7 f7 3d b4 43 e4 bc d9 05 d9 bc
       -0.21196206 0.121016145 -0.027864315 -0.026492046
0001d0 3a e9 ae 3d b2 82 1f 3d 0e 40 12 3e a4 f0 22 be
       0.08540578 0.038943 0.14282247 -0.1591211
0001e0 42 25 11 bc 6b b6 5d 3d 56 9f 3c 3e 14 21 ac 3d
       -0.008858981 0.054129045 0.18420157 0.08404747
0001f0 ef f8 18 be fa 99 52 3e 75 f4 a3 bc 5d 61 15 3d
       -0.1493871 0.2056655 -0.020014027 0.036469806
000200 e5 0c 9d be 60 19 93 3d 66 bf 66 3c 25 85 16 3e
       -0.306739 0.07182574 0.014083719 0.14699228
000210 f6 87 00 3e 83 a0 bb bd de d1 4e bd cb bf ba be
       0.12551865 -0.091614746 -0.050493114 -0.3647445
000220 d8 cc 68 be 46 bc 6c 3d f2 ee c9 bc 6e c5 3b be
       -0.22734392 0.05779674 -0.02465007 -0.18337032
000230 f4 a4 c2 3d 8e 84 5f bc f5 b2 0d 3e 1a a5 28 3b
       0.095041186 -0.013642443 0.13837798 0.0025733174
000240 7f 43 76 bd 0f f0 61 3d ff 5a eb bd e3 fc ba be
       -0.060122963 0.05516058 -0.114919655 -0.36521062
000250 21 f3 4f 3a 6b 58 fc 3d be 93 ec be 81 34 99 3d
       0.00079326524 0.12321552 -0.46206468 0.074807175
000260 bc 5a 1a 3e 96 30 76 be 72 7c 8a bd fe 77 a9 3d
       0.15073675 -0.24041972 -0.06762017 0.0827484
000270 25 00 20 be cf fb a9 bd 0f 1a da bd 56 98 37 3d
       -0.15625055 -0.08299982 -0.106495015 0.044823013
000280 47 04 3d 3e d7 e6 3a bd e0 e4 5b bc 35 f6 16 3e
       0.18458663 -0.045630302 -0.013421267 0.14742358
000290 dd 7e 03 bb 76 a0 c5 bb 9c 9d 83 bd b6 7c 35 3e
       -0.002006463 -0.0060310913 -0.06426546 0.17723355
0002a0 fa 0e 02 3e c3 a3 1f bc df 9f 7e 3e 42 70 19 bd
       0.12701026 -0.009743634 0.24865673 -0.037460573
0002b0 3c 80 6e 3e 7f 80 5b 3e b0 fb d7 bc ec 0d 8c 3c
       0.23291105 0.21435736 -0.026365131 0.017096482
0002c0 ba ef 3a bd 05 2f 67 3e c6 65 8e 3e 1b 42 ae 3e
       -0.045638777 0.2257653 0.27812022 0.3403481
0002d0 30 a9 b9 3b d0 0f de bc 34 e3 ab 3d 11 88 06 be
       0.0056659207 -0.02710715 0.08392945 -0.13137843
0002e0 cc d5 97 bd ab 7c 18 3e 1e 0f 15 3d 63 1b 10 be
       -0.074138254 0.14891307 0.03639137 -0.14072947
0002f0 b7 32 0a bd 34 89 06 be 50 2d 4b be e5 4e 0b 3e
       -0.03373977 -0.13138276 -0.19841504 0.13604315
000300 3f 09 35 3d 96 ba ae 3d bb 47 70 bd 5f 31 3f 3e
       0.04419827 0.08531682 -0.058662158 0.18671177
000310 1f 4e b6 3d bd 60 0a bb e6 47 ad bd 61 a8 40 bd
       0.08901619 -0.002111479 -0.08460979 -0.04703558
000320 d7 78 24 bd ec 85 91 bc 20 e0 f0 bd 83 58 69 3d
       -0.040154304 -0.017764054 -0.117614985 0.056969177
000330 2f a2 ba 3d fe 51 c5 bc 03 80 44 3e 03 a3 98 3b
       0.09112965 -0.024086948 0.19189458 0.0046581044
000340 99 25 dd bc 31 b8 b0 bd 04 8a 31 3d 10 01 1a be
       -0.026995467 -0.08628882 0.043344513 -0.15039468
000350 b5 22 05 3e 66 b8 ad 3d e0 80 aa 3d 27 c6 b0 3c
       0.13001521 0.08482437 0.08325362 0.021578861
000360 a1 bf 2c bd e4 21 e3 bd 07 2b 07 3d af f3 35 be
       -0.04217494 -0.110904485 0.03300002 -0.17768739
000370 42 c0 07 3e 52 98 0c 3e 43 c9 c6 3d b7 51 df 3d
       0.13256934 0.1372998 0.097063564 0.10904258
000380 07 42 88 bc 05 1c e7 3d d9 4c 71 3d b4 91 64 be
       -0.016633047 0.11284641 0.05891118 -0.22321206
000390 23 49 2f 3d 39 4b cc bc 45 b0 ac bd d2 62 ac 3d
       0.042794358 -0.024938213 -0.08432058 0.08417286
0003a0 05 ca d1 3c 79 30 f6 3c 39 e8 25 be 24 23 16 3e
       0.025609026 0.03005241 -0.16201867 0.14661843
0003b0 a7 78 88 3d a0 e4 ea 3d ff e9 c6 bd 0d e9 00 be
       0.066636376 0.11469388 -0.097126 -0.12588902
0003c0 42 76 1c 3d 8b 19 3d bd c7 54 fc bd bd 44 4e 3e
       0.038198717 -0.046166938 -0.123208575 0.20143409
0003d0 ee 85 30 be fd a8 23 bd e2 56 9d bd 58 e9 4e be
       -0.1723859 -0.03995608 -0.07682587 -0.20206201
0003e0 f8 e5 9f 3d cd ce 13 3d c4 08 e1 bd b1 54 51 bd
       0.07807535 0.036085892 -0.10988 -0.05110616
0003f0 5b 9d a7 3d 3e 0a 80 3d 60 1c 44 3d 94 13 c8 bd
       0.0818431 0.062519535 0.047878623 -0.09769359

gcl_0.edge_mlp.5.bias f4 [32]
000000 02 8b 8c bd 9f 4f 9f bd 21 93 67 bd 5b 83 93 bd
       -0.06862451 -0.077788584 -0.056536797 -0.072027884
000010 e6 0c 5a bd 0d 28 58 bd 1a a7 a7 3c 64 4a 12 3e
       -0.053234957 -0.05277257 0.020465422 0.1428619
000020 11 45 90 bc 51 74 8a 3d ea 56 bf 3d bc f8 31 be
       -0.017611058 0.06760467 0.093427494 -0.17380041
000030 66 f6 e0 3d 69 28 df 3d 99 3e fc bd 89 bc 32 be
       0.10984497 0.108963795 -0.12316627 -0.17454733
000040 bf db f4 bd d0 37 e8 bd fe c8 c9 3d 2c ef 50 3d
       -0.11955976 -0.113387704 0.09852789 0.051009342
000050 3d 45 dd bd e6 07 ed bd 83 78 30 3d 1d 49 f8 bd
       -0.10804222 -0.11573772 0.04308368 -0.1212332
000060 f6 ef 4c 3e e7 7c 7a bd c7 00 d4 bd 8e d1 a9 bd
       0.20013413 -0.061154272 -0.10351711 -0.082919225
000070 90 76 10 be f8 00 e0 bc 15 ca bb bd 37 2c ab bd
       -0.14107728 -0.027344212 -0.091694035 -0.08358043

gcl_0.node_mlp.0.weight f4 [32, 66]
000000 a8 b4 17 3e 56 59 94 bd 40 3b 39 3e 83 6f 01 3c
       0.14815009 -0.07243602 0.18089008 0.007900122
000010 df 5c 9b bd 34 08 af 3c 73 7d c5 3d 5d 55 72 3e
       -0.07586073 0.021366216 0.09643068 0.23665376
000020 a1 0b 11 be cd ea 12 3e 80 f3 06 be 2f c9 8f 3d
       -0.14164592 0.14347382 -0.13178825 0.070207946
000030 51 e9 90 bc d7 f1 51 be 5f a6 99 3c 7a d8 df bc
       -0.017689379 -0.20502411 0.01875609 -0.027324904
000040 76 31 85 3e d6 ed 37 3d 96 fa 99 3d 1d 75 28 be
       0.26014298 0.044904552 0.075184986 -0.16450925
000050 14 e0 bf bd 4c 1c 97 3d 71 d8 12 3e 6a ba c7 3d
       -0.093689114 0.07378444 0.14340378 0.097523525
000060 66 46 eb 3d 90 12 06 be 2c d0 bb 3d 9e 7e 48 bd
       0.11488037 -0.13093019 0.09170565 -0.048948877
000070 f9 8a d9 bd 8a fa 3c 3d bd b6 b2 3c 9f 05 21 3e
       -0.1062221 0.04613737 0.021815652 0.157248
000080 f9 b4 a3 bd 15 a1 8d 3d a2 35 a7 3d 4a 19 cb 3d
       -0.07993502 0.069154896 0.081645265 0.09916933
000090 2c 99 16 be 5c fb 1a 3e 8d 29 d2 bd 1c c3 30 3d
       -0.14706868 0.15134948 -0.102618314 0.04315482
0000a0 43 fc b0 bc 01 33 ce 3d 2b b3 09 be 1c 0a b8 3c
       -0.021604663 0.10068322 -0.13447253 0.022465758
0000b0 a4 cb 8e 3c 69 ec 79 bd f9 95 0a 3d 33 18 26 bd
       0.017431088 -0.061016474 0.03383443 -0.040550422
0000c0 ec e5 8f bd df 8f bc 3d 48 d2 89 3b 80 86 93 3d
       -0.07026276 0.09207129 0.0042059757 0.07203388
0000d0 7f e1 52 3c 16 c9 66 bd 83 6c 4d 3d 7c 62 db bc
       0.012871145 -0.056344114 0.050152313 -0.02678036
0000e0 4d 2a 1b bc b3 1b b1 3d b9 ab 37 3d f5 30 1a 3d
       -0.0094705345 0.08647861 0.0448415 0.037644345
0000f0 32 91 eb bc a6 37 96 3d 5d b7 fe 3d af 1d 99 3c
       -0.028755758 0.07334833 0.124373175 0.018690912
000100 f4 b5 a1 3d a4 6c 1c be d5 f4 d0 3c ff 75 21 be
       0.07896033 -0.15275818 0.02550737 -0.15767668
000110 38 2d 70 3d 5b c4 04 bd cc c4 27 3d 6a 2e 5e 3d
       0.058636874 -0.03241382 0.040959165 0.054243483
000120 b8 04 48 3e 10 e2 21 3e 68 99 e1 bd 1d 8c 22 3e
       0.1953305 0.15808892 -0.11015588 0.15873761
000130 b9 f2 3c be 20 55 0d bd 62 a2 fc 3c 27 b4 2d 3d
       -0.18451966 -0.03450501 0.030839149 0.042408135
000140 66 a7 88 3d 03 76 2b 3e 7e 72 c1 3c 56 d9 bf bd
       0.06672554 0.16744237 0.023614164 -0.093676254
000150 cf e6 5d 3d bd 86 f7 bd d5 15 29 be 4c 50 20 3e
       0.054175194 -0.12086246 -0.16512235 0.15655631
000160 cb fe 29 3e 8f 80 bc bc d7 c7 35 3e 36 e2 88 bd
       0.16601102 -0.02301052 0.17752014 -0.06683771
000170 f1 49 db bb ee 04 ae 3c c4 9c 98 bd 5a 3e a6 bc
       -0.006692164 0.021242585 -0.07451776 -0.020293403
000180 85 a6 2f be 45 33 cc 3d ab 0e 83 ba 64 3e 42 3d
       -0.17153366 0.099707164 -0.0009998878 0.04742278
000190 5e 81 cd 3d 4c a1 33 3e 6d d7 88 3d 0d 9b ae 3d
       0.100344405 0.17541999 0.06681714 0.08525667
0001a0 4b 37 07 3d f9 06 1f 3b fb 6e 81 3c f9 0a 1e 3d
       0.033011716 0.002426563 0.01579999 0.038584683
0001b0 c5 ce e8 bd a3 65 26 bc 1b d3 6f bd 4f ec cb 3c
       -0.11367563 -0.010156068 -0.058550935 0.024892954
0001c0 e5 1a e6 bc 5e bc af bd b6 46 45 3c 0e 34 28 3d
       -0.028088996 -0.0858085 0.012040785 0.04106527
0001d0 86 55 cc bd 32 05 1c be 55 e1 58 39 0d ee c4 3c
       -0.0997725 -0.15236357 0.00020683308 0.024039293
0001e0 20 bf c5 bd d6 6e a0 3d 7f 4f 83 3d f8 03 da bd
       -0.09655595 0.0783364 0.06411647 -0.10645288
0001f0 67 b5 06 3c 4b 57 89 3d ac f4 17 3d 0d f7 22 be
       0.008221961 0.06706103 0.03709857 -0.15914555
000200 3a 59 bb bd 38 a5 ee ba 2b 95 7a 3d 35 1f ae 3c
       -0.09147878 -0.0018207198 0.061177414 0.021255115
000210 d3 9c 67 bd 62 7d ae 3d 4a 5a 1e bd a7 ea e3 3d
       -0.056546044 0.085200086 -0.038660325 0.11128741
000220 3d 4f 3c 3a e5 08 00 be a0 ac 4b 3d 0e 74 48 bd
       0.0007183438 -0.12503393 0.049725175 -0.048938803
000230 09 b5 66 3d 97 6f 1b 3d 7f 93 95 3d 74 2f c1 bd
       0.056324992 0.037948217 0.07303523 -0.09432879
000240 f2 84 01 be 2c a6 c2 3d ad 8c 17 bc 77 12 57 3d
       -0.12648371 0.09504351 -0.009249848 0.052507844
000250 e4 5d 92 bc e4 00 ad 3d 76 bf c4 3b 44 7c a2 3d
       -0.017867036 0.084474355 0.0060042692 0.07933858
000260 c2 3b 1f bb 0d 9b 4d 3d 04 e2 7c 3d 34 54 80 bd
       -0.0024297093 0.050196696 0.061738983 -0.062660605
000270 75 c8 b8 bd 53 ce 98 3d b8 d4 ee 3d ed a4 b9 bd
       -0.09022609 0.07461228 0.11661667 -0.0906466
000280 ce 24 0d bb cf ef 63 bd e6 8b 00 be 24 5b 03 3e
       -0.002153683 -0.05564862 -0.12553367 0.12827736
000290 7e 17 f1 3d 9b f6 e9 3c de 93 01 bd f6 7b f4 bd
       0.11772059 0.028559973 -0.031635158 -0.11937706
0002a0 4e a9 9e bd ae 8d 3d be 1a 32 6c bd 78 a9 bb 3c
       -0.07747136 -0.18511078 -0.057664968 0.022907957
0002b0 ef 22 f2 bc 8a 67 57 bc ed 55 67 3c be e3 c9 bd
       -0.029557673 -0.013147244 0.014119607 -0.098578915
0002c0 d6 0d dd 3d cd 50 18 bd 61 2b 09 3e dc 3c 58 3d
       0.107936546 -0.037186433 0.13395454 0.052792415
0002d0 ce 6a e8 3d a5 8d e5 bd 0b 6f 23 3d 04 08 d3 bd
       0.113484964 -0.11208657 0.03990082 -0.10304263
0002e0 49 d2 a2 bd 7b f4 37 bd 35 ac 83 3d a4 dc 3d bd
       -0.07950265 -0.04491089 0.0642933 -0.046352997
0002f0 98 6d c1 bc 6e 0f 20 be 3f 28 0d be 98 f8 cc 3d
       -0.023611829 -0.15630886 -0.13784884 0.10008353
000300 8e 92 c5 3d b4 5f d0 bc f6 af 42 bd 6b d1 73 3b
       0.09647094 -0.02543626 -0.04753109 0.003720368
000310 ef f0 62 3d cd 89 ca bc ea d0 11 3e fc 45 b1 3c
       0.055405553 -0.024723912 0.1423985 0.021639816
000320 64 08 54 3e e9 0b 7b bd 14 b2 63 bd 41 b6 fe 3d
       0.20706326 -0.061290655 -0.05558975 0.12437106
000330 0b 1d c8 3d 78 ce b7 3d 0c 70 fa bd 0f 02 98 bd
       0.097711645 0.08974928 -0.122284025 -0.07422268
000340 4d ff ab bc ed 51 d3 bd 42 3a 51 bd 47 c3 1a be
       -0.02099576 -0.103183605 -0.05108095 -0.15113555
000350 1e b3 a2 bc 63 90 42 bc 78 35 74 bd 3e 4f 5d bc
       -0.0198608 -0.011875245 -0.059621304 -0.013507662
000360 ef ab ed bd 01 55 c6 bd a7 6b 5b 3d d1 92 95 bd
       -0.11605059 -0.09684182 0.053569462 -0.07303394
000370 88 a2 cc 3c 22 c5 80 3d 5a fe df bd bd 08 e4 3d
       0.024979845 0.062876 -0.109371856 0.11134479
000380 4f b0 1c 3e ab 9e 15 be bc 29 16 3e 3f 37 22 bd
       0.15301631 -0.14611308 0.14664358 -0.039603468
000390 3b 3c 63 bd 26 85 10 3e 4d 42 85 3d 3d 9c 38 be
       -0.055477362 0.14113292 0.065067865 -0.1802835
0003a0 85 44 02 3c c8 ba ba bb 31 ec 19 be f7 cb 9e bd
       0.007950907 -0.0056985356 -0.15031506 -0.07753747
0003b0 5d 08 76 bd 58 ca 98 bd 59 e9 8a bd ea 04 d2 3d
       -0.06006657 -0.07460469 -0.06782789 0.102548435
0003c0 64 ef 04 bc 59 d1 73 3c 3e f2 8b bd a0 06 df 3d
       -0.008113716 0.014881455 -0.068333134 0.108899355
0003d0 ec 81 98 bc 0c 1b 4d bd 9a 0a f3 bd ab aa f3 bd
       -0.01861664 -0.050074622 -0.118672565 -0.11897787
0003e0 65 9c 05 bd 7d 48 92 bd 91 47 e7 3c 63 4a 30 bd
       -0.032619853 -0.07142732 0.028232368 -0.04303969
0003f0 2b eb 32 bd dd c3 5e bd fa a5 b0 bd d7 75 0e be
       -0.043681305 -0.05438601 -0.086254075 -0.1391214

gcl_0.node_mlp.0.bias f4 [32]
000000 b4 c3 5d bb d9 97 3d be ca 8d df 3d af 20 e6 3d
       -0.0033838572 -0.18514957 0.10915716 0.11236703
000010 5c 80 10 3d e6 66 96 3b e4 45 32 bb d5 60 0a bc
       0.035278663 0.004589903 -0.0027202303 -0.008445938
000020 3c 67 63 bc 59 a0 91 bd 38 9d 10 be 44 70 49 bc
       -0.013879593 -0.07110662 -0.14122474 -0.012294833
000030 b4 e2 c5 bd 37 a5 d0 bd 34 5d b3 bd fb 22 84 bc
       -0.09662381 -0.10187762 -0.087580115 -0.016129961
000040 a2 4e d9 3d 09 7d 43 bc 27 c4 b7 bc e7 8e 22 bc
       0.10610701 -0.011931666 -0.0224324 -0.009921766
000050 29 f3 e9 3d 5f cb 25 3d 29 44 78 3d 48 49 b7 bd
       0.11423332 0.040477153 0.060611878 -0.08949524
000060 af 5b 8b 3d c3 6e 97 bd a5 7f 28 be 2b 6c e2 3d
       0.06804597 -0.07394173 -0.16454943 0.11055788
000070 0f 62 89 bd 69 45 48 3c dc 77 74 bd de 53 04 be
       -0.06708156 0.01222358 -0.05968462 -0.12922618

gcl_0.node_mlp.3.weight f4 [32, 32]
000000 39 56 7e 3d 48 a9 0f bc 1a cf 4d be eb b7 9f bd
       0.062093947 -0.008768387 -0.20098534 -0.077987514
000010 5c 20 09 3d 1f 6d 89 3d 7f b9 54 bd 9c 3f 6f 3c
       0.033478126 0.06710266 -0.051934715 0.014602568
000020 da 99 a2 bd f9 4d 42 3e 2a 62 bf bd 12 8d 7f bd
       -0.07939501 0.18975057 -0.09344895 -0.062390395
000030 8a 31 51 3d e9 f1 41 3d 23 f5 87 3d 6f 4e d7 3d
       0.051072635 0.047349844 0.06638553 0.10513007
000040 8b 88 bc 3a b6 8b a1 be c4 40 91 3e 03 14 c8 bc
       0.0014383955 -0.31551903 0.28369725 -0.024423605
000050 ae 45 58 bd 89 23 d3 3d 88 6e a8 3d 3b 6b 0d be
       -0.052800827 0.10309512 0.08224207 -0.13810436
000060 f9 b4 76 bd 78 9f 9a 3c 06 1d cd 3d 21 f6 26 bd
       -0.060231183 0.018874869 0.100153014 -0.04076207
000070 1a dc 25 be c8 16 a1 bd cd dc 3b bd 6f f6 ca bc
       -0.16197243 -0.07865673 -0.04586487 -0.024775712
000080 63 b2 9e 3b d0 0d 90 3e ed d8 45 be ac 72 4e be
       0.0048430427 0.28135538 -0.19321032 -0.20160931
000090 17 e2 5e bd 07 5c e1 ba 67 84 f9 3c ea 35 ab bd
       -0.054414835 -0.0017193564 0.030458642 -0.08359893
0000a0 9e b7 0e be 79 b6 1f 3e 75 50 71 bd af 39 1b 3c
       -0.13937232 0.15596952 -0.05891462 0.009474202
0000b0 8d 2e 02 3c 47 34 da bc 15 dd ce 3d 6f 2a 86 bd
       0.007945669 -0.026636256 0.10100762 -0.06551062
0000c0 a1 b3 81 be a8 17 51 be b6 cc 0d bd 9e 9b 38 3c
       -0.25332358 -0.2041918 -0.034619056 0.011267571
0000d0 80 2d c7 bd 65 7f d1 bb 83 c4 31 bd dd 5b cf 3d
       -0.09725475 -0.0063933604 -0.0434003 0.101249434
0000e0 04 27 b8 3c 74 47 72 3d f0 2e 14 be 12 06 38 be
       0.022479542 0.059150174 -0.1447103 -0.17971066
0000f0 3f 22 6b 3d ff 69 d3 3d 48 53 9b bc 37 68 82 bd
       0.057405706 0.103229515 -0.01896061 -0.06367534
000100 da ac 5f 3e e2 89 4d 3e 97 25 d7 bd 2a 16 51 be
       0.21843281 0.2007213 -0.105052166 -0.20418611
000110 4d ac ac bc 53 4b 09 be 68 47 f8 bd ae 6e d9 bd
       -0.021078253 -0.1340764 -0.12122995 -0.106168136
000120 0a f9 47 be 63 c9 ab 3b 1c 9d 89 bd cd 91 02 be
       -0.19528595 0.005242513 -0.06719419 -0.12750931
000130 69 bc 2c 3e d4 31 eb bd b1 a2 ab bd 26 9f 31 bc
       0.16868748 -0.11484113 -0.0838064 -0.010841167
000140 45 bf a2 be ec 65 3d bd 49 aa 37 be 3f 0d f2 3d
       -0.31786552 -0.04623978 -0.17936052 0.11818933
000150 10 58 61 bd 7a dc 0f 3e 65 a6 fa 3d 38 8a 98 3e
       -0.055015624 0.14048949 0.122387685 0.29792953
000160 56 71 57 3d 20 f8 60 bd 40 37 85 3d 39 f2 38 be
       0.05259832 -0.05492413 0.06504679 -0.1806115
000170 0a ec 32 be 21 90 26 3e da 56 8f bd cb c5 ca 3b
       -0.17472854 0.16265918 -0.069989875 0.0061881295
000180 5f 9f fe 3d 1e cc a8 bd 42 ac 29 bd 1e e1 bd 3d
       0.124327414 -0.08242057 -0.041424043 0.09271453
000190 38 0d cb 3d ef 9c 19 3d 59 f0 58 3d c7 d2 2b bd
       0.09914631 0.03750318 0.05296359 -0.04194906
0001a0 f0 d0 92 3c 2d c8 0a bc ef 14 9a bd 97 6a 1f be
       0.017921895 -0.008470577 -0.07523524 -0.15568005
0001b0 08 bd 98 3c 58 53 96 3d a0 b0 34 3d 82 3f 9e be
       0.018644825 0.07340115 0.044113755 -0.30907828
0001c0 82 d2 06 3e ee 50 84 bd ae dc 05 be e3 24 a4 bd
       0.1316624 -0.064607486 -0.13072464 -0.08014848
0001d0 36 dd d4 bd 09 80 08 bd 27 9e b3 bd 26 a6 95 3c
       -0.10393755 -0.03332523 -0.087703995 0.018267702
0001e0 13 e2 c9 bc 08 e2 45 bd 2a 4d 70 ba 90 b2 7a bd
       -0.024643933 -0.048311263 -0.0009166772 -0.061205447
0001f0 2a f7 d1 3d ad af 21 3e 24 bf db bd 5e e9 83 bc
       0.10252221 0.15789671 -0.107298166 -0.01610249
000200 aa 02 74 be 5a 0a e9 be 7d 93 84 3d bb 27 36 3d
       -0.23829141 -0.4551571 0.06473444 0.044471484
000210 a0 c9 ec bd 9c 05 cd 3d e1 42 26 3d cf 96 27 3d
       -0.115618944 0.100108355 0.040591124 0.040915307
000220 c0 07 a2 3d 56 d0 de bd ca 5d 0c be 1d 56 08 be
       0.079116344 -0.10879581 -0.13707653 -0.133141
000230 65 87 81 be 4d 0b f2 bd d5 0b ef bd ae 2c 6e be
       -0.2529861 -0.11818562 -0.11672179 -0.23259231
000240 d0 51 ea 3d af cf 1f be f0 e2 9d be fd 3f 16 be
       0.11441386 -0.15606569 -0.30837202 -0.14672847
000250 23 3a 66 3e db fc 59 be 63 be 05 be 17 c8 85 bd
       0.22483115 -0.21287863 -0.13060908 -0.06532305
000260 32 63 43 bc 50 24 25 3d 2f 42 9f 3d 7f 12 aa bd
       -0.0119255055 0.040317833 0.077762954 -0.08304309
000270 a7 ca 54 be b2 16 42 bc ab 67 4c be ac 0b 1c be
       -0.2078043 -0.011846231 -0.19961421 -0.15238827
000280 f4 3a 93 3d fc 28 08 bd 8e 3a 09 be 00 bb a5 bd
       0.07188979 -0.03324221 -0.13401243 -0.08092308
000290 76 db f6 bd 64 41 0c be 8b fc 07 3c c5 66 d4 bd
       -0.120535776 -0.1369682 0.008299957 -0.10371164
0002a0 a2 97 49 be 0f f1 b9 bd f9 14 97 bd 88 56 38 be
       -0.1968675 -0.090791814 -0.07377047 -0.18001759
0002b0 ee b8 d6 3d ee 70 98 3c c9 44 91 bd 2c 79 6f 3e
       0.10484491 0.018608537 -0.07093198 0.23386067
0002c0 65 c5 0d be 64 3f e3 bd 5f 95 0e 3d 19 bb dd bd
       -0.13844831 -0.11096075 0.03481042 -0.10826702
0002d0 52 83 34 be 3d ec 98 bd 1f 4c 0a bd 54 b1 eb 3d
       -0.1762822 -0.07466934 -0.033764 0.11508432
0002e0 1a 1e 66 bd ba 5b 23 3e ee 9f 3a 3a 50 9e 9c bd
       -0.05618105 0.1595296 0.00071191683 -0.07647383
0002f0 da f1 6b bd a7 58 8d bd 57 56 24 3d aa b0 19 3e
       -0.057603694 -0.06901675 0.040121403 0.15008798
000300 33 72 01 3d 10 d7 96 3d 30 37 10 3e a0 7f 27 bc
       0.03160305 0.07365239 0.14083552 -0.010223299
000310 6b 45 a0 bb 36 3c 71 be ed 6c 35 be 7a d9 9d 3d
       -0.0048910878 -0.23558125 -0.17717333 0.07707496
000320 eb 22 a1 3d 83 ff 97 3d 86 27 95 bd 91 25 83 bd
       0.07867988 0.07421782 -0.07282929 -0.064036496
000330 81 1d dc 3d c9 8c 08 3d ac df bf 3c 97 b7 31 be
       0.10747815 0.03333739 0.023422085 -0.1735519
000340 b8 af 20 3d c8 60 d7 3c c4 51 c3 bd b3 b9 11 3d
       0.03923008 0.026291266 -0.0953708 0.035577487
000350 0e 8f 1a bd fe d8 b3 3d 3c 60 3e be 5a 0c 47 bd
       -0.037734084 0.08781622 -0.18591398 -0.048595764
000360 9d ac 14 be b4 c5 81 3d 87 e0 ed bd 09 da ea 3d
       -0.14518972 0.06336537 -0.11615091 0.11467368
000370 35 7b b5 3d 3a b5 40 be 6a 3e ff 3d e1 c1 02 3d
       0.088613905 -0.18819132 0.124630764 0.03192318
000380 c2 19 52 bd 9c 80 18 3d 51 44 05 3e 33 9d 32 bd
       -0.051294096 0.037232026 0.13014342 -0.043606948
000390 3c 41 f4 bd 04 fc 31 bb 62 3f c1 bd 3d dc 6a 3c
       -0.11926505 -0.002715827 -0.094359174 0.014334735
0003a0 74 32 23 3d cc 66 f5 bd 5d 72 cb bd f5 66 fd 3d
       0.039843038 -0.119824976 -0.099339224 0.12373153
0003b0 06 86 41 3d 88 ac e0 bc 3c 4c 3f be d1 b4 07 be
       0.047246955 -0.02742602 -0.18681425 -0.1325257
0003c0 3b 24 60 bd fd 59 e4 b8 ee 84 01 3e c1 6b 78 bd
       -0.054722052 -0.00010888649 0.12648365 -0.060649637
0003d0 67 b1 29 be 3e 47 63 3d 86 00 15 bd bb be c5 bc
       -0.1657158 0.055487864 -0.036377452 -0.024138799
0003e0 11 36 3d 3c ac b8 3b 3d e7 f0 86 3d 0c 19 25 be
       0.011548535 0.045830414 0.06588917 -0.16122836
0003f0 2b 6a 87 3c 40 91 1a bd 51 19 8c bd 48 ce 33 be
       0.016530117 -0.037736177 -0.06840766 -0.17559159

gcl_0.node_mlp.3.bias f4 [32]
000000 45 3e a3 bd c1 26 98 3c 84 be dd bd 99 b0 82 be
       -0.07970861 0.018573167 -0.108273536 -0.25525358
000010 05 dc 8a 3d bb cf 5a be 7f eb 17 be aa 0c 17 3e
       0.06780247 -0.21368305 -0.14835928 0.14750925
000020 ce 02 e7 bd c8 69 1d be 40 ee 94 bd d3 a8 fb 3d
       -0.11279832 -0.15372384 -0.07272005 0.1228806
000030 c1 7d 7e 3c e7 b0 32 3e 6d bb 60 3c 41 28 06 be
       0.015532912 0.17450295 0.013716561 -0.13101293
000040 6c 81 0c be 69 f9 aa 3c 26 2f 12 be 7d a8 26 3e
       -0.13721246 0.020870881 -0.14275798 0.1627521
000050 53 a4 65 be c0 e6 24 be cb 04 cd bd ca 63 97 bd
       -0.22425966 -0.16103649 -0.1001068 -0.0739208
000060 9c 35 75 3e 31 d2 40 3c 2c 6a 64 bd 1e 87 e0 3c
       0.23946232 0.011768864 -0.055765316 0.027408179
000070 a5 56 e1 3d a6 c3 be 3b 7f 7a e2 bb ff 51 a6 bc
       0.11002854 0.005821663 -0.0069115753 -0.02030277
