models/h64_dropout02_layer2_emb2_model2_old.pt (torch, 170646 bytes, 68 tensors)

in_emb.0.weight f4 [32, 2]
000000 0d da 37 3f 10 7e 8b 3e 64 3f 09 bf 27 8f 13 3d
       0.71817094 0.27244616 -0.5361235 0.036025193
000010 f2 c7 69 3f fd 91 3f 3e aa 3e 12 bf ca be 56 3e
       0.9132072 0.18708034 -0.5712687 0.20971218
000020 e5 a9 ce be 4e 3c dc be 27 16 95 3c 75 48 d8 3e
       -0.40363994 -0.4301476 0.01819904 0.4224278
000030 ec 7f 35 3f 82 f5 ac be 08 2c 14 be fc 71 09 3e
       0.7089832 -0.33781058 -0.14469922 0.13422388
000040 aa 48 0a 3f a5 fc 5b 3e 82 17 e5 3d 6b 12 15 bf
       0.54017127 0.21483095 0.111861244 -0.5823123
000050 7b c0 2b 3f 1f ec 1e bc be 52 21 3e e2 22 7e 3e
       0.67090577 -0.00969985 0.1575422 0.24817994
000060 30 c5 1f be 72 42 11 bf ff 8b 70 3e b7 2f af be
       -0.15602565 -0.5674201 0.23490904 -0.3421609
000070 cb c8 c6 3d f6 8c 95 3e 50 23 fb be 51 2c a7 3e
       0.09706267 0.29209107 -0.4905038 0.32650998
000080 6e 4e 36 3f cb b4 00 3f 1b ce e1 3e 42 88 0e 3f
       0.71213424 0.5027587 0.44102558 0.5567666
000090 03 a2 c1 be db 36 e1 be 80 0e 67 be 0c 7b c1 3b
       -0.37818918 -0.43987164 -0.22564125 0.005904561
0000a0 5b 27 9d be 3d 53 ec be 14 b1 84 be 12 2b 06 bf
       -0.30694088 -0.46157256 -0.2591635 -0.5240947
0000b0 57 8c 5d 3f 7b d0 eb be c1 e7 06 3f 92 23 a2 be
       0.86542267 -0.46057495 0.5269738 -0.31667763
0000c0 c9 78 9b 3a 0a be 81 be 0f 0c 01 bf 8c f8 dd bd
       0.0011861558 -0.253403 -0.50409025 -0.10838422
0000d0 e0 47 f6 bd 25 54 4e 3f 02 21 12 3f 6f 28 b0 be
       -0.12025428 0.80597144 0.57081616 -0.34405848
0000e0 4d 3a e0 3e 5e 15 1f 3c 4e 15 91 3f e4 56 10 3e
       0.4379448 0.009709684 1.1334627 0.14095646
0000f0 bc 34 f0 3e ff e9 76 3c 98 9d 92 be 63 14 b5 be
       0.46915233 0.015070437 -0.2863586 -0.35367116

in_emb.0.bias f4 [32]
000000 41 c6 a2 be ed 79 3a 3d 19 2f 09 bf f1 eb f2 be
       -0.3179188 0.045526434 -0.5358749 -0.47445634
000010 ec 7d aa 3e 89 58 67 bc 0c 57 b8 be 99 83 78 3d
       0.33299196 -0.0141202295 -0.36003911 0.060672376
000020 33 b7 a5 3e 34 d2 02 3f b2 0a 69 be 82 2f 13 be
       0.32366332 0.51101995 -0.22757986 -0.14373592
000030 71 76 4d bd e8 60 87 3e af cc 87 be fe f5 0c be
       -0.050161783 0.2644112 -0.2652335 -0.13765714
000040 b5 00 e6 be 7f 3c 13 bf ec 5b 4c be be 80 1c 3d
       -0.44922414 -0.57514185 -0.1995694 0.038208716
000050 08 db 0f be 19 44 0d 3f 0e bb 72 be 67 2f 32 3e
       -0.14048398 0.55182034 -0.23704168 0.17400895
000060 91 bc 3c be 8d 31 03 3e 6f 21 1c bf 47 72 19 3e
       -0.18431307 0.12811871 -0.60988516 0.14985
000070 10 23 dd 3e c2 5e 97 be 4d b3 a2 be 50 6c a7 3e
       0.43190813 -0.29564482 -0.3177742 0.32699823

in_emb.2.weight f4 [32, 32]
000000 90 8f 32 bd 48 ed 9e bd a0 5a 8d 3a 2e 4f d9 bd
       -0.043593943 -0.077601016 0.0010784455 -0.106108055
000010 75 4a 19 be 62 1b d0 bb 11 9b 02 be be c8 f4 3c
       -0.1496981 -0.0063509205 -0.12754466 0.029880878
000020 aa f2 87 3c b4 13 7c be db 30 96 bd 0c e3 05 3e
       0.016595203 -0.24616891 -0.07333537 0.13074893
000030 4b ee 07 3e 4d cb 1c be 4e ab c4 bc 7f 64 4f 3e
       0.13274495 -0.15311928 -0.024007466 0.2025318
000040 c1 3b 51 3e 04 94 78 bd 17 b2 1e 3e bb 5b c8 3d
       0.2043295 -0.060688034 0.15497623 0.09783121
000050 a3 eb d6 3d 7e 50 01 be 73 18 23 be 65 c1 10 bf
       0.10494163 -0.12628362 -0.15927295 -0.56545097
000060 4b 41 0b 3d dd 82 77 3d d3 50 9f 3e 88 e5 d1 bd
       0.033997815 0.060427535 0.3111635 -0.10248858
000070 ff a4 92 3d 0d 2c 84 bd 45 91 02 be b8 b7 f2 bd
       0.07160377 -0.064537145 -0.12750728 -0.11851448
000080 fe b8 92 bd 08 77 fa bc 05 ee 09 3b 39 c5 43 3e
       -0.07164191 -0.030574337 0.0021046412 0.19118203
000090 70 c5 8b bd 92 3a 83 3d 63 6a d4 bd d7 0c 5e 3d
       -0.068247676 0.06407656 -0.10371854 0.054211464
0000a0 75 5b 73 bb fb d0 bd bd 49 d7 46 3e a5 23 03 3e
       -0.003713337 -0.092683755 0.19418062 0.12806566
0000b0 ac fd 15 be ec 46 0f 3d bf 33 bc bd 60 2c e7 3d
       -0.1464755 0.034979746 -0.09189557 0.11287761
0000c0 40 ea 16 3c 6b 9e ea 3d d9 81 c5 bd 76 5c dc bc
       0.009211123 0.11455997 -0.09643907 -0.026899558
0000d0 f2 b9 c9 bd 09 fb eb bd a2 96 c8 bd 44 2b 23 be
       -0.098499194 -0.115224905 -0.09794356 -0.15934473
0000e0 41 35 4a bd 63 8b 0e bd 0b ab 53 bd 45 94 0c 3e
       -0.049367193 -0.0348009 -0.05167679 0.13728435
0000f0 6f 93 0b 3e d7 31 72 3d fe 6e 15 be 29 22 8a be
       0.1363046 0.059129562 -0.14593121 -0.26979187
000100 d1 bf e4 bd 17 92 ee 3c 44 92 e2 3c 99 20 53 3d
       -0.111693986 0.029122395 0.027657636 0.05154476
000110 e0 ed db bd 68 14 0e 3d 94 17 f0 3d ad c7 a9 3d
       -0.107387304 0.03468743 0.11723247 0.08290038
000120 34 4a 93 bb b1 c8 3e be 99 c6 26 3e 4a d7 1f 3e
       -0.0044949297 -0.18631245 0.16286696 0.1560947
000130 49 72 d6 bc d2 dd 2a be 71 72 e9 bd 54 d0 39 3d
       -0.026177542 -0.1668618 -0.11398781 0.045364693
000140 5d 93 d2 3d 53 be ef bd a8 49 1f be ce 6a 9f bd
       0.102820136 -0.11706223 -0.15555441 -0.07784043
000150 b9 dd 12 3e 0d 8e 3d bd b6 ad 0d bd ba 08 4b be
       0.14342393 -0.04627805 -0.03458949 -0.19827548
000160 12 ea e2 bd 23 7c fa bc 66 7a 7a 3e b9 a6 d7 bd
       -0.110798016 -0.030576771 0.24460754 -0.10529847
000170 8a 70 ac bd ef 49 34 bc d2 df 2c be 39 1c bf bd
       -0.084199026 -0.011003955 -0.16882256 -0.09331555
000180 c2 a8 59 be c3 e2 ee 3d 1d 4e fb 3d d0 22 1c bc
       -0.21255782 0.11664345 0.12270758 -0.009529784
000190 52 f4 98 bd 67 f1 c0 3d bd a4 39 3e 83 b8 da 3d
       -0.074684754 0.09421044 0.18129249 0.10679724
0001a0 73 70 9b 3b 3f 88 14 be ac 9f a2 3d c0 a0 9e 3d
       0.0047436296 -0.14505099 0.07940611 0.077455044
0001b0 86 96 02 bc 49 a4 43 bd c8 09 10 3e b2 fb 5e 3e
       -0.007970458 -0.047764096 0.14066231 0.21775702
0001c0 33 2d 26 3e 76 0f b8 bd b1 16 35 3c 8e 04 89 3d
       0.1622818 -0.08987324 0.011052773 0.06690322
0001d0 30 49 20 3e 66 e5 7c 3d 5b e4 00 3e 83 b3 15 bf
       0.15652919 0.06174221 0.1258711 -0.5847704
0001e0 45 fa 81 3d 9d 5c 04 3e f3 7d 5f 3e f5 44 79 be
       0.06346563 0.12925954 0.2182539 -0.24342711
0001f0 2b f3 35 3c 85 06 2c be cb ac 83 bd be 72 5d be
       0.011105339 -0.16799362 -0.06429442 -0.21625802
000200 06 35 d2 3d cd 54 5a bd 59 0d 93 3d f3 1d 24 3e
       0.1026402 -0.05330353 0.0718028 0.1602705
000210 ba b9 3c be ef 04 22 be ff 0a 23 3e be 6f 64 3a
       -0.18430224 -0.15822195 0.15922163 0.00087141606
000220 c0 99 ff 3d bb 04 89 bd 74 a5 89 bd ac cc d5 3b
       0.12480497 -0.066903554 -0.06721011 0.006524643
000230 a7 ec 6a 3c ff a6 14 3d 6b ab 30 bd 80 1a a4 3d
       0.014338649 0.036292072 -0.043132227 0.08012867
000240 65 2d 9a 3e 29 2f 2d 3e e2 3e 4c bb 8e 7b 24 bd
       0.30112758 0.16912521 -0.003116541 -0.040156893
000250 96 05 ea 3d 92 6c 61 be 2f 6d 44 3e 31 b7 4b 3e
       0.11426847 -0.22014073 0.19182275 0.198941
000260 03 44 2c 3e 58 ef a6 bd dc 0e f8 bd 9d 54 ed 3d
       0.1682282 -0.0815112 -0.12112209 0.11588404
000270 94 a8 0b be 23 c3 67 3d 3b f6 fe bd 4d 87 13 be
       -0.13638526 0.05658258 -0.124493085 -0.14407082
000280 e7 a6 3b bd f6 f4 25 3d 9f af 87 3c c5 0c 11 3e
       -0.045813467 0.040516816 0.016563235 0.14165027
000290 d2 c0 18 3d bb b2 29 3d d3 d4 9b 3c 89 b5 f5 3d
       0.037293263 0.041430216 0.019022381 0.11997516
0002a0 45 d9 f3 3d 9d fc b9 bc d6 dd 75 bc 66 bb 16 be
       0.11906675 -0.022703463 -0.015006503 -0.14719924
0002b0 b2 b6 cf bd 50 ea a3 3d 50 5e 06 bc a0 47 bc bd
       -0.10142268 0.08003676 -0.008201197 -0.09193349
0002c0 24 bb 01 bf b3 3f 9e 3c 7d b4 a0 3d 3f 85 ce bd
       -0.5067618 0.019317484 0.078469254 -0.100840084
0002d0 52 f7 c3 bc c7 8d ff 3c a7 6d 10 3e 90 e4 62 bd
       -0.023921642 0.031195534 0.14104329 -0.055393755
0002e0 92 23 b7 bd 09 a6 28 bd e8 ae a6 be a9 b9 a4 bd
       -0.089423314 -0.04117397 -0.32555318 -0.08043224
0002f0 88 d1 b6 3d a9 72 2d 3d d4 e0 93 3d af 8d 63 3e
       0.08926684 0.042345677 0.07220617 0.22222017
000300 27 29 a8 bd 90 e0 51 3e 1b df dc bd 59 05 a4 3d
       -0.08210974 0.2049582 -0.107847415 0.080088325
000310 1f d4 54 3d c5 78 4e 3d f2 de e0 bd e8 8d c5 bd
       0.051960107 0.050408144 -0.109800234 -0.09646207
000320 e0 24 80 bd fc 61 42 be 17 0d e2 3d 1b 19 07 3e
       -0.06257033 -0.1898269 0.11037653 0.1319317
000330 d5 7f 94 3d 9e e3 2e be 7d 11 92 3d dd 3b 9d 3e
       0.072509445 -0.17079017 0.07132242 0.30709735
000340 70 24 e3 3c 4e ac 81 3d 81 36 9f 3c cc 82 33 3e
       0.027727336 0.06331693 0.01943517 0.17530364
000350 26 4a 29 bd d2 5a 2f be b0 89 1d be 17 06 ee be
       -0.04133048 -0.17124489 -0.15384555 -0.4648902
000360 da 7a 42 bd a5 29 0f 3e b9 8a 2b 3e d0 3e 0b be
       -0.04748044 0.1398073 0.16752137 -0.1359818
000370 cf ed b7 bd e8 4f 1a be b5 58 b5 bc 76 74 1d be
       -0.08980905 -0.15069544 -0.022137025 -0.15376458
000380 1d 58 19 be 42 27 f4 3c a1 62 34 3d 80 83 8b 3d
       -0.14975019 0.029803876 0.044039372 0.06812191
000390 16 e1 be 3d 10 f1 f3 3d 54 21 7c bd 58 de 7a bc
       0.093202755 0.119112134 -0.06155522 -0.0153118
0003a0 80 d5 43 3e 16 45 49 be 6b 69 94 bd 57 fd 66 bd
       0.19124413 -0.1965526 -0.072466694 -0.056393947
0003b0 05 e1 c9 bd 1e 47 44 be 81 5a 18 3e 14 97 82 3e
       -0.09857372 -0.19167754 0.14878275 0.25505888
0003c0 83 72 44 3e 07 aa ed bd a8 c3 8b bc 0c 3e 34 3c
       0.19184308 -0.11604696 -0.01706107 0.011001121
0003d0 0e a3 3e 3d 98 39 b1 bd bc ab ba 3d d4 34 fd be
       0.04654222 -0.08653563 0.09114787 -0.49454367
0003e0 68 5b d4 bd 7c 71 75 bd db 35 ee bd 34 a6 98 be
       -0.10368997 -0.05992268 -0.11631366 -0.29814303
0003f0 69 67 1e be 5b 89 c7 be aa ac c7 bd 27 6e 4e 3d
       -0.15469135 -0.3897198 -0.0974973 0.05039802

in_emb.2.bias f4 [32]
000000 0f c7 35 bd 69 df 45 be e8 1b b5 3a bc a9 6f 3d
       -0.04437929 -0.19323505 0.0013817521 0.05851148
000010 46 9c 0c 3c 04 cd 69 bd ed 73 2f 3d 81 29 aa bc
       0.00858218 -0.057080284 0.042835165 -0.020771744
000020 53 d8 d9 3d c8 e8 b3 3d c1 28 10 3d 89 38 10 bc
       0.10636964 0.08784634 0.035195116 -0.0088025415
000030 fb 20 30 3e 0a c9 e5 bd 7f 7e b9 3d 47 22 16 bd
       0.17200081 -0.11219986 0.0905733 -0.036653783
000040 3f 56 81 3c a9 ad 36 3e 9c 61 a0 3d 0c b0 05 be
       0.015788196 0.17839684 0.078311175 -0.13055438
000050 5c 33 07 3e bb 6c 4d bc 51 33 f4 3d 52 9a fc 3d
       0.13203186 -0.01253813 0.1192385 0.12334122
000060 c6 24 9b bd 17 f5 26 3d 49 4a 5f 3d 05 b1 0a bd
       -0.07575373 0.04076108 0.054514203 -0.033860225
000070 28 58 8d bd 44 40 47 3b 5c e3 3d 3d 9c 93 f8 bd
       -0.0690158 0.0030403296 0.046359405 -0.12137529

gcl_0.edge_mlp.0.weight f4 [32, 71]
000000 0c fd 6e bc 54 04 e3 3d 03 58 f0 bd d4 72 56 bd
       -0.014586698 0.1108481 -0.11735537 -0.052355602
000010 9a 93 6e 3d 42 28 db 3d d5 a3 15 bd c5 f9 c0 bd
       0.058246233 0.10701038 -0.036533196 -0.0942264
000020 cc cf 1a 3e 6e 68 2a 3d 91 55 d4 3d 4d 99 c7 bc
       0.1511833 0.0416035 0.10367883 -0.024365092
000030 93 60 0f bd d1 11 97 bd 31 0b bd 3d 0a 6b f1 bc
       -0.03500421 -0.07376445 0.0923065 -0.029469986
000040 1f a5 d3 bc ef ba 88 3d f1 96 0e 3c 4e cb d3 3d
       -0.025835572 0.0667628 0.008702979 0.10341512
000050 cf a5 ed 3c e1 fd 39 bd e9 30 70 3d fa 03 4b 3e
       0.029009728 -0.045408133 0.058640394 0.19825736
000060 15 dc 5a bd 9e 5d 6f bd 35 63 47 bb c5 00 0d be
       -0.053432543 -0.05843889 -0.0030424122 -0.13769825
000070 69 d6 28 3d 7c 72 f1 bd 6f 13 36 3e f6 71 0b be
       0.041220102 -0.11789414 0.17780851 -0.13617691
000080 8f 93 cc 3d 09 42 88 3d 65 d0 fe 3d 3c 70 ca bd
       0.09989082 0.0665322 0.12442092 -0.09884688
000090 17 27 2f 3d 59 96 0d be c8 39 f9 3c ae da a9 3d
       0.04276189 -0.13826884 0.03042306 0.08293663
0000a0 0e a4 25 be 3b 3c 2c 3d 93 08 aa 3d af d9 fb 3b
       -0.16175863 0.042049628 0.08302417 0.007685862
0000b0 98 85 c1 bc 20 16 e5 bb 73 b9 27 3c 99 5a b2 3d
       -0.023623273 -0.006991163 0.010237086 0.087086864
0000c0 04 40 84 bd a4 51 46 be 0b 08 98 bc eb 1d b4 3c
       -0.064575225 -0.19367081 -0.018558523 0.021986922
0000d0 fd 69 12 3d d8 04 67 3d 4b 21 cf bd 92 2d 2a bd
       0.03574561 0.056401104 -0.10113772 -0.041547365
0000e0 ff c8 90 3d 8a 3e 0d 3e 2b 87 eb bc 64 bb fa 3d
       0.07069587 0.13793388 -0.028750977 0.12242773
0000f0 06 f2 5e bd 86 13 9b 3d be 23 42 3d 3e 28 b2 3b
       -0.05443003 0.07572083 0.047397368 0.005436926
000100 28 fe 9a bf 83 5a 38 3b f4 32 72 3d d6 96 ee 3c
       -1.2108812 0.002813012 0.059130624 0.029124659
000110 41 fd a5 be 4c 30 38 be f7 3a 25 be da 6d 88 3d
       -0.3241978 -0.17987174 -0.16135775 0.066615775
000120 e2 c3 b8 bc f2 26 82 bd 16 0c 8e bc ad 6f 42 3d
       -0.022554342 -0.063550845 -0.017339747 0.047469784
000130 8d e4 30 3d 39 77 c2 3d a0 d7 ac 3d 9a 41 35 bb
       0.043186713 0.09495396 0.08439565 -0.002765751
000140 40 bc 16 bd c0 96 f9 3b 36 1c 93 3d be 09 02 3d
       -0.036800623 0.0076168478 0.07183115 0.031747572
000150 1d 70 92 3c 27 a6 83 3d 60 72 16 3d 82 45 e1 ba
       0.017875725 0.064281754 0.03673017 -0.0017186853
000160 ed 9b a3 3d 29 b7 17 bd 8f a7 b8 bd be ae ac 3d
       0.07988725 -0.03703991 -0.09016334 0.08431767
000170 3d 26 69 3c 2b 83 c5 3d a6 4a b8 3d ab eb 10 3c
       0.014230308 0.09644159 0.08998613 0.00884525
000180 ab c0 7b bd 30 40 54 3d cb 7d 63 bd 6b a7 45 bd
       -0.06146304 0.051819026 -0.055539887 -0.048255365
000190 31 af dc bb 8a 7b 90 bc e0 d3 d9 bc 8f 22 3d 3d
       -0.0067347516 -0.017637033 -0.026590288 0.046175536
0001a0 3e ca e3 bc c4 1f 9a bd 53 da eb 3a f5 64 b0 3c
       -0.027806398 -0.0752559 0.0017994143 0.021532515
0001b0 31 f0 bc bd 49 fd e9 3d 43 fd 34 bd 39 cd 02 bd
       -0.092255004 0.114252634 -0.04418684 -0.031933997
0001c0 2a 3e 9f 3c c1 f6 4c bb ac 88 e4 3d 70 24 26 3e
       0.019438822 -0.0031275006 0.111588806 0.16224837
0001d0 b4 41 53 3c 88 47 b7 bd 79 9d 60 bd 55 ac 0f 3e
       0.012894083 -0.089491904 -0.054837678 0.14030583
0001e0 ae 0a 30 be b7 86 20 bd f9 c2 7c 3d 27 0d 53 bb
       -0.17191574 -0.039190974 0.061709378 -0.0032203884
0001f0 6d 99 01 be 3f eb 9c bd da e3 82 3c e8 9f f5 bc
       -0.12656184 -0.07662057 0.015977789 -0.029983476
000200 44 ff 36 3d ab bf 10 be 5f bc d7 bd 57 bb 8e bd
       0.044677034 -0.14135616 -0.10533976 -0.06969326
000210 64 77 49 bd 88 c4 4e bd bd fd a1 3d 22 83 08 bf
       -0.049186125 -0.050480396 0.07909725 -0.5332509
000220 85 1f 89 bd da b8 4b be a1 94 71 3e 89 70 b8 3e
       -0.06695465 -0.19894734 0.23591854 0.36023358
000230 0b e3 67 3e fe 1f b0 3e b7 00 22 bc ab 1e ac 3d
       0.22645204 0.34399408 -0.009887866 0.08404287
000240 73 9a 96 3d 0b 9d 7a bd 41 30 8c 3d e0 02 ec 3c
       0.073536776 -0.061184924 0.06845141 0.028809965
000250 66 98 82 3c 36 b5 6b bd 60 c7 a4 3d a1 71 3a bc
       0.01594181 -0.057545863 0.0804584 -0.01137963
000260 81 18 e2 3b 74 7b c8 bc 8c 3a 3e bd 6e a9 bf bd
       0.0068998937 -0.02447293 -0.046442553 -0.09358488
000270 73 3a 96 bd 09 d5 69 bc 47 52 a3 bd ce b8 0c 3a
       -0.07335367 -0.014271983 -0.079746775 0.0005368114
000280 72 9d 4a 3d b3 ef 05 3d 99 5e 77 bd 41 bf 09 bd
       0.049466558 0.032699298 -0.06039295 -0.03362966
000290 bb 44 d0 bd f9 f1 a0 3c d8 79 d0 bd 77 35 94 bd
       -0.10169359 0.019646632 -0.1017949 -0.0723676
0002a0 d8 25 fd 3c f4 f5 21 3f db 92 f0 3d 43 59 bd bd
       0.030901834 0.6326592 0.117467605 -0.09245541
0002b0 61 cf a3 3d 24 ea c5 3d ac 05 5a 3c a5 6d 87 bd
       0.07998539 0.096637994 0.013307016 -0.0661271
0002c0 8c 2d 38 3d 3c f2 5e bd 67 24 98 3c a3 7b 9d 3c
       0.044965312 -0.05443023 0.018572045 0.019223994
0002d0 28 cd 86 bc eb 16 d5 3c 42 7a ae bd 99 7f 67 3d
       -0.016455248 0.026011905 -0.085194126 0.05651817
0002e0 ae 01 da 3d 74 cd 4f 3d ac f7 e2 bb c0 dc aa bc
       0.106448516 0.050733045 -0.0069264974 -0.020857215
0002f0 f0 1c fe bd 79 a2 6a 3d db 01 ed bc 1d 91 2b bd
       -0.12407863 0.057283852 -0.028931549 -0.041886438
000300 8d 51 9a 3d 92 d1 bc bd e4 44 f3 b7 53 0b cc 3c
       0.07535086 -0.0921966 -2.8999937e-05 0.024907744
000310 ec e4 1e 3e fb 30 1e 3d cf 26 46 3c 6a d6 7e 3d
       0.15517014 0.03862093 0.012094214 0.0622162
000320 b1 1e 04 be ae 79 23 be 7d 09 eb bc 43 ee b6 3d
       -0.12902333 -0.15964386 -0.028691048 0.089321636
000330 9c d5 9e bc 91 24 6f 3d 90 2d fd bd 20 05 e6 3e
       -0.019388966 0.05838448 -0.12362206 0.44925785
000340 49 0b c0 3e 42 1e 91 3e 5a 4f 1d 3f 1f 3e 06 3f
       0.3750861 0.28343397 0.61449206 0.5243854
000350 25 90 3c 3f 05 a3 31 3b fe 1a 9d 3d ed c5 c1 ba
       0.7365745 0.0027105224 0.07671164 -0.0014783718
000360 0c ff c4 3a 1e 63 91 3d 3d b3 85 bd e4 7a f5 bd
       0.0015029623 0.07098983 -0.065283276 -0.1198633
000370 bd ec c4 3d 52 6f 9f 3d 87 67 34 3c c1 7c a7 bc
       0.09615467 0.077849045 0.011011011 -0.02044523
000380 e8 72 12 be 37 85 cb bd 8b 76 c6 3d 2f 4b a6 3d
       -0.14301646 -0.09937518 0.09690579 0.08119809
000390 a5 6a 36 3d 79 17 20 3e 53 8a 16 bb 45 db 86 bd
       0.044535298 0.15633954 -0.0022970631 -0.06584791
0003a0 ea 3e 93 3d 1c 90 b9 3d f8 4e 97 3d 3b a7 01 be
       0.07189734 0.0906069 0.07388109 -0.1266145
0003b0 dd c2 a9 bd bf c8 18 bc 94 9a 34 bd 7f a4 1d 3e
       -0.0828912 -0.009325205 -0.04409273 0.15394782
0003c0 e8 a6 db 3e 0a 79 8f 3c a2 2d a0 bd cc 5a db 3d
       0.42900777 0.01751377 -0.07821204 0.107106775
0003d0 14 e0 45 bb 74 bc a9 bc 48 a4 dc bc 9b ad 93 bd
       -0.0030193375 -0.020719744 -0.026933804 -0.07210847
0003e0 ed f7 d2 3d 6e 71 99 bb 3f 21 e7 3d b2 bd 1d 3e
       0.10301194 -0.0046827113 0.11285638 0.15404394
0003f0 3e 12 57 bc 94 d4 db 3d 53 0f 62 3d f9 01 b8 3d
       -0.013126908 0.107339054 0.055190396 0.08984751

gcl_0.edge_mlp.0.bias f4 [32]
000000 d1 29 1d 3e 08 2e 59 bc 41 76 bc 3c 46 17 56 3d
       0.15347983 -0.013255604 0.023005607 0.05226829
000010 03 1c 39 be 90 b2 c7 bd 71 55 93 bc 2c dd 90 bd
       -0.18077092 -0.09750855 -0.017985078 -0.07073435
000020 aa 90 9b bd a6 e4 ef 3c 03 76 9f 3d 92 9d a6 bd
       -0.07595952 0.029283833 0.07786181 -0.08135523
000030 26 c5 78 3c 6b 70 8e be 6b 72 71 3d 66 ae 01 be
       0.015183723 -0.27820143 0.058947008 -0.12664184
000040 08 79 5f bd b6 d4 05 bd d6 09 ca bb 34 6b 0b bd
       -0.054558784 -0.03267356 -0.0061657233 -0.034037784
000050 6a 18 ef bd 0a 5f 3f 3d 10 64 d6 bd 2c 5a c0 3d
       -0.116745785 0.046721496 -0.10468304 0.09392199
000060 7e a4 c4 bd 96 0f 84 be c6 bd c5 bd 48 b1 1d bb
       -0.09601687 -0.2579314 -0.09655337 -0.0024061967
000070 a7 1b 96 bd 6f 04 ab 3c ad 33 55 bc b9 54 d5 3c
       -0.07329493 0.020876138 -0.013012809 0.026041375

gcl_0.edge_mlp.3.weight f4 [32, 32]
000000 b7 e4 12 3d d1 54 20 be c0 b8 50 3e 6e c3 d8 bc
       0.03586265 -0.15657355 0.20382977 -0.026460376
000010 e0 02 82 3e 96 6d a7 3d d9 4e 0a be c9 ff 9c be
       0.25392818 0.08175199 -0.1350664 -0.306639
000020 31 d2 7e bd 73 ae 02 3f 51 82 93 bd 18 b2 1e bf
       -0.062212173 0.5104744 -0.0720259 -0.619905
000030 1f 2c f0 3c 06 51 1c 3f 10 4b c6 bd 9d 03 8d 3d
       0.029317914 0.6106113 -0.09682286 0.06885455
000040 4b 6e 06 3f 98 1b 35 3c bd fc a2 bd 04 f0 e2 3e
       0.52512044 0.011053942 -0.07958362 0.44323742
000050 2c d2 90 3e c4 ee 51 be 6b 68 3f 3e 84 8a 2c 3c
       0.28285348 -0.20501238 0.18692176 0.010531072
000060 bf cf 40 bc d2 83 6e be 1d b2 3b 3e 5c 71 00 be
       -0.0117682805 -0.23292473 0.18329664 -0.12543243
000070 97 7a f0 bd 16 96 a4 3d a9 0a 70 bd 86 b2 7d 3e
       -0.11742132 0.08036439 -0.058603916 0.24775133
000080 86 f3 95 be 75 9b ae 3e 6e 81 74 be 6c a2 6f be
       -0.29287356 0.3410298 -0.23877499 -0.23401803
000090 e6 b4 86 be c8 55 26 be 2b 6e cb bd c8 da 26 be
       -0.2630989 -0.1624366 -0.09933122 -0.16294396
0000a0 9a c4 9c be ac 8e 6a bd bc 24 b1 be a9 a2 51 be
       -0.30618745 -0.05726497 -0.3459834 -0.20472206
0000b0 03 ea c8 3e 85 38 e8 3e 08 70 08 3e 55 b8 c7 bd
       0.39241037 0.4535562 0.13323987 -0.097519554
0000c0 43 75 f3 bd 37 09 4b 3f 5e d6 0e bf f0 e6 7e 3e
       -0.118876 0.79310936 -0.5579585 0.24892783
0000d0 2d c6 9e 3e b8 00 f7 be f5 ff 66 bf 1c d7 7c be
       0.3101057 -0.48242736 -0.9023431 -0.24691433
0000e0 8a 33 90 be 95 04 d4 bd 5d a8 51 3f 58 87 19 3e
       -0.2816432 -0.103524365 0.81897527 0.14993036
0000f0 e8 64 68 be 43 5b cf 3e 12 ec 16 3c 79 a3 9c 3e
       -0.22694743 0.40499315 0.009211557 0.3059347
000100 5e bf 07 3e 2a 13 27 3e 47 d1 f2 3d cc 58 25 be
       0.13256595 0.16315904 0.11856323 -0.16147155
000110 7b 96 b1 be 33 d8 a5 be 56 ac 7f 3d 80 9f 3a 3f
       -0.3468512 -0.3239151 0.06242021 0.7289963
000120 de e7 fe 3d 87 5e 15 bd 41 48 1d 3f da a3 28 3f
       0.12446569 -0.0364671 0.61438376 0.6587502
000130 84 60 23 3e 25 87 cc be 79 c1 8b be 58 a7 a2 3d
       0.15954787 -0.39946857 -0.27296045 0.079420745
000140 f3 aa 8c be db 91 df bd 8b dc 18 3e 7a 3b 84 bd
       -0.27474174 -0.109164916 0.1492788 -0.06456657
000150 35 35 0b bd dc 41 d3 3e 59 59 a0 be 40 d9 36 3e
       -0.03398629 0.41261184 -0.31318167 0.17856312
000160 bd ac b0 3e bf bf 9b be a8 ef db be 3d f3 a6 3e
       0.3450679 -0.30419728 -0.4295628 0.3260745
000170 f4 9f b0 3c 25 79 4d 3d 60 8d 5f 3e c4 5d 9c 3e
       0.021560647 0.05016436 0.21831274 0.30540287
000180 14 b8 09 39 b5 f2 1c be 54 3c 84 be a6 5a a6 be
       0.00013133913 -0.1532696 -0.25827277 -0.32491034
000190 15 2f 09 be 3e cf 1d 3e 36 6c 97 bd c9 89 f0 bd
       -0.13396867 0.15411088 -0.073936865 -0.117450304
0001a0 94 37 01 be 9f 82 24 be f7 a9 5d be 7f 31 5a be
       -0.12618858 -0.16065453 -0.21646868 -0.21307944
0001b0 5f e7 a5 be aa f0 a2 3e 67 fc 3d 3e 56 1c 95 3d
       -0.32403085 0.31824237 0.18553315 0.07280795
0001c0 d5 e4 8f 3e 0f 32 f7 bd 7b ca 12 3e 48 2f 63 be
       0.28104272 -0.12070095 0.14335053 -0.22186005
0001d0 6f 86 be bd 58 70 31 be ce db 64 bd c0 e6 3c 3e
       -0.09302985 -0.17328012 -0.055873685 0.18447399
0001e0 6b 89 b8 bc 18 34 b2 b9 0c a9 68 be 10 30 67 bd
       -0.022526463 -0.00033989619 -0.22720736 -0.05644232
0001f0 35 47 50 be fc 7a 9a bd e5 f1 85 be 5a 40 cb bc
       -0.20339663 -0.07542989 -0.26161113 -0.024810959
000200 79 72 5e be bf ce 00 3d e9 34 38 3e 39 a5 31 3e
       -0.21723355 0.03144717 0.17988934 0.17348184
000210 d5 13 1d 3e 69 0e f1 3d 75 88 af be 97 16 53 3c
       0.15339597 0.11770327 -0.34283796 0.012883804
000220 21 90 38 3d e3 81 18 be 67 50 8b 3d ad f0 94 3e
       0.045059327 -0.14893298 0.06802445 0.2908987
000230 d4 ef a9 be d2 f2 e9 bc 6d e2 93 38 c1 d4 25 3e
       -0.33190787 -0.028558169 7.051681e-05 0.1619444
000240 65 e3 b0 bd 3e 5c a1 bd a5 90 33 3d 0b 71 08 be
       -0.08637122 -0.07878922 0.043839116 -0.13324372
000250 fc aa 8d bc ed 8f 38 3d 18 b5 9e 3d b7 26 c7 bd
       -0.017293446 0.045059133 0.07749385 -0.09724181
000260 ce fe 29 3d 44 ea 91 3e a0 c7 d9 bd ad 76 46 bd
       0.041502766 0.28499043 -0.106337786 -0.04845302
000270 5f 20 c5 3d 91 db db bd 23 08 27 bd ad e9 ff bd
       0.09625315 -0.10735238 -0.040779244 -0.12495742
000280 7e 11 09 be 16 0a 57 be 31 7b d3 bc c1 8b d6 bb
       -0.13385579 -0.20999941 -0.025815578 -0.0065474217
000290 01 06 c5 be 52 97 05 bd 8d 19 9e be 82 fd e7 3c
       -0.38481143 -0.032615013 -0.3087887 0.028319124
0002a0 44 f6 eb 3c 86 ad 7a be 11 ea 0f be 8c d8 0c be
       0.028803952 -0.24480256 -0.14054133 -0.13754481
0002b0 dc ae 66 be ba b6 e6 be 53 ca 71 be 2c 09 be 3d
       -0.22527641 -0.45061284 -0.23612337 0.09279093
0002c0 a1 cd e1 bd d6 e8 a6 bc 86 94 c1 bc b3 cb ba be
       -0.11025549 -0.020374697 -0.023630392 -0.36483535
0002d0 2a cf c2 bc f8 46 c0 3d 87 2b a9 be b7 fb cd 3d
       -0.023780424 0.09388536 -0.3304102 0.100577764
0002e0 42 40 5d bc b8 ad 17 be dd 22 6c be 00 ec 5f 3e
       -0.01350409 -0.14812362 -0.23060174 0.2186737
0002f0 f1 82 29 bf 74 c3 7b be f7 eb ee bd 14 aa 6b 3c
       -0.66215426 -0.24586278 -0.116661005 0.0143838115
000300 49 3a 84 bd 87 aa 29 3e 44 f6 58 3e 9c 70 98 3e
       -0.064564295 0.16568957 0.21187693 0.29773414
000310 57 5b df be a3 08 e8 3e 5f f9 37 be 48 fa 7b bd
       -0.43624374 0.4531909 -0.17966221 -0.061517984
000320 bc 8c 86 3c 72 05 8c bc c5 9f 74 3b 7d c7 b9 3d
       0.01642453 -0.01709244 0.0037326675 0.090712525
000330 dc a2 f2 be d8 9b 20 ba a4 59 c8 3e ac a4 b6 3e
       -0.47389877 -0.0006126738 0.3913089 0.3567251
000340 2c 9e bd 3e f7 09 0b 3f d1 48 a7 be a6 5f 06 3e
       0.37034738 0.5431208 -0.32672742 0.13122424
000350 fc 01 4e bf 78 71 a5 be 50 ca fc be 7f e5 55 bf
       -0.8047178 -0.32313132 -0.49373102 -0.8355331
000360 7a 5f 73 3d ed 67 98 3c 2d ac a1 be 8e a9 a9 be
       0.059417225 0.018604243 -0.31576672 -0.33137172
000370 aa e9 74 3d b7 61 f1 be db f1 45 bd b4 2a 1c be
       0.059793152 -0.47144863 -0.048326354 -0.15250665
000380 39 b2 02 3f f7 40 c3 3e ca 7b cf 3b 49 56 1a 3e
       0.51053196 0.38135502 0.0063318955 0.15071978
000390 63 c7 2d bd 3a 54 8e bd ee c0 8d 3e 2c c7 ab bd
       -0.042426478 -0.06949659 0.27686256 -0.083875984
0003a0 8c bb bd bd aa 52 38 bd 19 6d 59 3e 41 53 ea be
       -0.09264287 -0.04500071 0.21233024 -0.45766643
0003b0 a6 6d 7a 3d 90 7a b4 bd 15 78 0a 3d 09 4f 92 bd
       0.061139725 -0.088124394 0.033805925 -0.07143981
0003c0 27 cc 94 3c d3 ae 1d be 3d ee 73 bc 98 86 90 38
       0.018163754 -0.15398721 -0.014888343 6.891525e-05
0003d0 f1 32 50 bc 72 c0 d0 3e ce f0 0d 3e 76 03 83 3d
       -0.012707458 0.40771824 0.13861391 0.063971445
0003e0 10 3e 88 3d d0 c2 6d 3e 20 32 8c bd 2b 07 b2 bd
       0.066524625 0.23218846 -0.06845498 -0.086927734
0003f0 c8 22 e8 be c5 27 c4 3d 7e c5 2a 3e ff a9 85 3c
       -0.45339036 0.09577898 0.166769 0.016316412

gcl_0.edge_mlp.3.bias f4 [32]
000000 92 e8 5b 3c a5 97 4d bd e9 b5 dc 3b 31 78 95 3d
       0.013422148 -0.050193448 0.0067355526 0.07298315
000010 6b 2c 3d bd aa 7f 0f 3e 6e 37 02 bd ef 42 6b 3d
       -0.04618494 0.14013544 -0.031791143 0.05743688
000020 af fe fe 3d d3 cb 18 3e 58 4d a2 bc f2 1d 94 3d
       0.12450921 0.14921503 -0.019812271 0.07232274
000030 80 9d 1f 3d ca 93 61 3d 43 ee 3b 3d 70 37 00 3e
       0.038968563 0.055072583 0.04588152 0.12521148
000040 6c 28 26 bd d0 b6 0b bd 54 5f eb 3c e0 16 23 3d
       -0.040565893 -0.03410989 0.02873198 0.039816737
000050 b6 ef b9 bd f2 82 e0 bd e6 a6 2b 3d f1 4c c6 3c
       -0.09078924 -0.10962476 0.041907214 0.02420661
000060 cd e4 2d 3d 89 f1 c9 3d ee de b8 bd 56 98 60 3e
       0.04245453 0.09860522 -0.090268955 0.21933112
000070 28 59 7f 3e c7 9f 4b 3e b3 d5 8e 3d d1 71 49 3d
       0.24936354 0.19885169 0.06974354 0.04918081

gcl_0.edge_mlp.5.weight f4 [32, 32]
000000 f0 e9 0e be a9 4c 8e 3d 8a 67 a2 bd 80 26 17 be
       -0.13956428 0.069482155 -0.07929905 -0.1476078
000010 e9 ce 9b bd 85 51 bb 3e bf c6 61 3c 31 07 3c 3e
       -0.07607824 0.36585632 0.013780295 0.18362118
000020 b9 d5 91 bc 1e 65 01 bf 83 b1 a4 bd fb af 0e be
       -0.017802106 -0.5054492 -0.0804167 -0.13934319
000030 6c 45 41 3e ec f9 51 bd 1f b8 d4 3d 5c 6b 1c 3e
       0.18874139 -0.051263735 0.10386681 0.1527533
000040 d1 79 e9 bd 4d 58 83 bd 10 25 9f bd a1 4f 31 be
       -0.11400188 -0.064133264 -0.07770741 -0.17315532
000050 c3 de 4d be 4f 27 e9 3c de fb 4d 3d f8 cd c3 bd
       -0.20104508 0.028461127 0.050289027 -0.0956077
000060 c6 fe 5b 3e b4 a2 bb be 7a 90 51 be d6 0c 95 3e
       0.21483907 -0.3664757 -0.2046527 0.29111356
000070 18 f2 08 b9 32 6c 1f bf e3 72 0f be 0b 90 73 bd
       -0.00013060158 -0.6227447 -0.1400867 -0.059463542
000080 44 26 96 bc d1 f1 c7 3e d6 e1 01 be 91 39 3f 3e
       -0.018328793 0.3905168 -0.12683806 0.18674304
000090 12 61 b6 bd c2 1d 90 3e 59 c8 a1 bd 23 d2 2c bc
       -0.089052334 0.28147703 -0.078995414 -0.010548147
0000a0 29 7e 29 3d 9d 1e e9 3d cb 41 08 be 34 87 3a be
       0.04138008 0.11382792 -0.13306348 -0.18215638
0000b0 84 96 de 3d e3 92 0e 3e 12 bb 97 3e 96 cb 17 3d
       0.10868552 0.1392322 0.2963491 0.03705939
0000c0 57 73 99 be 6b 44 4c be 96 ce b5 3d d0 e0 ef bc
       -0.2997081 -0.19947974 0.08877294 -0.029282004
0000d0 f3 52 9e bc 93 e2 db bd 24 8c 39 3e 7d 5b 5f be
       -0.019326663 -0.10736575 0.18119866 -0.21812244
0000e0 6e ca 21 3e ef ce 20 bd 1d 6d 81 be b7 04 18 3e
       0.15799877 -0.039259847 -0.2527856 0.14845549
0000f0 73 1b 3d bd 73 5c f9 bd 9d 83 c5 3d b2 72 05 be
       -0.046168756 -0.121758364 0.09644244 -0.13032034
000100 d7 65 56 3e ca be 18 be 5e 83 84 bd a2 c5 7c bd
       0.20937286 -0.1491653 -0.06470369 -0.061711915
000110 a7 9e 1b be aa 15 99 be a7 9d 72 bc f9 56 9a 3d
       -0.1519724 -0.2989934 -0.014808095 0.0753612
000120 6e 7d b6 3d 3f e4 8a be dd 8d 98 3e 5d db 5c be
       0.089106426 -0.27127263 0.29795733 -0.21568055
000130 e3 96 4e bd 6c 70 d8 3c 33 7e ab bd 72 8e 8f be
       -0.050436866 0.026420794 -0.0837368 -0.28038365
000140 1f 9b 20 3f 94 16 85 3c d2 17 35 be b4 5a c0 3b
       0.62736696 0.016246118 -0.17684868 0.0058701877
000150 b5 d9 3f be e0 28 95 3e 7b ea 46 bd 4d 78 22 3f
       -0.18735392 0.29132748 -0.04856346 0.63464814
000160 79 ac 08 3e 5b a6 07 be 01 0e 97 3d 4e 6e 96 3e
       0.13347043 -0.13247053 0.07375718 0.2938103
000170 d5 e4 0a be 4b 63 7b 3e b2 47 26 be 91 91 2a be
       -0.13563855 0.24549596 -0.16238287 -0.16657092
000180 ca 58 5a 3d bc 21 2f bf d3 2a a9 bd 67 a7 aa 3d
       0.053307332 -0.6841085 -0.08260121 0.08332711
000190 bf eb 99 be 46 4c e0 3d c9 33 0c bf 8f 83 9a 3e
       -0.30062672 0.10952048 -0.5476652 0.30178496
0001a0 28 07 09 3f cb 5e 91 3e da 71 91 be c1 a5 98 3e
       0.53526545 0.28392634 -0.28407174 0.2981396
0001b0 95 a8 2e be 71 9f b1 be 1b d8 9c be b8 62 b9 3e
       -0.17056496 -0.34691957 -0.30633625 0.3620813
0001c0 eb dc 13 3e aa 24 c1 bd 9e 4b 4c be 02 d3 c6 bc
       0.14439742 -0.09430821 -0.1995072 -0.024270538
0001d0 9f 74 20 bf 90 cc d8 be 1f 98 4b be c3 71 fa 3e
       -0.6267795 -0.4234357 -0.19882248 0.48914918
0001e0 dc 0e 71 3e 87 1f 83 be 37 10 df bd 96 35 93 3e
       0.23540825 -0.2560999 -0.108917646 0.2875182
0001f0 09 b3 17 3e a6 41 df 3e 6c 57 68 3d 50 14 9a be
       0.1481439 0.43604773 0.056723997 -0.30093622
000200 9c a9 91 3d b9 52 51 bd b2 05 c7 bc ca b4 9f 3c
       0.071124285 -0.05110428 -0.024294708 0.019495387
000210 7f 8d 83 3e 65 3f 16 3e 58 34 07 3e ad bb 25 bd
       0.2569389 0.1467262 0.13203561 -0.040462185
000220 85 e5 2a 3e 5d 3f 77 3e 2c 19 7f 3b 86 d6 17 be
       0.16689117 0.24145265 0.0038924916 -0.14827928
000230 84 a9 e4 bd d2 cd f7 3c 4c 91 2f bc 2f 48 1a be
       -0.11165145 0.03024951 -0.010715794 -0.15066598
000240 c7 01 ca 3b b5 9e 6d 3e 06 73 a0 be d0 47 14 be
       0.0061647627 0.23205073 -0.31337756 -0.1448052
000250 31 c1 2f be 2f 1b 47 3e 45 11 e4 3c 71 fe ef 3c
       -0.1716354 0.19443963 0.027840266 0.029296132
000260 3b 61 39 be 0f a6 80 bd 07 31 36 3d c5 b0 de 3d
       -0.18103497 -0.06281673 0.04448035 0.1087356
000270 48 cc b6 bd fb 4f 76 be 75 d2 5a bd 7e 37 1a 3d
       -0.08925682 -0.24053948 -0.053423364 0.037650578
000280 8a 50 88 3e 0b 08 79 3e 75 79 5e be f4 56 f2 bb
       0.26623946 0.24319474 -0.2172602 -0.0073956195
000290 d8 c0 69 3d 06 d6 db bd 7f c5 63 3d 48 4b da bd
       0.057068676 -0.10734181 0.05560827 -0.1065889
0002a0 65 ea 58 3e 5d 49 35 be 5d fa 2d bd 1b fc 74 3e
       0.21183164 -0.17703767 -0.042475093 0.23924296
0002b0 c5 db d6 bd bc 4f d5 be 70 2d 02 be c8 58 57 be
       -0.104911365 -0.41662395 -0.12712646 -0.21029961
0002c0 e4 ba 83 bd e5 18 e6 3e 15 4b 6d be d3 9c 4f be
       -0.06432131 0.44940868 -0.23173173 -0.20274667
0002d0 d7 c7 1b bc 30 46 be 3d d0 6e bb bd b8 17 9c bc
       -0.009508095 0.09290731 -0.09151995 -0.019054279
0002e0 fd 0d fe bd 9c 40 82 3e 6e 27 da bc d3 cf 21 3d
       -0.12405012 0.25439918 -0.02663013 0.039504837
0002f0 2a 5b 4b 3e 29 f0 11 be fe 07 9d 3c 54 2b 59 bc
       0.19858995 -0.1425177 0.01916885 -0.013254959
000300 4d 9e a0 bd 9c b0 8e be 3d 31 58 3d d1 65 bf 3d
       -0.078426935 -0.27869117 0.052781332 0.09345592
000310 f8 31 bb 3d f0 c5 0a be f5 13 93 be 13 39 99 3c
       0.0914039 -0.1355207 -0.28726164 0.018703973
000320 59 6e 4c 3e 22 40 5f 3e a2 4b 0b 3e 9d e8 9f 3e
       0.1996397 0.21801808 0.1360307 0.31232157
000330 c0 76 09 be 52 19 24 be f6 44 80 be 5c 3a 11 3e
       -0.13424206 -0.16025284 -0.25052613 0.14182419
000340 a5 14 f0 3c 04 28 04 3e e2 34 9b be ee d8 85 bd
       0.02930672 0.1290589 -0.30313784 -0.06535517
000350 9e d9 c2 be b4 37 9f bd ff 3e 19 be 06 dc 88 3d
       -0.38056654 -0.077742964 -0.14965437 0.06682591
000360 29 18 19 be 59 b9 5a be de 60 1b bd f9 74 42 be
       -0.14950623 -0.21359767 -0.037934177 -0.18989934
000370 31 e1 30 be 7e 8b 9d 3e 2f c4 7e bd f9 9a 35 be
       -0.17273404 0.30770487 -0.062198814 -0.17734899
000380 6f 15 8f be 46 ec 28 3c bf f2 84 bd ce d4 01 be
       -0.2794604 0.010310238 -0.06491613 -0.12678835
000390 67 df 42 3c b3 b0 a1 3d 61 c8 27 3d d2 39 c8 3d
       0.011894084 0.07895031 0.04096258 0.09776653
0003a0 6f 73 16 bd d1 6f 4e be c1 89 2e bc 00 40 cc 3c
       -0.03673118 -0.20159842 -0.01065296 0.024932861
0003b0 66 4c 19 3d 48 7b a6 3e 89 d9 f5 bd 9d 1f 93 3e
       0.037426375 0.3251593 -0.12004382 0.28735057
0003c0 fc f9 3e bd 36 f2 9a be 8a 46 6b 3d 9d f2 0b 3e
       -0.046625122 -0.30262917 0.05744032 0.13666768
0003d0 1f a4 5a 3d 42 60 49 be 57 bb 53 3d cc 71 23 bd
       0.053379174 -0.19665626 0.051692333 -0.039903447
0003e0 ca ad 97 3e be 5a e6 bd 49 fc 0c 3c ef 26 82 bd
       0.29624778 -0.112477764 0.008605071 -0.06355082
0003f0 54 03 5b bd 80 53 52 3b 94 11 3d 3e be 30 a7 3d
       -0.05346997 0.0032093227 0.18463737 0.08163594

gcl_0.edge_mlp.5.bias f4 [32]
000000 de ae 79 3b 27 8f 51 3c 05 e0 0f bd e0 1b a1 bd
       0.0038098614 0.012790478 -0.03512575 -0.07866645
000010 e2 bc c8 bc 87 b0 b7 bd d8 98 de bd 0b 16 e6 3d
       -0.024504129 -0.08969217 -0.108689964 0.11234673
000020 8e 80 71 3d 9a b2 42 bd fd c7 e2 3c fc b8 0d be
       0.05896049 -0.04753361 0.027683252 -0.13840097
000030 85 31 50 bd bd 4c ae bd 71 9e aa bc 74 79 3f 3d
       -0.050828476 -0.085107304 -0.020827504 0.046746686
000040 7c dc 56 3d 8b 45 b2 3b b1 a0 e5 3d ff eb 8b bb
       0.052456364 0.005440419 0.1121229 -0.0042700763
000050 4f dd 28 3d 88 d8 6b bd 67 4f 06 be 09 da d6 bd
       0.04122668 -0.057579547 -0.13116227 -0.10490806
000060 34 b7 86 3d 7e a9 bb 3d 34 5e 37 3e ab bb 18 3d
       0.06577912 0.091631874 0.1790703 0.03728835
000070 2d b5 d9 3d 02 fc 8f bd 08 c1 d1 3d ca 06 90 3d
       0.1063026 -0.070304886 0.10241896 0.07032545

gcl_0.node_mlp.0.weight f4 [32, 66]
000000 64 6c 1d bd 17 1e 3b be 30 aa 03 be 28 40 35 be
       -0.038433447 -0.18273197 -0.1285789 -0.17700255
000010 d8 d5 06 be 2b f9 6d bc 78 d1 fb bc 1d 26 cf 3d
       -0.13167512 -0.014524738 -0.03073953 0.101146914
000020 88 14 9f 3e 0f 7e 39 3e 6a 9b 01 3d 4a 46 46 be
       0.31070352 0.18114494 0.031642355 -0.1936275
000030 72 53 1a 3e a7 1e 29 3d 4e 6e 94 3c 3e 58 05 be
       0.15070894 0.041288998 0.018119004 -0.13021943
000040 06 89 8b b9 1d 45 8f 3a 5f 8f b8 3b bc d1 d0 bc
       -0.00026614236 0.0010930632 0.0056323255 -0.025490634
000050 5b 6b 89 bd 07 38 86 bd d1 88 11 3e 6e 1b f5 3d
       -0.067099296 -0.06553655 0.14212348 0.119681224
000060 1c 89 27 be 3e 98 84 be a9 6a fe 3d ce 39 3e 3d
       -0.16360897 -0.25897402 0.124226876 0.046441846
000070 3e e1 f1 3d e2 15 12 3d 92 7f 52 bd 90 61 3a 3e
       0.1181054 0.0356654 -0.05139119 0.1820128
000080 54 aa 3f 3e 1e 35 1a be 9d 71 08 bd d7 05 2e 3e
       0.18717319 -0.15059325 -0.033311475 0.16994415
000090 72 52 11 3e c5 3e 5f be 2c bd 24 3d 04 57 1f 3e
       0.14191607 -0.21801288 0.04021947 0.15560538
0000a0 27 70 04 3e b8 f0 8a be 4b eb 0a 3d 7e ed bc bd
       0.12933408 -0.2713678 0.0339158 -0.092249855
0000b0 88 a3 75 bd c2 2a a3 bd fa d9 46 3d 06 97 5b 3d
       -0.05997041 -0.0796714 0.048547722 0.053610824
0000c0 de 01 5d bd 93 f9 a1 3e e2 ac 5c 3e 7b 26 c6 3c
       -0.05395686 0.31635723 0.21550325 0.02418827
0000d0 f0 4e 87 3e 6f c2 cc 3c a6 8e a5 bd 88 ae 31 bd
       0.26427412 0.024995057 -0.08083849 -0.043379337
0000e0 2d 6a fd bd 5f fa 32 3d fd 22 79 3e 99 88 00 bc
       -0.12373767 0.043695804 0.24329753 -0.007845067
0000f0 65 ce 09 3e c7 58 a5 3d f5 f2 58 3e 7d 27 9e bd
       0.1345764 0.080735736 0.21186431 -0.077223755
000100 ba 33 43 3e f0 ae 05 3e 52 40 e0 3c 14 55 0b 3c
       0.19062701 0.13055015 0.02737442 0.008504171
000110 69 70 1a 3d c0 1c 2d bd 76 6b 77 bb 44 28 c2 3d
       0.03770486 -0.042263746 -0.003775326 0.09480336
000120 dd 19 18 3e bd f9 52 3d 8f f4 17 3e 12 b0 ae be
       0.14853616 0.0515077 0.14839385 -0.34118706
000130 8e 6e 81 3e 91 40 32 3e ce 12 8f 3d 37 de 93 3d
       0.2527966 0.17407443 0.069860086 0.072201185
000140 c7 07 8c 3e 1d 49 3c 3d 41 b7 1b be 2e 67 13 3e
       0.27349684 0.045968164 -0.15206625 0.14394829
000150 dc c7 44 bc 08 af 79 3d 64 23 43 3e 42 71 35 bd
       -0.012010541 0.06095794 0.19056469 -0.044297464
000160 e7 d0 bd 3c 42 2e a4 bc 31 06 ed bd c4 0e eb 3d
       0.023170901 -0.020041589 -0.115734465 0.11477426
000170 61 64 26 3d 53 08 6b 3e bf 1b 09 bf 23 5c 00 be
       0.040623073 0.22952394 -0.5355796 -0.12535147
000180 e2 92 3c 3d 07 9b ca be 32 1b a1 3e 7a 52 8b 3d
       0.046038516 -0.395714 0.3146606 0.068028405
000190 c4 97 38 3c 91 31 31 3c 6f 25 8d 3b 50 68 64 be
       0.0112666525 0.01081504 0.004307441 -0.22305417
0001a0 4d 85 8a bd 8f 43 26 3e a2 c9 18 3c 89 ab 5c bc
       -0.06763706 0.16236709 0.009325417 -0.013468632
0001b0 58 93 d3 be 76 f3 ce 3c f6 3b f3 bc ae 43 fd bd
       -0.41323352 0.025262576 -0.029691678 -0.123664245
0001c0 ae c8 5c 3e 07 21 0d be 79 85 63 be 17 66 44 3e
       0.21560928 -0.1378213 -0.22218885 0.19179569
0001d0 78 59 0a be ef 30 75 3e bc bf 96 3e b0 ae 4d 3e
       -0.13510692 0.23944448 0.29443157 0.20086169
0001e0 1a 42 f0 3c 51 65 03 3d 75 5a ef 3d 0b 7f fd 3b
       0.029328395 0.032079045 0.11687175 0.007736092
0001f0 a6 07 8c 3d fa 40 1f be bc 98 28 be 5f 2e 79 bd
       0.06837396 -0.1555213 -0.16464514 -0.06083524
000200 96 0b 75 3d 4c ed 2f bd 33 4f 9d be ab 4b 0c be
       0.059825502 -0.042950913 -0.30724487 -0.1370074
000210 08 9b f3 3e 21 6e 57 be 15 69 86 3e d2 be 38 3e
       0.47579217 -0.21038105 0.26252046 0.18041542
000220 47 b0 c3 3e 59 a2 4a be e2 7c cc 3e fe ec 97 3e
       0.38220426 -0.19788493 0.39939028 0.29672998
000230 97 ea 22 bf eb 13 75 3e 72 9c b1 be 2a d4 a2 bd
       -0.63639206 0.2393338 -0.3468967 -0.07950623
000240 a5 97 db bd 4a c6 98 3e c6 61 75 be 5e 36 81 bc
       -0.10722283 0.29838783 -0.23963079 -0.015772995
000250 ff 88 b2 3e c8 29 8c be fd ac 9b 3e 5a c9 19 3e
       0.34870145 -0.27375627 0.30405417 0.15018216
000260 90 68 2f 3e 02 12 3b 3e 31 0c 6b be 36 0c bb be
       0.17129731 0.18268588 -0.2295387 -0.36532754
000270 66 04 fc 3d 46 b7 d3 bd 2d 52 4c 3d 2c 98 34 be
       0.123055264 -0.10337691 0.049883056 -0.17636174
000280 cc 7c 42 be e3 e9 38 be f7 19 0a bd 85 fc e8 3e
       -0.18992919 -0.1805797 -0.03371617 0.45505157
000290 9b 4d c1 bd dd d7 7e be ec 26 89 bd 37 70 23 be
       -0.0943863 -0.24887033 -0.06696877 -0.15960775
0002a0 b8 af 27 bd 85 81 ff 3d e4 47 c0 3d 45 7f 8d 3d
       -0.040939063 0.12475876 0.09388712 0.0690904
0002b0 c2 31 d5 3c 81 e5 3d 3e 7b 16 ac be 2c 91 c9 3d
       0.026024703 0.1854458 -0.336109 0.098421425
0002c0 9f c0 d4 bc e7 a6 17 be 75 3b be 3c 35 30 1b 3e
       -0.025970755 -0.14809762 0.02322171 0.15155108
0002d0 29 4e ee 3d 0a f0 85 3d 9b 75 4d bd 8b c9 93 3c
       0.116360016 0.065399244 -0.050160985 0.01804044
0002e0 1a b0 70 be b6 18 39 3e 8a 75 8e 3d f0 9c 3a 3e
       -0.23504677 0.18075833 0.069560125 0.1822393
0002f0 ba 0c cf bc 6e ea 86 3d dc 6b e4 3d 40 26 86 3b
       -0.025274623 0.06587683 0.11153385 0.004093915
000300 96 dc cb 3d e7 44 cb 3e d8 bb 2d 3e 9e 6d 10 bd
       0.09954183 0.39701006 0.16966188 -0.03526079
000310 30 0d 61 3e 99 70 94 3c 38 ba b7 3d 8b a1 19 bd
       0.21977687 0.018120097 0.08971065 -0.037507575
000320 bc 08 29 be db a3 51 bd 71 06 b4 bd de 09 15 bc
       -0.16507238 -0.051181655 -0.08790291 -0.009096591
000330 87 b5 db 3c 57 d8 50 bd 1b e4 dd 3d 89 7a b9 bb
       0.026819957 -0.050987568 0.10834523 -0.0056603593
000340 02 fe 87 bd e0 19 45 3e d4 31 54 3e d3 2b 66 3e
       -0.06640245 0.19248152 0.20722133 0.22477655
000350 57 b5 5f 3c 3f 87 0e bd 41 03 02 3d 37 ec af 3c
       0.013654075 -0.03479695 0.031741384 0.02147494
000360 33 c4 05 3e 60 87 19 be f7 c0 b7 3d b5 5d 07 3e
       0.13063125 -0.14993048 0.08972352 0.1321934
000370 ed 77 c7 bd ad af 3a bc 2f 90 b1 3d 27 0b 35 be
       -0.09739671 -0.011394423 0.08670079 -0.17680036
000380 63 f0 77 3d 9d de 26 3d 7a 9b 41 be 16 0e 96 bc
       0.060531985 0.040739644 -0.18906966 -0.018317264
000390 9c c3 12 3e 04 b1 22 bd b2 11 ea bc bc d3 50 be
       0.14332432 -0.039719597 -0.02857289 -0.2039327
0003a0 c5 2e cc bd 31 f0 b9 bc 57 93 78 3d 7f 65 fa 3d
       -0.09969858 -0.02269754 0.06068739 0.1222639
0003b0 7f e3 ed bc 82 63 b4 bd 85 6a b7 3e 33 81 bf 3d
       -0.029039143 -0.08808042 0.35823455 0.09350815
0003c0 0e 2d 88 3e fc d2 dd bd e3 c7 96 bd b3 00 28 3d
       0.26596874 -0.10831258 -0.07362344 0.04101629
0003d0 28 2f 05 be 96 04 a4 3c 31 f7 b3 3c d3 9d 66 3c
       -0.1300627 0.020021718 0.021968456 0.014075714
0003e0 3b fd 15 bd ca 66 34 bd 86 44 21 3e a6 ca 45 bd
       -0.036618453 -0.04404334 0.15748796 -0.048288964
0003f0 6a a3 17 be 81 40 bf 3d 29 80 16 be 63 ae 84 3d
       -0.14808431 0.09338475 -0.14697327 0.06478574

gcl_0.node_mlp.0.bias f4 [32]
000000 fd 41 47 3e e3 4a 14 3d 04 79 07 be 2a d7 da bd
       0.19458766 0.03620423 -0.13229758 -0.106855705
000010 76 b1 09 be 4a 8d 70 bd 38 4b eb bd 8b 96 94 3d
       -0.13446602 -0.058728494 -0.11488956 0.07255276
000020 6d 9d 4b 3d c8 40 48 3c cd f5 1f 3d 4d 3d 1a be
       0.04971068 0.012222476 0.039052773 -0.15062447
000030 da 60 96 bd 71 94 73 3e 7b e7 15 3d 00 eb 70 be
       -0.07342692 0.23787095 0.03659771 -0.23527145
000040 56 0c a8 3b 13 7d 93 bd fe 63 43 be 21 49 9d 3d
       0.0051284237 -0.072015904 -0.19081113 0.07679964
000050 c2 a2 30 be 79 d3 3c 3d 01 71 68 3d 79 d1 b9 bd
       -0.17249587 0.046100114 0.056748394 -0.09073157
000060 40 b9 fa bd e4 f5 e5 3d af b7 10 3e 6c c8 92 3d
       -0.12242365 0.112285405 0.1413257 0.07167134
000070 c0 25 ea bd 15 ea 0b 3e f7 10 94 3d 00 22 4d be
       -0.114329815 0.13663514 0.07229798 -0.20032501

gcl_0.node_mlp.3.weight f4 [32, 32]
000000 f1 fc 0e bd 3d ed 90 be 83 d9 1c 3d cb 52 2b be
       -0.034909192 -0.28305998 0.038293373 -0.16730802
000010 2e 3d 04 3e ae f9 fe ba b0 af 0a be 02 5d 21 3d
       0.12913963 -0.0019453072 -0.13543582 0.03939534
000020 8a 7f bb be bd 4f 74 3e cd 4c 9c bd 1d 00 45 be
       -0.36620742 0.23858543 -0.07631836 -0.19238324
000030 ce d3 c8 3c a9 5d bb bd 4a c8 08 3d 60 54 bb bc
       0.024515059 -0.09148724 0.033394136 -0.022867382
000040 1a ee 31 3e 37 b4 ae bd fc 31 d8 3e a2 0f 24 3c
       0.17375985 -0.08530467 0.42225635 0.010013493
000050 89 a6 aa 3d 7a 70 82 bb 9f ef 01 be ec 6b cb bd
       0.08332545 -0.0039806934 -0.12689064 -0.09932694
000060 c9 0b 24 3d d0 8f f1 bd 5f 48 f3 bd e6 b0 65 be
       0.0400503 -0.11795008 -0.11879038 -0.22430763
000070 50 b3 05 be 21 50 aa 3d d4 b8 b2 be 81 a1 a7 3d
       -0.13056684 0.083160646 -0.34906638 0.08185101
000080 2b dd 42 bf a9 12 21 3e 67 15 66 3e 66 e2 bc bd
       -0.76118726 0.15729775 0.22469102 -0.092228696
000090 33 25 b6 bd bb 59 69 be 55 9d 97 3e cd 48 80 be
       -0.08893814 -0.22788136 0.29612222 -0.25055543
0000a0 58 1c 55 bd 97 ee f7 3d 01 cf 16 3e 14 95 1e be
       -0.052028984 0.12106054 0.14727403 -0.15486556
0000b0 e6 a6 c5 be 57 44 d1 3a 84 96 da 3c 40 34 0a 3d
       -0.38603896 0.0015965801 0.0266831 0.033741236
0000c0 b7 4d 86 3d 2b c7 35 3c 02 ee 8e bd 9b 86 1b be
       0.06557792 0.011094849 -0.0697899 -0.15188067
0000d0 ed d6 e6 3d 9f 17 c1 3d 7a ef 77 3d 4c 39 93 3d
       0.112714626 0.094283335 0.060531117 0.07188663
0000e0 2e b2 1e 3e cf 62 00 bc 5c 28 2e 3e 93 3f 3a 3d
       0.15497658 -0.007836058 0.17007583 0.045470785
0000f0 49 e0 1b 3d 10 9f 70 be ee 08 cd bd 5d 5f b6 bd
       0.038055692 -0.23498178 -0.10011469 -0.08904908
000100 9f dd 36 be cb cf 04 be 25 75 5e be 9c 26 a1 bc
       -0.17857979 -0.12969892 -0.21724375 -0.01967173
000110 5a a1 2f be a1 fb be bb b5 68 52 bc c6 cf a2 be
       -0.17151394 -0.0058283363 -0.012842347 -0.31799144
000120 1a c3 e3 be 8b d3 b6 be df ee ab 3d 38 f8 8c 3d
       -0.44484788 -0.3570827 0.083951704 0.068832815
000130 61 e5 2a 3e c8 3f 80 3c 29 4a 9b bd 86 bf 00 be
       0.16689064 0.015655413 -0.07582504 -0.1257306
000140 08 92 2b be 4f ba 60 3d f2 fc b9 be 76 83 6e bd
       -0.16754925 0.054865178 -0.36325794 -0.05823084
000150 61 0e 14 be 93 e3 de be 81 23 1d bd 7f 7c 7c be
       -0.1445861 -0.43533 -0.038363937 -0.24656866
000160 92 87 1a 3b 18 2f ab bc cf 66 d8 3c a7 a6 a7 bc
       0.0023579341 -0.02089648 0.02641621 -0.020465208
000170 a0 c6 25 be 73 6c 8d bd ee 4a a4 bd b3 d2 c6 bd
       -0.1618905 -0.06905451 -0.08022104 -0.097081564
000180 4c 62 e9 bc 7d 1c 70 bd fc e8 27 be e8 31 78 3d
       -0.028489254 -0.05862092 -0.1639747 0.06059447
000190 80 4f 14 be e7 ee af bd fb d9 b4 3e 41 3e 11 be
       -0.14483452 -0.08590489 0.35322556 -0.14183904
0001a0 a1 b3 11 be 0d 00 50 3d d8 9c 51 3c 0a 1e 8f 3d
       -0.14228679 0.0507813 0.012793742 0.06988151
0001b0 9b 38 9c 3d 85 3f 49 bd ea 73 9e bd 8d 77 19 3e
       0.07627984 -0.049132843 -0.077369526 0.14987011
0001c0 6b d3 9e bd 93 50 32 be 04 7e a4 3e dd c2 5d 3d
       -0.077551685 -0.17413549 0.32127392 0.054140914
0001d0 c5 40 22 be 97 14 41 3b 62 3b a4 3d d3 00 4e be
       -0.1584502 0.0029461735 0.08019139 -0.20117502
0001e0 c1 67 68 be 33 7c 98 be 50 8b ba bd 76 e6 f3 be
       -0.22695829 -0.29782256 -0.09108603 -0.47636765
0001f0 65 3b 4b be 4d e7 d0 bd e3 83 24 be 9b 83 44 be
       -0.19846876 -0.10200367 -0.16065936 -0.19190829
000200 08 28 e5 bc 69 ca 08 3e 1b 08 ab be 31 d6 e4 bb
       -0.02797319 0.13358463 -0.3340462 -0.0069835414
000210 c6 be 0f bd cd 36 6f 3c a5 c6 45 3c a5 1a fa be
       -0.035094045 0.014600468 0.012071286 -0.48848453
000220 01 50 f6 bc 3f 80 9b be d9 a3 18 3e b2 0f 34 be
       -0.030067446 -0.30371282 0.14906253 -0.17584112
000230 b9 51 b8 3c 14 db 1c 3e ab 08 cc 3d cb 57 2a be
       0.022499906 0.15317947 0.09962591 -0.16635053
000240 05 7b 10 be b8 e6 80 3d 9c eb a7 be 9c 9b 49 be
       -0.14109428 0.06294006 -0.32796943 -0.19688267
000250 95 0e d0 be b3 52 05 be 14 56 0b 3e c7 c8 21 bf
       -0.40636125 -0.13019828 0.13607055 -0.63196987
000260 c3 51 f2 3d c0 2f 3a bd 37 7b 7d 3c d5 ae e1 3d
       0.11832001 -0.045455694 0.015471271 0.11019675
000270 d1 d3 03 be 3e 81 93 bd 20 69 5c be 73 c8 df 3c
       -0.1287377 -0.07202385 -0.21524477 0.027317261
000280 7a 7b 3c 3d 37 e1 82 be f0 6f 06 3e 76 72 e8 be
       0.046016194 -0.2556245 0.13128638 -0.45399827
000290 c3 a5 62 3d 98 66 38 3e c2 42 3c bd ee e7 fd 3d
       0.055333864 0.18007886 -0.045962103 0.12397753
0002a0 b9 20 e4 be 53 23 9d 3e 1c bb ce bd eb dc af bd
       -0.44556215 0.30691013 -0.10094282 -0.08587059
0002b0 a3 9b 8a 3e 95 b7 8b be b9 b0 bf ba a1 95 e4 bd
       0.27071866 -0.272885 -0.0014624811 -0.11161352
0002c0 78 d3 ea bd fa c1 b4 be 6a 94 9d 3e 04 d7 eb be
       -0.11466116 -0.35304242 0.30777293 -0.4606248
0002d0 8f e4 ab bd 03 52 13 bf 54 eb 3d be c0 8e 94 3c
       -0.083932035 -0.57547015 -0.18546802 0.018134475
0002e0 5b 43 f8 3d 86 89 e1 be 42 a3 75 be 76 f3 85 be
       0.12122222 -0.44050235 -0.23988059 -0.26162308
0002f0 df 3b f1 bd 3f 61 f2 3b 1c 55 8d be 25 62 c8 bc
       -0.11778998 0.0073968465 -0.27603996 -0.024460861
000300 af 54 82 3e a4 3d 2d be 2d 91 b1 3e a4 60 3a bd
       0.25455233 -0.16918045 0.34681073 -0.04550232
000310 c2 ad a3 bd 06 05 a2 be d8 5b 50 3d fd 37 9f 3e
       -0.07992126 -0.31644458 0.05086884 0.31097403
000320 08 16 20 3e df 95 16 3e 96 a9 b5 bd d4 c8 93 bc
       0.15633404 0.14705609 -0.088702366 -0.018040098
000330 c7 d2 25 bd 75 03 14 bd 7b 73 cd bd be cb 77 be
       -0.040484216 -0.03613611 -0.10031792 -0.24198815
000340 21 fd 5b 3b e7 7e ad 3d f1 f7 9f 3e 4a 93 a2 bd
       0.0033567625 0.0847147 0.31243852 -0.079382494
000350 37 61 1a 3e e0 70 63 3e d6 75 84 bd 03 03 73 ba
       0.15076147 0.22211027 -0.06467788 -0.0009270163
000360 f8 8f 9d be df 14 95 3b a7 f9 92 3d cf ee 26 be
       -0.30773902 0.004549607 0.07176524 -0.16302036
000370 99 87 37 be 02 dc ef bd e6 bf 9a 3e 94 58 0b 3e
       -0.1792282 -0.11711885 0.30224532 0.13608009
000380 87 45 43 bd d3 34 a2 be 76 c6 79 be 5d 25 4c be
       -0.04767373 -0.31680927 -0.24392113 -0.19936128
000390 9d aa 63 3e cb 08 e1 bd a1 da 7d 3e bf 8e 18 3d
       0.22233053 -0.10988005 0.24790432 0.03724551
0003a0 e9 95 7c 3d c4 50 5b be da 6d 01 3d 1f ae 5c be
       0.061666403 -0.21417528 0.031598903 -0.21550797
0003b0 7f 5e 35 3e 09 18 44 bd 87 c3 92 be b7 76 da 3d
       0.17711829 -0.047874484 -0.286648 0.10667174
0003c0 80 4e 6c be fd 07 85 be f5 c5 cc 3e af 33 39 bc
       -0.2307682 -0.25982657 0.3999478 -0.011303826
0003d0 d2 a3 a1 be d5 7c d2 3e 1f 54 2c bd 9a f6 80 3e
       -0.31570297 0.41110864 -0.04207241 0.25188142
0003e0 2d 9f b7 bc 5b 25 55 3d 69 e5 93 be f7 85 33 3d
       -0.022414768 0.052037578 -0.28885964 0.04382893
0003f0 bd 98 e1 3d ef 31 2c be 41 28 3d 3e 39 ca bf 3b
       0.11015461 -0.16815923 0.18472387 0.0058529642

gcl_0.node_mlp.3.bias f4 [32]
000000 db 50 4c bf 93 14 3d 3d 3b e0 0c bd 68 42 14 3d
       -0.79810876 0.0461622 -0.03439353 0.036196142
000010 5e 2d 3a be 5e de 82 bf 76 a1 0b be 1f 83 8a be
       -0.18181369 -1.0224111 -0.13635811 -0.27053162
000020 89 63 d9 be 65 19 ac bc 03 ba fe bd a0 06 86 be
       -0.42458752 -0.021008203 -0.12437823 -0.2617693
000030 b2 1d be bd d2 db 38 3e f2 cd 50 be bb db 2b bf
       -0.09283008 0.18052605 -0.20391062 -0.6713216
000040 5f ef 61 bc d7 43 d7 be 12 25 60 bf f4 1d 3f be
       -0.013789981 -0.42043945 -0.87556565 -0.1866377
000050 b3 63 4e 3e ba e0 13 bc f0 5b 24 bf 51 1d 85 bf
       0.2015522 -0.009025747 -0.64202785 -1.0399572
000060 49 79 96 bf 85 be 5b be e8 c8 51 3d 66 b0 54 bf
       -1.1755763 -0.21459396 0.05121699 -0.8308166
000070 1c a7 77 bf 4f 8d 70 3e 88 3d f1 bd 7a 16 32 3d
       -0.96739364 0.23491405 -0.11779314 0.043478467
