models/overfit.pt (torch, 580984 bytes, 68 tensors)

in_emb.0.weight f4 [64, 2]
00000000: a61b 14bf 25bf e93d ebfe e43d 5d44 fe3e
00000010: 4de4 253e acf4 06bf ec84 993e d6d0 c7be
00000020: 37be 9cbe 66dc ae3e 6335 093e 632a f63e
00000030: 01eb de3e eac4 2b3f db7d 3c3d f2f3 8cbd
00000040: bec4 2a3f bb70 18bf c984 10bf 79d7 82be
00000050: 80fb 37bf 11a2 263e 6fd2 fabd 1b3d a53d
00000060: 4afa 043d c8b1 523e 58bb 24bf b097 80be
00000070: 2342 6f3e 4531 9c3e 9d3f 8d3e 2d4a 9a3e
00000080: a491 cdbd 320c 07bf 05e9 613e 4459 013e
00000090: 6f10 2a3e 6200 253f 2e9b 01bf d8ad eebe
000000a0: 4956 fd3e cb08 d33e 6883 83be 3487 e4be
000000b0: 7e93 473e 0ed9 9bbe 7efc 2fbf 3774 28bf
000000c0: a9ee cbbd dc7c 563e 5b64 d83e 1a4d fdbe
000000d0: e601 14bf 0bae e1be 7041 2abe 29ee 843e
000000e0: 94bc 19bf c1aa 49be b128 3cbf 3dd5 39bf
000000f0: 6763 c43e cad8 203f 6734 cabe 34b7 61be
00000100: 736b d7be 2f7a c03e 9b96 dcbe b863 933e
00000110: f958 0a3f 7f85 243e df25 df3e cbfa 353e
00000120: 6276 083f 0518 5b3e f40d 0f3f b660 203e
00000130: 9fd3 c6bb 0eff 243f feb6 96be 8ee4 46be
00000140: b9da 613e b67a 04bf 433e 00be 9770 703e
00000150: 55ef 3e3e d406 2bbf 6f57 363e f96b 34be
00000160: 59e4 903d c0e9 36bf 8184 71be faed 5ebd
00000170: 275e fcbd 41d1 e43e 8125 86bd b640 1dbe
00000180: a446 0dbe 796b 3ebf f186 5cbe 87e1 99be
00000190: 7202 683e 39d2 2dbf b981 d53e 5936 353f
000001a0: 4fe7 16be fcd7 a53e 20ee c5bd bd6c 76bc
000001b0: ddab bfbd 0902 dd3e 13d8 6dbe 5dee 2d3e
000001c0: a0b7 39bd 463d cdbe 7c68 e63c 5def bcbd
000001d0: abc7 a5be d770 293e 7120 83be 6402 293f
000001e0: dc3b 653e 6584 1d3f c96e 563e f388 8bbe
000001f0: f019 153f 69a6 b3be d766 03be 9274 033f
-0.5785469 0.11413411 0.11181434 0.49661532 0.16200371 -0.5271709 0.29984224 -0.39026517
-0.30613872 0.34152526 0.13399272 0.48079214 0.4353867 0.6709734 0.046018463 -0.068824664
0.66706455 -0.59547013 -0.56452614 -0.25555018 -0.71868134 0.16272761 -0.12247168 0.080682956
0.032465257 0.2057563 -0.64348364 -0.25115728 0.23365073 0.3050634 0.27587596 0.30134717
-0.10037544 -0.52752984 0.22061546 0.12631708 0.16607831 0.6445371 -0.5062741 -0.46617007
0.49479893 0.41217646 -0.25686193 -0.44634402 0.19489858 -0.30439037 -0.6874465 -0.6580233
-0.0995763 0.20946068 0.42264065 -0.49472886 -0.57815397 -0.44078097 -0.16626525 0.25962952
-0.6005337 -0.19694044 -0.7349959 -0.72591 0.38357088 0.62830794 -0.39493105 -0.22042543
-0.42074165 0.3759322 -0.43083653 0.28787017 0.5404201 0.1606655 0.4358358 0.17771451
0.5330564 0.21395881 0.55880666 0.15661892 -0.0060677077 0.6445168 -0.29436487 -0.19423124
0.22056092 -0.5174974 -0.12523751 0.2348045 0.18645985 -0.66807294 0.17806791 -0.17619313
0.07074804 -0.71450424 -0.23585702 -0.05442617 -0.12322646 0.44690898 -0.06550122 -0.15356717
-0.13796479 -0.7438274 -0.21535851 -0.30054876 0.22657183 -0.678989 0.41700533 0.7078605
-0.14736675 0.32391346 -0.09664559 -0.015040574 -0.09358952 0.43165615 -0.23226957 0.1698546
-0.045341134 -0.4008581 0.028125994 -0.092253424 -0.32378897 0.16546951 -0.25610688 0.6601927
0.22386116 0.61530143 0.20940699 -0.2725292 0.582427 -0.35087898 -0.12832199 0.5134975

in_emb.0.bias f4 [64]
00000000: 2199 b53e fb61 8dbe 3324 bb3d a084 87be
00000010: e9a4 263f 0fb8 3abe 65c6 833e 23be 1c3e
00000020: ef93 213f 3886 6abe edc9 ecbd 6d8e 9bbe
00000030: a963 153f cbdc 303f e3a8 bbbe 7ea1 683e
00000040: f480 543e 0ab2 1a3c 6a18 35bf 522c 2e3f
00000050: 0d9d 783e 7689 b33e cd49 d8be e783 33bf
00000060: 0204 d43e b04a 033f 0e63 b53e ecd5 b7bd
00000070: 3d4d c83e 7dba 1cbf deb0 913e 72bb 25bf
00000080: da1f fabe 08b1 16bf 4245 b5be 885b fdbe
00000090: 01e8 0abd 359e 0abd 494f 913e 5a6e f1be
000000a0: ca5d 6dbe d871 28bf 4a89 373f f5be 7b3e
000000b0: 99eb 9cbd 5ea5 6c3e 6781 42be 713a fdbd
000000c0: eacc 44bf a497 023f 9838 b03e 6a54 1c3f
000000d0: 2132 6bbe 1b03 233f 364e 0bbf 66d6 833e
000000e0: 9b10 153f 2816 23be 65d8 00bf d65e debe
000000f0: 3608 8abe 4fe8 46be 8b96 e7be 5c38 cc3e
0.3546839 -0.27613816 0.09137764 -0.26468372 0.6509538 -0.18234275 0.257373 0.15306906
0.63116354 -0.22902763 -0.11561952 -0.303821 0.58355194 0.69086903 -0.36652288 0.22717854
0.20752317 0.009441862 -0.7074038 0.6803638 0.2427866 0.35065812 -0.42243806 -0.7012314
0.41409308 0.5128584 0.35427135 -0.08976349 0.39121428 -0.6122206 0.2845525 -0.64739144
-0.48852426 -0.5886388 -0.35404402 -0.49483895 -0.033912662 -0.033842284 0.28380802 -0.47154504
-0.23180309 -0.6579871 0.7169386 0.24584563 -0.07662124 0.23109958 -0.18994676 -0.123646624
-0.76875174 0.51012635 0.34418178 0.61066306 -0.22968341 0.63676614 -0.54416215 0.2574951
0.5822846 -0.1592642 -0.5033019 -0.4343173 -0.2695939 -0.19424556 -0.45232043 0.3988675

in_emb.2.weight f4 [64, 64]
00000000: 0a59 933d a098 9c3a 2b3a 5b3d f03f ac3d
00000010: 18b3 1a3d 8f09 403d bbf2 903d 09fd 4fbd
00000020: cb6d 22bd 0a27 b2bd 781f 033e ae76 e6bd
00000030: d989 5bbd 5e34 28bd 9c9c 4c3d 5f3e 8b3d
00000040: 0c6d 2fbd 9db5 bb3d e8e6 d4bd 2c96 e03d
00000050: 31aa f2bd b545 e83d 0c27 3cbc 81ea 8dbd
00000060: 1f66 263d bafa 81bb 6b97 33bd c2c3 b6bd
00000070: 7435 2f3e 6ca9 49bd d7ac b63d da7b e9bd
00000080: 64d1 613d 04f2 f33b ae4c 09bd f9d4 3cbb
00000090: c7f7 71bd b76a cebd 6a92 db3d ebf1 dabc
000000a0: 8ad6 49bc afee 87bb c30f 7f3c ad9a 64bd
000000b0: eda8 853d 500d 6e3d c624 ffbd 9f6d afbd
000000c0: 8d6a ecbd 8711 adbd 41d8 f43d e96c cd3d
000000d0: 910b 44bd a2be 5dbd 83e1 a93c 3f93 00be
000000e0: fe56 c53c a3de 203d a9c5 a83d b90e fbbc
000000f0: 19f7 ef3d b9a6 ea3d 5226 db3d ca0b a9bd
00000100: e73b a93d cecd 80bd 3d0d c5bc 545e a4bd
00000110: 2e21 763d faad 9cbd 9258 d73d 5577 143c
00000120: fa20 09be 5c0d f83c 8ed2 973c d7f1 89bd
00000130: 2f32 0dbe bf0b 99bc 1597 1dbd e746 9a3d
00000140: 36b1 25bd c5d1 b73d 0270 ae3d 6188 50bd
00000150: 416c 08be aada 95bd 17c4 76bd 641b 93bd
00000160: 67a7 663d 8cb7 d93d 74c2 8fbd 58cb dcbd
00000170: b716 50bd dd0c 0e3e 3240 ebbd 8ace d43d
00000180: e673 b63d e241 093d 6fa8 d73d a250 c93d
00000190: 7af2 ad3d 5b93 a23c e6e2 94bd a7db 8c3d
000001a0: 61f0 43bd d5e8 8ebc 14b4 1c3d bce1 963d
000001b0: 087a df3d c1e8 6abd 23f7 eabd bfa4 9a3d
000001c0: 02f2 903d a1bb b8ba fc55 86bd e843 a1bd
000001d0: 1e0d 89bb 85d5 2bbb 36e3 a2bd 5d39 03be
000001e0: d816 cdbd fcb2 89bd 97cc 043e ba67 a9bd
000001f0: b81b cfbd a394 033c c899 94bd 9757 e43d
00000200: fdf1 5d3d 01ef ca3c 40c6 dd3d b659 0bbc
00000210: 25ee 513d b7c8 243d 3868 1ebd 8264 7dbd
00000220: b0b2 ee3a 6e90 373c 4236 ac3d 9804 a13d
00000230: 1d89 33bd f3d4 d4bd 5999 143e b625 23bd
00000240: f264 1abc 3247 cebd c5db 45bd 1be5 59bd
00000250: cf15 cbbd 1b16 6f3d 7f80 e13a 1d17 b03c
00000260: a489 3e3d 8b89 963d 41d6 89bd df67 c33d
00000270: 57ca 98bd ec08 aabd 8abd 18bb 47a6 32bd
00000280: 8884 3abd 987f a4bd 78b4 c53c 7c68 afbd
00000290: 36ac a0bd 9be1 9d3d b383 febd 88c2 043e
000002a0: a3de 3e3d e28d 0c3e a1ee 953d 404f 10be
000002b0: 0fae 863d 046e c6bd 79bc a0bd 1393 97bd
000002c0: 9ebc bcbd 9e70 a53c 8898 48bc 19c8 0439
000002d0: a68e d73c 393d c3bd e622 d53d c3c3 c0bd
000002e0: 292a e2bd f65b ad3d 30a5 133d 5a4a aabd
000002f0: f429 f4bd 2252 653d 36fa 83bd 40d8 263d
00000300: f862 c33d 2da2 9fbd 8458 07bd 8140 a2bd
00000310: 30b4 a93d 0a89 8c3d 3685 1bbd 12ff b83b
00000320: c01a a43d 6cbd 803d d369 9fbd 3d70 063d
00000330: 358e 853c b857 8dbc 215d d53c 914c ebbc
00000340: f117 f23c fba6 50bd 3012 03be 3ad3 5abd
00000350: 8a51 303d c262 ea3b a533 053c 580e 8abd
00000360: 119f bf3d 0eab 6d3d 3efe d53d 08a8 a13b
00000370: e5bb a138 f5da 17bd 1267 863c c6e6 c63d
00000380: 3c81 a1bd 87bf a5bc 8bc9 9f3d fa74 19be
00000390: 21f3 643d 3988 c93d 5190 9d3d 4850 bbbd
000003a0: 56ae b53d c346 ffbd 6f5a 063e 304c 843a
000003b0: 32b0 aabd 1147 acbc 2041 473d dd7e f93b
000003c0: 72d9 42bd 213d b6bd e084 d83d ea8a 83bc
000003d0: a62a 913b d100 95bd 7238 0fbe 78c7 eb3d
000003e0: e520 abbd eeff 47bd 61a9 14bc 3629 f3bd
000003f0: 1976 9aba 3a89 4b3d 3bba 3a3d ad67 cd3d
0.07194717 0.0011947341 0.05352227 0.084106326 0.037768453 0.046884116 0.07077547 -0.050778423
-0.039655488 -0.08698852 0.12804973 -0.11253105 -0.05359826 -0.041065566 0.04995404 0.06799006
-0.042828605 0.09165499 -0.10395604 0.10966143 -0.11848868 0.113414206 -0.011483919 -0.06929494
0.040624734 -0.0039666565 -0.043845575 -0.089240566 0.17110234 -0.04923384 0.08919685 -0.11400576
0.05513133 0.007444622 -0.033520393 -0.0028813465 -0.05907419 -0.10078948 0.10721286 -0.026726684
-0.0123192165 -0.0041483263 0.015567723 -0.055811573 0.06526361 0.058118165 -0.12458186 -0.085658304
-0.115437604 -0.08450609 0.1195531 0.100305386 -0.047862593 -0.05413688 0.020737415 -0.1255617
0.024089333 0.039274823 0.08240826 -0.030646669 0.11717052 0.11457581 0.107006684 -0.08254202
0.082633786 -0.06289254 -0.024054164 -0.08025804 0.060090236 -0.07650371 0.1051494 0.009061654
-0.13391486 0.030279808 0.018533017 -0.067355804 -0.13788675 -0.018682359 -0.03847416 0.07533055
-0.040452205 0.08975557 0.085174575 -0.05091131 -0.13322546 -0.073170975 -0.0602456 -0.07182959
0.05631199 0.10630712 -0.07019511 -0.10780972 -0.050802913 0.13872094 -0.11486854 0.10390957
0.089088246 0.033510096 0.10530173 0.098298326 0.08493514 0.019845655 -0.0726984 0.06877833
-0.047836665 -0.017445007 0.038257673 0.07367274 0.109119475 -0.057350878 -0.11472919 0.07550954
0.07077409 -0.0014094004 -0.06559369 -0.0787428 -0.004182472 -0.0026219797 -0.07953493 -0.12814851
-0.10014123 -0.06723592 0.1296867 -0.082717374 -0.10112709 0.008031043 -0.07255894 0.11149519
0.054185856 0.024772169 0.10828829 -0.0085052755 0.051252503 0.04023048 -0.03867361 -0.06186343
0.0018211212 0.011203868 0.08408786 0.07862204 -0.043831933 -0.10392179 0.14511622 -0.039830886
-0.009423481 -0.10072173 -0.04830529 -0.053197008 -0.09916269 0.05837069 0.0017204433 0.021495396
0.046517983 0.07350453 -0.06730319 0.09541296 -0.07460468 -0.08302483 -0.0023306333 -0.043615606
-0.045536548 -0.08032149 0.024133906 -0.08564851 -0.07845347 0.077090465 -0.124274634 0.12964833
0.04659904 0.13725999 0.073209055 -0.14092731 0.06576168 -0.096889526 -0.07848448 -0.07401099
-0.092156634 0.020195302 -0.0122433975 0.00012663043 0.026313137 -0.09533162 0.10407047 -0.094123386
-0.11043198 0.08464806 0.036046207 -0.08314963 -0.119220644 0.05598653 -0.06444208 0.040733576
0.09540361 -0.077946045 -0.0330434 -0.079224594 0.08286321 0.068620756 -0.037968837 0.005645641
0.08012915 0.06286129 -0.07783856 0.032821883 0.016303161 -0.017253742 0.026045384 -0.028723033
0.029552432 -0.050940495 -0.12799907 -0.053424098 0.04304651 0.007152886 0.008129989 -0.06741017
0.093565114 0.05802446 0.104488835 0.004933361 7.712076e-05 -0.037074048 0.01640657 0.09711985
-0.078859776 -0.020232929 0.07802113 -0.1498603 0.05589593 0.098404355 0.07693542 -0.09146172
0.088711426 -0.124646686 0.13120435 0.0010093506 -0.08334388 -0.02102998 0.048646092 0.0076140002
-0.047570653 -0.08898378 0.10572219 -0.01605745 0.004430133 -0.07275546 -0.13986376 0.11512655
-0.083558835 -0.048828058 -0.009073586 -0.11873095 -0.0011784463 0.049691416 0.04558776 0.1002954

in_emb.2.bias f4 [64]
00000000: b1b0 f3bc 16ad a8bd 30fd fabd 7944 67bb
00000010: 7334 adbd fb0c a33d 6c3d 03be 1277 87bd
00000020: 9baa 20bd 3657 e83d 5361 4d3c 345c 2e3d
00000030: c4ac e63c 8459 953d 30b7 b9bd eff2 15bd
00000040: f641 fabd 35c2 f1bd 40e9 aebd 17d4 223c
00000050: d509 d53d eabf a8bd b2ca e3bd 39c1 9bbd
00000060: bbcb 0dbc 208a 963d 5303 dbbc e8c7 eebd
00000070: 4d6b 093e fbd7 953d 2c34 893d b755 b7bd
00000080: 717f af3d 98c0 d23d a116 6e3d 202d 86bc
00000090: a203 be3c 54aa 7cbd 9186 af3c 9637 553c
000000a0: 9a68 6bbd f94e 913d f997 efbd fcca e73c
000000b0: c205 a53b a21a 0a3e 59ca ae3d 9169 bc3d
000000c0: 9b19 85bd d826 bb3c c943 873d ed90 bcbd
000000d0: 8884 e93c c005 d7bd 37f5 a4bd 74d9 5c3d
000000e0: e017 f4bc c135 523c a551 8b3d 8bdd 313d
000000f0: fcb1 afbd 9794 0a3d 5f1e 743c 8d99 c63b
-0.029747339 -0.082361385 -0.12255323 -0.0035288616 -0.084572695 0.0796146 -0.128164 -0.06614508
-0.039225202 0.11344759 0.012535411 0.0425684 0.028158553 0.072924644 -0.09068143 -0.036608633
-0.12219612 -0.1180462 -0.08540583 0.0099382615 0.10402266 -0.0823973 -0.111226454 -0.07605214
-0.00865453 0.07350564 -0.026734984 -0.11659223 0.13419838 0.07316586 0.06699404 -0.08951896
0.085692294 0.102906406 0.05812705 -0.01637894 0.023195092 -0.061685875 0.021426471 0.013013741
-0.057472803 0.07095141 -0.11698908 0.028295033 0.005036087 0.13486722 0.085346885 0.09199823
-0.064990245 0.02284567 0.06604726 -0.0920733 0.028505579 -0.104991436 -0.080545835 0.053918317
-0.02979654 0.012830199 0.06802682 0.04342417 -0.0857887 0.033833113 0.014899819 0.006060785

gcl_0.edge_mlp.0.weight f4 [64, 135]
00000000: 4329 c4bc 1fd8 91bd e2f7 a53d 98a4 6c3d
00000010: 5247 82bc 5ac0 87bd b2d4 a83b 12d8 973d
00000020: 55bc 563d 762c b5bc 92c2 3d3d db1b cebc
00000030: b274 e53c 0edb e33c ac79 a73d 82fc e6bc
00000040: 5aba aa3d 39e9 a5bd d8a7 1c3d 254b b43d
00000050: 7f28 863d b111 833d 997e 8abd 7e77 8f3d
00000060: 5465 64bd ec86 74bd 3fdf 75bd 90fd f0bc
00000070: 41cb 21bb e34a e83c 90ea 753d 3fe0 9c3d
00000080: 513f 09bd 81f2 933b d4c8 abbc 9e21 01bd
00000090: dfb4 61bd f285 cabb 963b 443c 740c 743d
000000a0: c298 a8bc 2e48 a9bb f8eb 98bd ebf9 41bb
000000b0: 2ace b0bd f810 6e3d 60e6 9d3d 0a6d b13c
000000c0: 83a5 8dbd 1d9f 8e3d 8783 bb3c a568 0bbc
000000d0: 2cfa 743d baea 143d 7473 483c 70e1 42bd
000000e0: 08b2 013c c59a 32bd 46f7 323b 6a6b 513c
000000f0: 7aa2 abbb 19ac 93bc 799b ff3c 81eb c6bc
00000100: 142c 1abd 2610 763d af5a a03d 1f88 b7bc
00000110: 3c47 f2bc 1aa3 4fbc 1a18 b33c c326 68bd
00000120: d9b2 053d 3d7f 9c3d 1ec1 80bd 7976 57bd
00000130: fd9b 5bbd 197a 86bd a15e 203d b496 1bbc
00000140: 47ad 9bbd 782d 9dbd 6121 8a3c 48c0 61bd
00000150: 9525 083d f53a 06bd 0a65 14bc e218 923d
00000160: ba4f 60bd ad82 da3c fa69 a7bd 8698 4abd
00000170: dee6 693d 19ae 38bd 51ef 793a 6a96 043d
00000180: c74a 8c3d b53d 833d b14a 173d 31e1 883c
00000190: 281b 843d f69a 20bd 6d54 69bd 63b5 5a3c
000001a0: b7c9 853c 34f8 803d 9717 553d 305e 7bbd
000001b0: 3392 8f3d 4e5d bb3c 8020 16bd 3f98 ad3d
000001c0: dd0e 90bd 528a 6fbd c77e 73bd 8949 68bd
000001d0: b1cb 4abd b997 bebd 07ac 12bd ee3c 6e3d
000001e0: 483e 9c3d ab5f 4cbb c762 213c e668 a93d
000001f0: 2ea0 313d b900 21bd 1a10 b5bd d463 833c
00000200: 7f3d c33c fef0 113d 31ea 163d b109 023d
00000210: e8ad 16bd 0e11 04be 65fe f6bd 35c5 773c
00000220: 9ba4 11bd 9567 bb3c 9620 aa3d 8e49 44bd
00000230: a92f 99bd 5e17 e6bc b0e7 433d 3352 41bd
00000240: dfd9 9b3c e8a9 813b b6dd a2bc 5692 99bd
00000250: 9afc a0bd d141 6cbd 8fb6 aa3d 5036 b63c
00000260: d73b 98bc 59e2 8bbd cdaa 0e3d 32db 733d
00000270: 2857 c73c 4022 2e3d 3a87 683d c274 7dbd
00000280: db5c 63bd 2a44 e43c d164 783d be03 c0bc
00000290: b91c 32bd 4e5a 813d 6771 683a d32d a63d
000002a0: ba41 3ebd bd34 ab3d 0e2f b53d 6516 9c3d
000002b0: 245e 873d 8258 9b3d bc71 b93d b27f bdbb
000002c0: 661f 21bd d7c6 553d 454a 5e3c 9ccd 9b3b
000002d0: f5d4 303d f1ac 83bd 74c4 983d 222d 733d
000002e0: 5c1e 85bd d434 193c 7321 16bd c8c9 323c
000002f0: e6fd a5bd 60f8 833d 4b6c abbc d4e6 9e3d
00000300: ac3a 99bd eef5 b83d 8fa5 81bd 837f adba
00000310: 4831 8d3c b21e 633d 8632 46bd c1c7 8d3c
00000320: b5c1 843d e32d 2a3c e4f9 8d3d baa8 83bd
00000330: 8064 05bc 7be6 cfbb 3a0c 093c 7293 c03b
00000340: dc68 09bc 74b8 d6bb c6ce dcbb cf18 85bd
00000350: 0001 f1bc ca91 4dbd c7f0 0b3d c959 99bd
00000360: aac5 1bbd 6ecc 65bd b7c9 1dbd 1599 913d
00000370: dd98 783d 242c a1bc d9ad a9bc ece3 a0bd
00000380: 138e 02bd 5745 80bd 4767 5fbd 6bc8 8b3d
00000390: 1242 6d3d 1ba7 37bd f16b 9b3d ebe0 2a3d
000003a0: de31 90bc c009 aa3d f6ab 8abd d4eb 79bd
000003b0: 6b8c d73c 358b 7abd e934 233d b82e 53bd
000003c0: 6bd2 9f3c 8572 70b8 c2fc 443c 6e98 723c
000003d0: cc8a a03d 29f1 80bc fe38 123d 10c1 983d
000003e0: d1d3 f93c 48c3 21bd 001f 953d cfe9 a93d
000003f0: 059c 043c 54a7 ee3a 67fc 85bc 5c14 a5bc
-0.023945456 -0.071213 0.081039205 0.057774156 -0.015903149 -0.06628485 0.0051523084 0.07414259
0.0524257 -0.022115927 0.046328135 -0.025159767 0.028009746 0.027814414 0.08177504 -0.028196577
0.08336325 -0.08101124 0.038246006 0.08803395 0.06550693 0.06399859 -0.06762428 0.07005213
-0.055760697 -0.059698984 -0.060027357 -0.029417783 -0.00246878 0.028356021 0.06003815 0.07659959
-0.03350765 0.0045149927 -0.020969786 -0.0315262 -0.055104133 -0.0061805183 0.011977097 0.05958219
-0.020580653 -0.005166075 -0.074668825 -0.0029598426 -0.08633073 0.05812165 0.07709956 0.02165844
-0.069163345 0.06963942 0.022889866 -0.008508836 0.059808895 0.036356665 0.012234557 -0.047578275
0.007915981 -0.04360463 0.002730803 0.012781957 -0.0052378746 -0.018026398 0.031202065 -0.024282219
-0.037639692 0.060073994 0.078297965 -0.022403775 -0.029574983 -0.012673164 0.021862078 -0.05667759
0.032641266 0.07641456 -0.06286834 -0.05260322 -0.05361556 -0.06566257 0.039152745 -0.00949638
-0.076014094 -0.07674688 0.01686162 -0.055115014 0.033238966 -0.03277107 -0.009057293 0.07133652
-0.054763533 0.02667364 -0.0817451 -0.049461864 0.057104938 -0.045087907 0.0009534257 0.03237001
0.068502 0.06408254 0.036936466 0.016708942 0.06450492 -0.039210282 -0.05696528 0.01334891
0.016331537 0.06297341 0.05202445 -0.06136912 0.07010307 0.02287164 -0.03665209 0.08476304
-0.07034085 -0.058481522 -0.059447076 -0.056710754 -0.04951066 -0.093062826 -0.03580859 0.058163576
0.07629067 -0.0031184952 0.0098502105 0.08271961 0.04336565 -0.03930733 -0.08840962 0.016038813
0.023833035 0.03563022 0.036844436 0.031747524 -0.036786944 -0.12897131 -0.12060241 0.015122701
-0.03555737 0.02287654 0.083069965 -0.04792171 -0.074797936 -0.028087314 0.047828376 -0.047197532
0.019024787 0.003957022 -0.01988111 -0.074986145 -0.0786068 -0.057679955 0.083356015 0.022242695
-0.018583221 -0.06830282 0.034830857 0.059535213 0.024333552 0.042513132 0.056769587 -0.061878927
-0.055508476 0.027864534 0.06064302 -0.023439284 -0.043484423 0.063160524 0.0008866996 0.08114209
-0.0464494 0.083596684 0.088468656 0.07621459 0.06609753 0.07585241 0.09054896 -0.0057830447
-0.039336585 0.05219158 0.013567512 0.004754735 0.04317184 -0.0642947 0.074593455 0.059369214
-0.06499931 0.009350974 -0.036652993 0.010912366 -0.08105068 0.06443858 -0.020925662 0.07758871
-0.07481894 0.09031282 -0.06330406 -0.0013236854 0.017235413 0.055449195 -0.048388027 0.017307164
0.06482259 0.010386917 0.069324285 -0.064286664 -0.008141637 -0.006344614 0.008364731 0.005876952
-0.008386817 -0.0065527502 -0.0067385165 -0.064988725 -0.029419422 -0.050187863 0.03416517 -0.07487828
-0.038030304 -0.056103162 -0.03852245 0.07109276 0.060692657 -0.019674368 -0.02071278 -0.07855973
-0.031873774 -0.062632255 -0.054541852 0.06825336 0.057924338 -0.0448371 0.075889476 0.041718405
-0.017601904 0.08302641 -0.0677108 -0.06101592 0.026312074 -0.061167914 0.03984538 -0.051558226
0.019509515 -5.7327114e-05 0.012023153 0.01480685 0.078389734 -0.015739994 0.035698883 0.07458699
0.03049651 -0.039492875 0.072813034 0.082965486 0.008093839 0.0018207827 -0.016355706 -0.02015131

gcl_0.edge_mlp.0.bias f4 [64]
00000000: f413 d63c c591 12bd d516 c63c ef61 943d
00000010: fa29 c93c ddd3 b3bc 5a4b 2fbd ff7a e5bc
00000020: 36b9 873b 312a b73d 91d3 553d f165 4c3d
00000030: c0a8 583b 7907 9abd 028d 77bd 5222 84bd
00000040: dbee 3e3d 913d 0b3d 3130 46bd c824 b93c
00000050: 1775 c3bd c7aa 9cbd 39b3 6abd 3030 f4bc
00000060: 9191 c73b 5b37 bd3d 9367 603d ee5f 333d
00000070: 0df1 93bc ae5a ae3c 13d9 19bd 30a2 1f3d
00000080: d867 75bd 8f2f 833d fe39 f2bc 7537 a63d
00000090: 530d 75bd 1e11 653d 0822 9c3c 8db9 a03d
000000a0: cf90 27bd 9a1c 1c3d 5a57 34bc 8ba3 fdbb
000000b0: 0f70 5839 a965 e0bc a1e4 87bd 6f24 07bc
000000c0: 3232 25bc 4977 46bd 6300 4e3d 2c66 5e3d
000000d0: 63dc b13d 9303 f4bc 1171 25bd a40f a8bd
000000e0: 57c3 7abd 191f 943d b259 bf3b 6884 0dbc
000000f0: 5dd0 ed3b b2b0 623d e818 4dbd 7d7c 82bd
0.026132561 -0.035783548 0.024180809 0.07245242 0.024556149 -0.02195161 -0.04279647 -0.02801275
0.004141952 0.08943594 0.05220372 0.049901906 0.0033059567 -0.075209565 -0.06043721 -0.064518586
0.04661451 0.03399426 -0.048385803 0.022600546 -0.095438175 -0.07649761 -0.057299826 -0.029808134
0.006090351 0.09239074 0.054786276 0.043792658 -0.018059278 0.021283474 -0.037560534 0.038973033
-0.059913486 0.064055555 -0.029568668 0.08116046 -0.05982716 0.055924527 0.019059196 0.07847891
-0.040909585 0.038113214 -0.011007154 -0.007740443 0.0002064111 -0.027392225 -0.066354044 -0.008248433
-0.010082768 -0.048453603 0.050293338 0.054296657 0.086846136 -0.02978686 -0.04039103 -0.08206108
-0.061221447 0.07232494 0.00583955 -0.008637525 0.007257505 0.05534429 -0.05007258 -0.063714005

gcl_0.edge_mlp.3.weight f4 [64, 64]
00000000: 7503 843d d147 5dbc 0a5a 8f3d e16e 77bd
00000010: 20ed 89bd e8c5 6ebd be2d b3bd b8d6 78bd
00000020: 1da8 893c 2a11 ac3d 1b88 cbbd 08e0 00bb
00000030: c63c 21bd 9a9d b7bd b0de 0fbd 6636 28bd
00000040: 5365 7b3d a89b d7bd 46cf 3fbd e5a2 8b3d
00000050: d644 74bd d052 d73d fcc0 d13d 1fd0 bbbc
00000060: 2490 893d 37d0 f43d edf5 ffbc 3607 cf3d
00000070: 1a79 95bc 42d1 b13d b7f3 613d e21e a73d
00000080: 0988 e23d 2917 0f3d d369 8ebd af3b a5bd
00000090: 932e d4bd 9633 7cbd 9b23 9abd 4344 6fbc
000000a0: b880 84bd beac ec3c 32c7 f43d bc0c cabc
000000b0: bc28 393b efd2 d93d b027 b83d b5c0 c63d
000000c0: 2802 f5bd 28d3 05bd ddd9 143d f96f cb3d
000000d0: 16cf 323c f7d0 953d 02e1 4f3d 70ae 8a3d
000000e0: 45d6 c4bd d36e e6bd d0dd 753c 42c8 d93d
000000f0: 0b96 6bbd 11c5 d03d 91a4 50bd 52e7 8ebc
00000100: 64de be3d 802d 05be 6f5e ebbc 8e39 8dbd
00000110: c4cf 483c a611 8c3c 706a e0bd bc49 e23d
00000120: 0fa5 dbba 7042 e0bd 555a 2abd 2f81 d43c
00000130: f78c cebd 8dc5 f5bc e5f5 a03d 33a3 0ebd
00000140: 9354 f53d 2332 033c 87b5 9f3c 2496 033d
00000150: 13c8 2bbd c4b9 0cbd ef9f ee3d 3bb2 8bbd
00000160: 51fc 14bd ea98 b6bc ecc5 a83d 55f7 053d
00000170: dc67 a63c f512 04bd 6045 8bbd a40a d53d
00000180: 1b98 04bd 6572 693d 1e81 123c 7556 353d
00000190: b937 4b3d 2c6e 653d 2796 82bd 6cf5 ec3a
000001a0: 219c 95ba 95b8 483b 4585 a239 9987 5f3d
000001b0: 2ca9 7b3d defa 2b3d 50b0 a1bd 4104 b73d
000001c0: 26cb 1fbd 6d1f bdbd 1d37 cb3c 4c8d b03a
000001d0: 0b3a 28bd 8b5b 723d 7a70 b0bc edec a03d
000001e0: 89fd a3bd dce5 94bd f6a1 45bd f1a7 d5bd
000001f0: 2260 1d3d aaff 0cbd 83f1 b53d a400 c63d
00000200: 540d dabd 19e8 9bbd afac 8f3d 5c25 843d
00000210: 49cd b03d 7306 c5bd 3975 c43c 2580 e93d
00000220: 52ed 17bd dff6 c5bd 8f32 013e 1e27 ec3d
00000230: cedb 8dbc d614 23bd b2ec df3d 5b01 583d
00000240: 8cd4 b0bd 050e 4a3d 78bb e7bd e082 22bc
00000250: e958 e93d c9dd ce3c 9ce6 b23d 3ad8 e43d
00000260: 2dc5 c0bd 4e0c 82bd 1bfa 283c 0f67 b33d
00000270: 3873 b83c 7c84 eebd 11c3 cc3c 0b64 ea3d
00000280: 1ae4 fdbd 4021 01be b7ee 3cbd 934e 1b3c
00000290: 8e37 003e f82c e0bc 8c22 3b3c 37bd 47bd
000002a0: 8c99 d0bd 2cd9 883d c16a 623d 040d d53d
000002b0: eabf 073d 4484 c43d fc77 bd3d 55f5 9dbd
000002c0: c2f4 983d 82a2 c4bc 413e 793d 5ca2 1c3d
000002d0: 0119 573d 538b c53d c594 dc3c 70c6 003e
000002e0: 773c b0bd 1251 21bd 431f 92bc cff4 22bd
000002f0: d4cb 2fbb ba91 84bd 0574 cbbc 4b3c cf3d
00000300: b063 8dbd 56bd c53d 457b abbd 8342 d3bd
00000310: be5c e63d 4379 513d 8503 a23b 709b df3d
00000320: 22bc bcbc 70a2 8dbd 3246 1c3d a005 813d
00000330: 9982 1b3b 53cd 6bbc f26a 513d c3b5 8e3d
00000340: af03 02be 7aef 80bc 375b c73c c2da d3bd
00000350: 1dbc aebc ad00 c23d 1b0e fabd 104e 8e3d
00000360: 7c08 a5bd 2bb4 c5bd f655 583d 9137 e6bd
00000370: b111 9d3d 95de cc3d 6067 cc3d c0af b4bd
00000380: 5653 13bd 3492 d3bd 944d c13d 69f5 00be
00000390: 13f0 423d f359 c8bd 6676 79bd 8694 93bd
000003a0: a1ee abbc 9c9b 09bb c9cf 003e bec3 76bd
000003b0: 0f22 d13d 295c 59bd deef 8a3d 25e2 fa3d
000003c0: 37ca 623d af24 c83d ef2b e2bd 87f4 a33b
000003d0: 72ce e73d 6f88 6bbc 6cac bbbc b54b ee3d
000003e0: e9a3 dc3d c40d cdbd ee0a 00bd f117 a13d
000003f0: f715 cf3d 07c1 f33d ba94 463d 6a61 133d
0.06445972 -0.013505892 0.069995955 -0.060408477 -0.06734681 -0.058294207 -0.08748959 -0.060751647
0.016803795 0.08401711 -0.099380694 -0.0019664783 -0.0393646 -0.08965607 -0.03512448 -0.041067503
0.061375927 -0.10527736 -0.04682853 0.06818179 -0.05963596 0.10513842 0.10241887 -0.022926388
0.06716946 0.11953776 -0.031245196 0.10108797 -0.018246222 0.08682491 0.055164065 0.08160187
0.11061103 0.034934197 -0.06953778 -0.08068024 -0.10360446 -0.061572634 -0.075263225 -0.014603677
-0.06469864 0.028890964 0.11952056 -0.024664275 0.002825304 0.106359355 0.08991945 0.09704725
-0.11963302 -0.032672077 0.036340583 0.099334665 0.010913631 0.073152475 0.050751694 0.067715526
-0.09611181 -0.11251607 0.0150064975 0.10633899 -0.05751614 0.101938374 -0.050938193 -0.017444286
0.093197614 -0.13005638 -0.028731553 -0.06895743 0.012256566 0.01709826 -0.10957801 0.1104922
-0.0016757565 -0.10950172 -0.041590054 0.025940506 -0.10085481 -0.030001426 0.07859401 -0.034823608
0.11979022 0.008007559 0.019495739 0.032125607 -0.041938853 -0.034356847 0.11651599 -0.06821104
-0.03637344 -0.022289712 0.082408756 0.032706577 0.020313196 -0.03224464 -0.068003416 0.1040242
-0.03237162 0.05699386 0.008941917 0.044271905 0.04961369 0.05601327 -0.063762955 0.0018078513
-0.0011414328 0.0030627598 0.0003099834 0.054572675 0.06144063 0.041987292 -0.07894957 0.08936358
-0.039012097 -0.092345096 0.024806553 0.0013469844 -0.04107098 0.059169333 -0.021538008 0.0785769
-0.08007342 -0.07270405 -0.04825016 -0.10432423 0.038421758 -0.034423508 0.08883955 0.09668091
-0.106470734 -0.076126285 0.07015359 0.06452438 0.08632905 -0.09620371 0.023981677 0.11401395
-0.03709156 -0.096662275 0.12616943 0.115308985 -0.017316725 -0.039814793 0.10933818 0.052735668
-0.0863429 0.049329776 -0.11315054 -0.009918898 0.113939114 0.02525224 0.087353915 0.111740544
-0.09412608 -0.06350003 0.010313536 0.08759891 0.022515878 -0.11646363 0.024995359 0.11444863
-0.123970225 -0.1261034 -0.046126094 0.009479183 0.12521192 -0.027365193 0.011421811 -0.048764434
-0.10185537 0.06682047 0.05527759 0.10402873 0.033142008 0.0959554 0.09251401 -0.07712809
0.07468559 -0.024003271 0.060850386 0.038240775 0.05251408 0.096457146 0.026926408 0.12575698
-0.08605283 -0.039383955 -0.017837172 -0.03978425 -0.0026824372 -0.06473108 -0.024835596 0.10118922
-0.069037795 0.096552536 -0.08373121 -0.103154205 0.11248158 0.051141035 0.004944267 0.10918319
-0.023038927 -0.06915748 0.03815288 0.06299901 0.0023728965 -0.014392215 0.05112738 0.06968262
-0.12696718 -0.015739191 0.024335487 -0.10344459 -0.021329934 0.09472785 -0.12209722 0.06948483
-0.08058259 -0.09653505 0.052816354 -0.11241067 0.0766939 0.10003392 0.09980655 -0.08822584
-0.035968147 -0.103306204 0.09438625 -0.12593617 0.047592234 -0.097827815 -0.06090393 -0.07206063
-0.02098781 -0.0020997291 0.12579264 -0.060245268 0.10211574 -0.053066406 0.06784032 0.12250165
0.05536863 0.09772622 -0.11043536 0.005003515 0.11318673 -0.01437579 -0.022909366 0.11635534
0.10773451 -0.10012391 -0.031260423 0.078658946 0.10111611 0.119020514 0.04848168 0.035981573

gcl_0.edge_mlp.3.bias f4 [64]
00000000: 2317 933d c698 463d b9b2 a93d b495 90bd
00000010: 778a df3d da84 8e3d 5a04 6cbd 6668 f2bd
00000020: 30fd bc3d 5b3c 893c 2ecc 3abd 5ed9 903c
00000030: c129 d4bd 2c08 a63d 650a 48bd dc6e 243d
00000040: 72ff 0f3d 21db 543d 0a8c 273d f601 dbbd
00000050: c589 ac3d 3ac6 c73d f48f d2bc d667 fb3b
00000060: 57a7 103d 709c c13d e7a1 fc3d 121d 2dbd
00000070: aa6c ab3d 585a c93d 486a ee3d b42f fe3c
00000080: aaae d93d 21d7 c8bd 2b7b 3bbb 0044 cc3c
00000090: 785e 2d3d df4a 9cbd 7fb7 903c 647f b83d
000000a0: 5c7b cfbd 6b0e b63b e841 c83c b502 9ebd
000000b0: 3660 dc3d 2bb7 503d b4a9 40bd 7b3b cfbb
000000c0: 994b 8fbd 2ed9 be3d 84b5 763d 6cc7 bbbd
000000d0: 1372 04be c445 debd 7bd4 bebc 95e6 d23d
000000e0: 1d79 a0bc 3bd9 9e3d faa8 b0bd 02bc a4bd
000000f0: 6070 4a3d 2874 e0bd 2352 b2bd e077 e33c
0.07182147 0.04848554 0.08286042 -0.070598036 0.10915082 0.06958933 -0.057621337 -0.11836319
0.09227979 0.016752413 -0.045604877 0.017681774 -0.103595264 0.081070274 -0.048838038 0.040144786
0.03515572 0.05196679 0.040905036 -0.106937334 0.08424715 0.097546056 -0.025703408 0.0076722903
0.035315838 0.09453666 0.12335568 -0.04226405 0.083703354 0.09831685 0.11641365 0.031028606
0.10629018 -0.098066576 -0.002860735 0.024934769 0.04232642 -0.07631468 0.017665623 0.09008673
-0.10130951 0.005555918 0.024445489 -0.0771536 0.10760538 0.050955933 -0.04703684 -0.0063242293
-0.06996841 0.093187675 0.0602317 -0.09168896 -0.12934141 -0.108531505 -0.023294678 0.10297886
-0.019589001 0.07756277 -0.0862598 -0.08043672 0.049423575 -0.10959655 -0.087070726 0.027767122

gcl_0.edge_mlp.5.weight f4 [64, 64]
00000000: f03f d3bc 964d 7d3d 0074 923d c936 83bd
00000010: 09e4 40bc 3776 9dbd 461b dd3d cf0b 113d
00000020: b09f 85bd a08c d2bd ec7b 373c 7896 c53c
00000030: 3914 3a3d 0313 903d 4d7d 76bd 3fce 0b3d
00000040: 282a bfbd d8e7 813d c319 a53c 3983 afbd
00000050: b6ec a43d 1cd0 9d3d ba9c aabd 6057 fb3d
00000060: 89bb 8abd c905 8ebc 6b8b 3eba c1be e63d
00000070: 6124 013e f14f e0bd d69d d73d e02e c13b
00000080: b4ce b8bd bb9a 283d cb37 bd3d 0186 d73d
00000090: 8c86 d73d fadd c3bc f72d 21bd d399 c13c
000000a0: 999d aebd f195 863a 3d37 e23d 0be8 88bd
000000b0: e571 cd3c 8580 983d 77fd d3bd a516 2b3c
000000c0: 5d03 e83d 73b3 c53d 3885 ea3d 8933 f5bd
000000d0: 0ff2 b3bd c974 91bd 966c 623d 8d2d db3c
000000e0: 1658 06bd 6799 c5bd 601c 603d 7f8d cd3c
000000f0: 2933 acbd e18b 243d e8f7 febc acc4 aa3d
00000100: ab04 0cbe fe4d c5bd 1d58 933d 5a7e d43d
00000110: 9f2f 4bbd db46 02be 89b2 cebd fc68 c7bc
00000120: e0c6 2f3d c2fe d93d 50a2 5fbd 4f1d 293d
00000130: bb30 24bd 1670 673d f235 b4bd 03c2 413d
00000140: 22f6 1e3d 8109 df3d 825a 80bd 7d8d 1a3d
00000150: 6dc4 d5bd c980 71bd 88b6 973d 42d5 3ebd
00000160: dd59 b6bd d9b6 e1bb f1ea b93d 5fab 5b3d
00000170: 2f0f cabd d38b dcbd abbe c8bc 591c f5ba
00000180: f34d c33d 0b2b 4a3d 8c72 c4bd bfd6 c23b
00000190: 164a b5bd 4bd2 9fbc c828 b5bd c84c b6bd
000001a0: 5632 1d3d 682b da3d 963a 8f3d e5ee b8bd
000001b0: 86f2 d0bd 20f4 87bd c82d 0cbd 6598 a2bd
000001c0: c9d7 a9bd b853 f5bb 283d 503c 4a5f 0a3e
000001d0: 33ce 4ebd e9d0 1cbd f074 ea3d 3139 a83d
000001e0: 5108 c23d f84b 07bd a436 f9bd 3ea1 883d
000001f0: 8428 c9bd d938 0e3e 0a59 d93d 65fb 15bd
00000200: 3991 68bd 25c8 10bc 3c5a b5bd ca5a 75ba
00000210: a36d a5bd bfc7 b3bc 17ff 883d bd4e 4b3d
00000220: 57e7 373d f88d 363d d275 893d ee7f ea3d
00000230: 57c9 c93d b5c8 46bd c3b0 a73c 79fa 5c3d
00000240: acec 4e3d c9f7 d4bd 136d b9bd 6615 723c
00000250: 5a50 b33d c0b8 f63d dc17 b6bd e763 63bd
00000260: af4b b83d 7beb a33d 68d6 e63d c71f d93d
00000270: 1d6e 7a3c d11f 0b3e d2c8 a9bd dad9 47bb
00000280: 72f3 c4bc 7ed6 d3bd b3e0 9b3d 7bcb 44bc
00000290: 9cf9 dd3d 472e 06be 4d71 b73c 5873 28bd
000002a0: 6035 37bd 52c6 38bd f774 b13c ba84 a23d
000002b0: 5cdb 04bd 1b09 cebd 1dc2 d7bb a521 60bd
000002c0: 2f09 983d 1a00 35bc 1a33 48bd 2e8e d43d
000002d0: ca33 abbd 4be4 96bd 5155 00bd 28df 0abc
000002e0: 3471 b7bd 3359 f63c 97f5 2cbd 9763 de3d
000002f0: 2c1d 0d3e 3a9a 0a3c ac30 9ebc 1514 c8bd
00000300: 44e0 7dbd d5e0 3d3d 543c 4f3d d80e cdbc
00000310: b9cf d53d ba04 de3d 9223 21bd 10dc 603d
00000320: 0ff2 ccbd 9173 b93d b9de ccbc e2a0 bb3d
00000330: cdeb a2bd c239 b3bd 3ac9 4abd 1f21 f5bd
00000340: e35b b83c 1d60 013d 336f 08bd cdaa bbbc
00000350: 5111 993d 7d6d 3dbd ba94 6a3c 9cc8 f03d
00000360: fddb e53d 912a a439 05c5 e53a 63d9 11bd
00000370: 2db5 bcbd cea9 99bd 9261 d23c f04c b23d
00000380: bf00 6a3d 94e0 b7bb 2ea2 babd 7e36 bd3d
00000390: 44fe f93d 09f6 093e 9367 0abd cc00 b73d
000003a0: 9240 aabd a1ae 303d b1ae f23d a851 45bd
000003b0: 3e1b c5bd a9f5 c63d 871b 6fbd f1a9 88bd
000003c0: 9f3c b1bd b935 fc3c 5b2a 79bd a145 ab3d
000003d0: e718 57bd 01fc debd aea8 cb3c 59af afbd
000003e0: 986d cb3d 0e35 ea3d 0131 c73d 894e 01be
000003f0: 1d72 dcbd 2447 f33d 20f6 e3bd f775 f0bd
-0.025787324 0.06184157 0.071510315 -0.06406934 -0.011773118 -0.07688563 0.107962176 0.035411652
-0.065245986 -0.10280728 0.011198979 0.0241196 0.045429442 0.07034876 -0.06017809 0.03413224
-0.093342125 0.06343049 0.020153886 -0.085699506 0.080529615 0.07705709 -0.083306745 0.12272525
-0.06774051 -0.017336743 -0.00072686997 0.11266852 0.12611534 -0.109527476 0.10528152 0.0058954805
-0.090238005 0.041163187 0.09239157 0.10523606 0.1052371 -0.023909558 -0.039350476 0.02363292
-0.08526153 0.0010268075 0.11045692 -0.06684884 0.025078723 0.07446388 -0.10351079 0.010442411
0.113287665 0.09653368 0.11451191 -0.1197272 -0.087864034 -0.07102353 0.055279337 0.026755119
-0.03279885 -0.096484 0.05471456 0.025091885 -0.084081955 0.04017246 -0.03112407 0.083382934
-0.13673656 -0.096340165 0.07194541 0.10375662 -0.049605962 -0.12722342 -0.10092647 -0.024342053
0.04291427 0.10644294 -0.054598153 0.041287716 -0.040085535 0.056503378 -0.08799352 0.047304165
0.03880895 0.108904846 -0.06267263 0.03773259 -0.10437856 -0.05896071 0.07407862 -0.046590097
-0.08903859 -0.006888252 0.09078015 0.05363023 -0.09866177 -0.10768857 -0.02450498 -0.0018700465
0.09536352 0.049357455 -0.095921606 0.00594601 -0.088520214 -0.019509455 -0.08845669 -0.089013636
0.038378082 0.1065281 0.06993596 -0.090299405 -0.10202508 -0.0663836 -0.034223348 -0.07939223
-0.08293111 -0.0074867867 0.012709893 0.13512912 -0.050489616 -0.03828517 0.11448085 0.082140334
0.094742425 -0.033031434 -0.12168625 0.066713795 -0.09822181 0.13888873 0.10612686 -0.0366167
-0.05677912 -0.008836781 -0.088551015 -0.0009359537 -0.08077552 -0.021945832 0.066892795 0.049635638
0.044898357 0.044568986 0.067119256 0.11450182 0.09852856 -0.048531253 0.020470029 0.053949807
0.050518677 -0.10398824 -0.090540074 0.01477561 0.0875556 0.12046957 -0.088912696 -0.055515196
0.089988105 0.08003899 0.112713635 0.10601764 0.015285042 0.13586356 -0.082902566 -0.003049484
-0.024041865 -0.103436455 0.07611217 -0.012011404 0.10838625 -0.13103591 0.022392893 -0.041125625
-0.044728637 -0.045111008 0.021662218 0.07935472 -0.03243576 -0.100603305 -0.0065844194 -0.054719586
0.07423627 -0.0110473875 -0.04887686 0.10378681 -0.08359487 -0.07367762 -0.031331364 -0.008476056
-0.08957139 0.03007183 -0.0422264 0.10858839 0.1378066 0.008459622 -0.019310318 -0.09769455
-0.061981454 0.046356995 0.050594643 -0.025031492 0.104400106 0.10840745 -0.039340563 0.054897368
-0.100071065 0.09055246 -0.025008546 0.09161545 -0.07955132 -0.08751251 -0.04950831 -0.11969208
0.022504753 0.0315858 -0.033309173 -0.022908593 0.07474006 -0.046246994 0.014317686 0.11757013
0.112236 0.00031312232 0.001753003 -0.035607707 -0.09214244 -0.07503091 0.02568129 0.08706081
0.057129618 -0.0056114886 -0.091129646 0.09238909 0.122067004 0.13472761 -0.033790182 0.08935699
-0.08313097 0.04313529 0.11849726 -0.048173577 -0.09624337 0.09714825 -0.05837586 -0.06673039
-0.08654141 0.030787336 -0.06083141 0.0836289 -0.052513983 -0.1088791 0.024860706 -0.08578367
0.09933013 0.11435901 0.09726144 -0.12627615 -0.10763953 0.11878803 -0.11130929 -0.1174125

gcl_0.edge_mlp.5.bias f4 [64]
00000000: 28fb 1f3d 0298 12be b89f 0bbd a3f2 ca3d
00000010: 6bbe 013e 2dff 98bd 5e28 813d 63bd 383c
00000020: cd2b a6bc 31c3 b3bc 7f0a a73d 2221 29bd
00000030: 4c8e f4bd fe13 a43d 88bb f93d 028f e43d
00000040: b251 25bd e074 92bd c5b1 adbc a9ac 9f3d
00000050: e0e0 0abe 1df9 00be 0dda 893d cb93 353d
00000060: a2c8 8abc 4131 db3c 2edd 323c 448f cebd
00000070: d010 9f3d 2354 d63d 2155 8bbd 164c b9bd
00000080: d157 863d 3519 983d f336 813c d0da 6bbc
00000090: 88b8 28bd 1906 ff3a a190 09bd 521f 0dbe
000000a0: 00e1 a4bd f90c adbd ade6 a03d e334 f33d
000000b0: f6f6 d13d a319 f8bd 3abf 363d c70e c4bd
000000c0: d72b fbbd a352 c63d 8f4f 78bd ff0e 0e3d
000000d0: fd8b 18bc 5d77 53bd f08a c03b f51d cabd
000000e0: c620 333d 3757 423d 781c 5ebd 3862 1f3d
000000f0: 8896 d53d 7fb8 ba3d fcfd 69bb 3432 febd
0.03905788 -0.14315799 -0.034087867 0.099095605 0.12670295 -0.07470546 0.063065276 0.011275622
-0.020284558 -0.02194366 0.08156299 -0.041291364 -0.119412035 0.08011626 0.12193972 0.11160089
-0.040361114 -0.071511984 -0.021202931 0.07796604 -0.13562346 -0.12595029 0.06731043 0.0443304
-0.016941372 0.026756885 0.010916991 -0.100859195 0.077668786 0.104652666 -0.068033464 -0.09047715
0.065597184 0.07426683 0.015773272 -0.014395431 -0.041191608 0.0019456773 -0.033585194 -0.13781479
-0.08050728 -0.0844974 0.07856498 0.11875322 0.10252182 -0.12114265 0.04461596 -0.09573131
-0.12264221 0.096837305 -0.060622748 0.03468227 -0.00931072 -0.051627506 0.0058759376 -0.09868995
0.043732427 0.047446456 -0.05422637 0.038912028 0.10429102 0.09117221 -0.0035704365 -0.12411919

gcl_0.node_mlp.0.weight f4 [64, 130]
00000000: f0c7 22bd bcaa 383d b808 183c bc02 3bbb
00000010: be02 973c 9cb8 863d 25cd f53c 1b59 053d
00000020: 1fd4 363c d9f4 a3bd c048 2b3c 4b08 90bc
00000030: e191 853d 2112 89bd b44d af3d 15a9 813c
00000040: 67d1 593d 1206 3cbd 913d 753d b7c4 613c
00000050: 59c2 0b3d 94b7 0b3d 0bce 1abd 4b6a 99bd
00000060: 2219 903d c241 9cbd 49bf 0dbd b8a0 54bd
00000070: a796 aabc 6fd4 57bd ed9d b8bc 2cc1 7dbb
00000080: 25f3 453d 9b72 84bd 426d 3cbd b968 0dbd
00000090: b35f 013e 022e 6ebd be54 0abd de05 243d
000000a0: 1ee5 9b3d e625 07bd 62f7 9cbd 5450 51bd
000000b0: 1dec 38bd 71b8 773c 9193 02bd 4a34 27bb
000000c0: 9978 8a3d 77cb 10bd 8f7a 1dbd ca1d 423d
000000d0: ec32 88bd 890d 55bd 73ed 973d 4b77 493d
000000e0: d9cb 32bd f6d6 b5bd d5d8 5ebd 9d28 3dbb
000000f0: 6c8b 5fbc 8285 053b 43f4 7bbd 7427 c63c
00000100: 4c16 203d 5ec8 bb3d eb0b 463d 0b95 843b
00000110: a6ae 163d 3f98 16bb 9af4 c23d 2fb6 5ebc
00000120: ae51 d637 28e3 afbc 9072 20bd f85a 4d3d
00000130: fc0c 433d aa22 3a3d ebd4 2fbc 36de abbd
00000140: 0d4e c43d 5077 733d d318 023d 03fe 833d
00000150: fc52 b13d 26e8 e2bb 5246 993c 3a33 03bd
00000160: bde6 963d 7473 3ebd d8c7 80bd a857 0f3d
00000170: e4d1 c8bc 3bc2 ecbb 7883 29bd 2cd2 63bd
00000180: 4e67 94bc e981 9dbd 5291 e93c 3bdd 96bb
00000190: 8939 01bc 56ee 983c 68d7 10bc 82bc 033d
000001a0: 8777 923d bacf 453d 49bd 383d b699 82bd
000001b0: 7e8d 913d 3744 7bbd afc3 5a3c 178f ae3c
000001c0: cfa5 c03d e643 313d 7367 65bd 9f70 22bc
000001d0: 41bf 82bd b349 18bd 8e82 a03d 72eb 2d3d
000001e0: a6ae e1bc 3ca7 a4bd 5d8f aab9 4ab3 53bd
000001f0: 806b b9bc e67f a8bd 089d 873d ec4f 443d
00000200: d03c f13c 6768 413d 17ea 883a ff68 c83c
00000210: 0e5f e0bc 9619 1b3d 4ea6 01bd 30d6 503d
00000220: 924d 7d3d b7bb 863d 851f f43c 2aed 5abd
00000230: c82a 253c 7633 273d 32e6 96bd 9083 58bd
00000240: ad68 9b3d 5cdb 693c 46ac 263c 0d02 723b
00000250: 67c7 7b3c b2be 8abc 1d98 4abd 6058 adbc
00000260: b14e 65bb 4191 e13b 37b6 333d 3236 d23c
00000270: ab31 e4bc 9895 273d a73b e0bb 6184 533d
00000280: 40d6 88bd 500b 69bd 406a 9dbd 563a debb
00000290: fb98 8dbd 40a7 9b3d 75ca 7b3d 6ab5 b3bc
000002a0: 841d 1d3d d19a a33d ee56 a6bd dc23 443d
000002b0: 50d7 afbd c9ba 843d dc40 753d 971d 863d
000002c0: 7951 13bc 40c4 1e3b f9c8 7bbd 0b86 213d
000002d0: 41df b7bd 7a65 44bd 0f48 b0bc ae00 e83c
000002e0: 0e8b ce3b 6260 abbc f96c 10bd 9adf 0f3d
000002f0: f6b5 513d 578a 183d 01e4 87bd f754 81bd
00000300: 7fa3 bc3d 7104 53bd d4e4 f9bc d21d 523d
00000310: 7fcf 873c 3128 36bd afab 773d 2fb3 5d3c
00000320: bf75 90bc 3c5b bebc 44e0 e3bc a57c 90bc
00000330: 4be0 2fbd 67c8 b2bd 0826 8bbd 454e c33d
00000340: 70ab a33d bfdc 453d eebc a03c 0573 7c3d
00000350: 2b81 3f3d 2d3a 4f3d 9f78 36bc 0934 ec3c
00000360: 1927 15bd 16be 473d 5d69 743d e12c 803c
00000370: 7b3a 7abd 95e5 623c 4e46 a43d 579a 7a3b
00000380: c45f 093d c616 a13b 3b3c 523d 6140 273d
00000390: c3cc 3c3c 1350 a9bd d6de 993d 9c2b 92bd
000003a0: dd14 a1bd d570 933d 79a1 f8bc d0a6 b0bd
000003b0: 6571 9c3d d4b4 9ebc 61d0 973d 013e 793d
000003c0: 2f22 98bd 56fa c3bd 5ad1 afbb b1bb 84bc
000003d0: 6acd b9bd 1b8a 44bd 17c5 383d 7d60 0a3d
000003e0: 1eb0 eb3c f706 0c3d c6dc 793d 4095 a03d
000003f0: 617b 87bc 9c4a 763b 7b77 c43d 3397 8e3c
-0.039741457 0.0450847 0.009279422 -0.0028535565 0.018433925 0.0657818 0.030005047 0.03255568
0.011158972 -0.08005685 0.010454357 -0.01758208 0.06521965 -0.06692911 0.085597426 0.015827695
0.053178217 -0.045904227 0.059873167 0.013779811 0.03412089 0.03411062 -0.037794154 -0.07490977
0.07036044 -0.0762973 -0.034606252 -0.051911086 -0.02082379 -0.052692827 -0.022536242 -0.0038719876
0.048327584 -0.06467172 -0.046002634 -0.0345237 0.12634163 -0.058149345 -0.033772223 0.040044658
0.0761206 -0.032995127 -0.07664372 -0.051101997 -0.04514705 0.015119658 -0.03187901 -0.0025513344
0.067612834 -0.03535029 -0.03844696 0.04739169 -0.066503376 -0.05201486 0.07418337 0.049186032
-0.043651436 -0.08878891 -0.054406006 -0.0028863319 -0.013644081 0.0020373766 -0.061512243 0.024188735
0.039083764 0.091690764 0.04835121 0.0040460876 0.03678765 -0.002297893 0.0951931 -0.013593241
2.5548823e-05 -0.021470621 -0.039171755 0.050135583 0.047619805 0.045443214 -0.010731916 -0.08391993
0.095851995 0.059439957 0.031761955 0.06444933 0.08658406 -0.006924647 0.01871029 -0.032031275
0.073682286 -0.046496823 -0.06288117 0.034995705 -0.024514146 -0.0072253025 -0.041385144 -0.055620357
-0.018115666 -0.07690794 0.028511677 -0.0046040094 -0.007887253 0.018668335 -0.008840419 0.032162197
0.07151704 0.048293807 0.04510239 -0.06376974 0.071070656 -0.06134435 0.013352319 0.021308465
0.094066255 0.043277644 -0.05600686 -0.009914546 -0.06384135 -0.03717966 0.07837401 0.042460866
-0.0275491 -0.0803971 -0.0003253174 -0.051684655 -0.022634268 -0.0822752 0.06621748 0.047927782
0.029447943 0.047218706 0.0010445741 0.024464129 -0.027389076 0.037866198 -0.03165274 0.050985515
0.061841555 0.065787725 0.029800186 -0.053448834 0.010081001 0.04082056 -0.07368125 -0.052859843
0.07588325 0.014273491 0.010172909 0.0036927492 0.015367365 -0.016936634 -0.049461473 -0.021160305
-0.003498953 0.0068837707 0.043874945 0.025660608 -0.027855715 0.040914148 -0.0068430486 0.05163992
-0.0668149 -0.056895554 -0.07686281 -0.0067818565 -0.06913944 0.0760026 0.061472375 -0.02193709
0.038358226 0.07988513 -0.08122049 0.04788576 -0.085859895 0.06480939 0.059876308 0.065486126
-0.008991593 0.002422586 -0.06147096 0.039434474 -0.08978129 -0.047948338 -0.021518735 0.028320637
0.0063031977 -0.020919982 -0.035260174 0.035125352 0.051198922 0.037241306 -0.06635285 -0.06315034
0.09210872 -0.051517908 -0.030504622 0.05129797 0.016578434 -0.044471923 0.060466465 0.01353149
-0.01763427 -0.023236863 -0.0278169 -0.01763756 -0.04293851 -0.0872963 -0.06794363 0.09536413
0.079916835 0.048306223 0.019621339 0.06163313 0.046754044 0.05059259 -0.011137157 0.028833406
-0.03641424 0.048765264 0.059670795 0.0156464 -0.061090928 0.013848682 0.08021222 0.0038238966
0.033538595 0.004916045 0.05132697 0.04083288 0.011523428 -0.08267226 0.07513206 -0.07137224
-0.078653075 0.071992554 -0.030350434 -0.08625567 0.07638816 -0.019373335 0.07412792 0.060850147
-0.07428395 -0.09569232 -0.005365533 -0.01620278 -0.09072383 -0.04798327 0.045109835 0.033783425
0.028770503 0.03418633 0.06100156 0.07840967 -0.016538324 0.0037581092 0.095931016 0.017406082

gcl_0.node_mlp.0.bias f4 [64]
00000000: c888 06bc ad60 883d ddc3 893c 7102 c2bc
00000010: 71d2 31bd 8f18 d6bd 292c 853d 080e 753b
00000020: 47d2 b73d 901f af3c c1a5 c6bd 938a dabc
00000030: 4dcf d43d 6060 cdbd 972e 9c3c 1d4a 833d
00000040: 46b8 2f3c b925 adbd 2059 5c3d a0ad d23c
00000050: 50e9 86bd a991 0f3d e88c aebd 1b05 9c3d
00000060: 633c 0e3d 4f9e 99bd ce0d 803d ec34 d63c
00000070: ce79 f23b 1187 583d 6006 5fbd 80d5 4f3d
00000080: 8311 cebd 5b98 46bc ce1a b6bd e21b d4bb
00000090: 1618 1fbd 6036 06bd 0c0c 9ebc 85b7 4abd
000000a0: 9a36 4b3c 4db6 733c a5ef 9e3d 3337 a4bc
000000b0: 1b87 c43d c579 86bd 32a5 22bd 66b1 2cbc
000000c0: ccaf 9539 64b7 3abd 8c47 8a3d e7fe a1bd
000000d0: 7322 113d a931 a83d e068 9d3d 2b08 363c
000000e0: 75cf 2abd 9f0a b33d dea6 06bd 345f b8bd
000000f0: 1681 99bd d115 17bb c9fe 563d a79f a23d
-0.008211322 0.066590644 0.016817028 -0.023682805 -0.043413583 -0.10453903 0.065025635 0.0037392396
0.08975654 0.021377355 -0.09699584 -0.026677405 0.10391102 -0.10028148 0.019065185 0.0641062
0.010725087 -0.08454461 0.053795934 0.025717556 -0.065874696 0.03505102 -0.085229695 0.07618161
0.034725558 -0.07500898 0.06252633 0.026148282 0.007399774 0.052863184 -0.05444944 0.05074072
-0.10061934 -0.012121285 -0.08891831 -0.0064730505 -0.03884133 -0.0327667 -0.019292854 -0.049491424
0.012403155 0.014875007 0.07760552 -0.020045852 0.09596082 -0.065661944 -0.039708324 -0.010540342
0.00028550474 -0.04558505 0.06751928 -0.07909947 0.035433244 0.08212597 0.07686019 0.011110346
-0.041701753 0.0874226 -0.03287398 -0.090025336 -0.07495324 -0.0023053775 0.052489076 0.079406075
